proly/models_c/player1/model_ep100.pt (torch, 150514 bytes, 11 tensors)

actor_encoder.0.weight f4 [128, 11]
00000000: 10b0 58be 6110 4fbe 604c ddbd 04e9 983d
00000010: a8ec 823d 27aa 6abe 1f05 9c3e c17c 15be
00000020: efa8 383c 1945 853e f2cd 1dbe 9381 8cbe
00000030: cac9 f83d 13f2 0bbd 15e7 07be e906 2bbd
00000040: 4314 56bc fbfb 15bd ddf3 4a3e 2bc6 35be
00000050: bcef 183e 6197 99bd 2a16 173e 870a ad3e
00000060: 21aa f4bd 901d 79be 77e9 cc3c 7425 873e
00000070: 4f0f aebe ae17 4e3d f689 7a3d e6b8 04be
00000080: 4989 bebc cb43 363e fb45 bd3e f0fd 13bd
00000090: a067 01be aeab cd3c d06f 17bd 4173 2abd
000000a0: 0b9f 08be 4c83 87bc 2f4c a3bb 25ef 143e
000000b0: b217 833e 3630 0d3d a76f ae3d 9418 63bd
000000c0: 6a0f 313e bfa4 83bd 2473 573d 42b8 27be
000000d0: 316c 45be ddd1 3fbe c560 873d 8e01 6f3e
000000e0: 6196 373e 767a 81be 0a16 4b3c 5b2a 04bd
000000f0: 88d9 0b3e 24c0 393d c774 943e 5062 27be
00000100: d8bf 8fbe e2bf 3ebe 2604 ce3d e402 9fbe
00000110: 6ce0 4abe ac12 80bd d775 a4be 562f 17be
00000120: d4c8 79be 4647 023e 1c28 6bbe 5c43 7bbd
00000130: c9a3 61be 9cb1 c43d 3783 5fbe 3734 843d
00000140: 42c9 8a3e 02e2 2c3e e55e f2bd c16a c33d
00000150: 937c 7cbe b7d7 fe3d 1df1 fe3d 9db2 5fbe
00000160: b33e 30be 0647 b83d 871d 313e 80b8 1d3d
00000170: 29b4 81be 19db 8d3e b492 303e 59af 513e
00000180: c669 77be 904d 62bd 7a99 973d 71e5 17be
00000190: 0ca8 2f3e 21c0 80be 2383 a83c 27e6 88be
000001a0: ac79 12bd db15 46be 2def 37be 3eb5 09be
000001b0: 37ce 10be c6e1 383e 0ee3 2a3d 0fd0 af3e
000001c0: 8ec3 8b3e 5794 8ebe 63c5 123e 0390 9cbe
000001d0: ec70 5c3e b43e 553e 7a67 bebb 30db 80be
000001e0: 8a50 86be 4da1 843e cf82 63bc 1073 2cbe
000001f0: 7014 7cbe ace5 873e 5f0e 633e 8d46 67be
00000200: 57f2 0bbd e2e2 e6bd e62b 5a3d b956 ba3c
00000210: aad3 8fbd 909c 863e 3b70 723c c999 a33d
00000220: 96db 823d 0649 04be 2320 6ebd 5107 ea3d
00000230: 8244 2d3d 5c14 e13d 6936 a4bd 3dbb 92be
00000240: 3517 00be bf37 0e3e ba66 6a3e 33fe c2bd
00000250: 4833 033e 5cc9 9abe c78a e6bd f087 0c3d
00000260: b414 063e c36f 4ebe 7a98 513d d045 73be
00000270: e0db 9bbd 4448 803e f53c 37be d4a1 1d3e
00000280: cc5f b13d e5bd 65be 1631 cd3d d23c 6cbe
00000290: 27cf 6fbd 32b5 21be 61b4 8e3e e2fa 9f3e
000002a0: 5d47 84be c026 64be 6bca a1be 47d3 a43d
000002b0: 8567 993e 9cd1 00be 6541 89bd 19b8 3c3e
000002c0: 7b7a 983d 61b3 e13c 2d9a 54be 1050 9d3d
000002d0: 2bfe 533e d179 89be af39 bfbd e320 543e
000002e0: 2512 ec3d c9bc f23c b041 49bd 83c4 133e
000002f0: b85e e83d 0103 853d 768e 4dbe 28fa 5ebe
00000300: 722b 8dbe 4279 d33c 599c c2bd cc11 82be
00000310: 2ed1 8ebd 2634 613e f3a4 773e e8f5 98be
00000320: 3f9c a23e 2d8d a5bd 0a16 73be 9152 26be
00000330: dd54 523d 1e0d 163e d00c 23bb 9a30 1dbd
00000340: 7389 773d 09d9 d6bd 4307 153e d12d 113e
00000350: a256 e33d 925c 86be f6fe fabd fbe2 c03d
00000360: 6f8d c7bc 12d5 e2bd 2af3 37be a6aa 62bd
00000370: 8651 883e 28b0 413e 32a6 a13e dae0 333e
00000380: 7bbd c63a 0457 873e 97b3 33bd 9acb 04bd
00000390: 08b6 4ebe 383a 28be da94 64be 7c24 96bd
000003a0: 61c6 b7bd 3c2c 9ebc 2f8a 09bd 8b43 d63d
000003b0: ddfa e0bd 9ee8 98be c30c 92bd 040b 4bbd
000003c0: c5e7 b33c 419f 8b3b b9be 0b3e cb4a 373e
000003d0: 263f 1abe dbc3 9bbe d2ba f63d 9b21 24be
000003e0: e2de 113e cca2 253e 090d 50be fee9 5abe
000003f0: c576 04be a93a e5bd 34c6 7b3e e707 e2bd
-0.21160913 -0.20221092 -0.10805583 0.07466319 0.06392795 -0.2291647 0.30472657 -0.14598371
0.011270746 0.2602928 -0.15410593 -0.27442607 0.12147863 -0.034166407 -0.13271745 -0.041754637
-0.013066354 -0.03661726 0.19819589 -0.17751376 0.14935201 -0.07499576 0.14754549 0.33797094
-0.11946512 -0.24327683 0.025013668 0.26395762 -0.33996055 0.05031555 0.061166726 -0.12961158
-0.023258822 0.17799298 0.36967453 -0.036130846 -0.12637186 0.025106277 -0.036971867 -0.04161382
-0.1334192 -0.0165421 -0.004983447 0.14544351 0.25604016 0.034469806 0.0851739 -0.05544336
0.17291036 -0.06427907 0.05260004 -0.16378883 -0.19279553 -0.187324 0.06610254 0.23340437
0.17928459 -0.25288743 0.012395391 -0.032266956 0.136572 0.045349255 0.28995344 -0.16346097
-0.28076053 -0.18627885 0.10059385 -0.31056893 -0.19812173 -0.062535614 -0.32121155 -0.14764151
-0.24393016 0.12722501 -0.2296452 -0.061343536 -0.22035135 0.09604189 -0.21827398 0.06455272
0.27106673 0.1688309 -0.11834506 0.09541846 -0.24656896 0.12443488 0.124483325 -0.2184548
-0.17211418 0.08997922 0.1729642 0.03850603 -0.25332764 0.2770622 0.17243463 0.20477046
-0.24161443 -0.05524975 0.0740232 -0.14833619 0.17153949 -0.25146583 0.020570343 -0.26738092
-0.035760567 -0.19344275 -0.17962332 -0.13448045 -0.14141165 0.18054876 0.041720442 0.34338424
0.27297634 -0.2784755 0.1433311 -0.30578622 0.21527451 0.208247 -0.005810675 -0.25167227
-0.2623332 0.25904313 -0.013886168 -0.16840768 -0.24617171 0.26542413 0.22173451 -0.22585507
-0.03416666 -0.11273743 0.05326452 0.02274643 -0.070227936 0.26291323 0.014797266 0.079883166
0.06389539 -0.12918481 -0.058136117 0.11427177 0.042301662 0.10990211 -0.080181904 -0.28658476
-0.12508853 0.13888453 0.2289075 -0.09521141 0.12812531 -0.3023175 -0.112569384 0.034309328
0.13093835 -0.20159821 0.051170804 -0.237571 -0.07610297 0.25055134 -0.17894347 0.15393764
0.0866085 -0.2243572 0.10019128 -0.23070076 -0.058547165 -0.15791777 0.27871993 0.31246096
-0.25835696 -0.22280407 -0.31599745 0.080481105 0.29961792 -0.1257996 -0.06701926 0.18429603
0.07445236 0.027551355 -0.20761938 0.07681286 0.20702426 -0.2685075 -0.09337174 0.2071567
0.11526898 0.029631035 -0.04913491 0.14430432 0.11346191 0.064947136 -0.20073876 -0.21775115
-0.2757221 0.025814656 -0.09502477 -0.25404203 -0.069734916 0.2199255 0.24184017 -0.29875112
0.3175983 -0.08083568 -0.23738876 -0.16242434 0.051350463 0.14653441 -0.0024879463 -0.03837643
0.060433816 -0.10490615 0.14553551 0.14177634 0.11100508 -0.262425 -0.12255661 0.09418293
-0.024359433 -0.11075796 -0.17963853 -0.055338524 0.26624697 0.18914855 0.3157211 0.17566243
0.0015162671 0.26433575 -0.043872442 -0.032420732 -0.20186627 -0.16428459 -0.22322407 -0.073311776
-0.08973385 -0.019308202 -0.033579048 0.104621015 -0.109853484 -0.29864973 -0.0713134 -0.049571052
0.021961102 0.004260928 0.13646974 0.17899625 -0.15063152 -0.30422863 0.12047352 -0.16028444
0.1424518 0.16175383 -0.20317473 -0.21378323 -0.12935932 -0.11192829 0.24587327 -0.110366635

actor_encoder.0.bias f4 [128]
00000000: c2a2 973d 5ea3 bc3d eeff b5bd dce0 4f3e
00000010: 8d35 5d3e 5392 1dbd 2a74 883e 3489 8fbe
00000020: d8f9 97bc 9ffa 1fbd d21f 873d 7f1d 9cbd
00000030: e6b3 023e 21d9 0abe 6e91 2d3e ce63 5ebc
00000040: 5127 95be c239 babd 812f 2cbb 70ab c5bd
00000050: c45f 8cbd eb6a 4abd 1e8e d1bd 2675 64be
00000060: bc5b cebd 2a4a 87be f33f efbd deb9 583e
00000070: b503 abbc 9c0e b63d f24f 103e 237f 6c3e
00000080: fd3f df3d a36e fabd b44d 93be e73d 9cbd
00000090: 2ff4 8f3d 65d4 71bc 1fb8 6cbe 27f6 4dbe
000000a0: f258 8f3b 79c5 64be 8dad 3cbd 0982 883e
000000b0: b301 4c3e 9f5e 9e3e 51d7 b23b b1ff 3bbe
000000c0: 26bd 14be fb78 273d 7264 67bc 267a 6abe
000000d0: ef5a 07be 0716 763b 77f3 943e 0639 943d
000000e0: 4b68 8a3e 2b7c c43d 7844 01be 1a63 583d
000000f0: 8295 683e 8db5 8d3d d331 28be 2bf3 5fbd
00000100: b7a6 37be ba24 a7bb 0f4a 9d3d fced a03e
00000110: fd6f 263e 7ddd fdbd e759 2a3e e8c5 5d3e
00000120: bd83 903e eb53 97ba ebc2 88bd 55c8 243d
00000130: 3063 83be 2a6e df3c c8ad 17bc 1b0a 06be
00000140: 6192 04bd 07a1 933e 550d dbbd f0fd 8ebe
00000150: 4254 84be 8c72 13be a2f0 743c 3380 5f3e
00000160: 8893 5abe a114 903e e4c2 30bc ff8d 8cbe
00000170: 9a97 32ba fa52 8d3e 835c 9c3a c147 943e
00000180: 2a58 89bd 88f5 0cbe 289c 933c abf7 1a3e
00000190: 12f1 45be 706d 9fbe afdb 6bbe 6de9 0f3e
000001a0: 27d1 4b3e 81b4 a23d 1f75 303e 5d02 823e
000001b0: f522 89be b9e3 2bbe 55b0 1a3e e49e 10be
000001c0: 72e3 dd3d 7f56 7b3d 1bb6 b13d f913 853e
000001d0: f6d5 853e 50ed 0dbe ac4b 1dbd dccb 6d3c
000001e0: fc92 293e 66f3 92be bcf6 2d3d 136f 303e
000001f0: 4e8e 3f3e f3c2 0d3e ab5c 6fbd 2ba9 873e
0.074040905 0.09210847 -0.08886705 0.20300621 0.21602459 -0.038469624 0.26651126 -0.28034365
-0.018551752 -0.03905737 0.06597866 -0.076228134 0.12763938 -0.1355939 0.16950008 -0.0135736
-0.2913156 -0.09093048 -0.0026273432 -0.0965184 -0.06854203 -0.04941837 -0.10232185 -0.22310314
-0.10076091 -0.2642377 -0.11682119 0.21164653 -0.020875791 0.08889505 0.14092997 0.23095374
0.10900877 -0.122281335 -0.2877022 -0.076289944 0.07028996 -0.014760111 -0.23117112 -0.20113431
0.004374617 -0.22340955 -0.04606395 0.2666171 0.19922523 0.30931565 0.0054577966 -0.18359257
-0.1452528 0.04088686 -0.014123069 -0.22898158 -0.13218282 0.003754975 0.29092 0.07237439
0.27032694 0.09593996 -0.12623775 0.052828886 0.22713283 0.06919394 -0.16425256 -0.054675262
-0.1793469 -0.0051008137 0.07680141 0.31431568 0.16253658 -0.12395761 0.16635858 0.21657526
0.28225508 -0.0011545395 -0.06677803 0.040230114 -0.25661612 0.02727421 -0.009257741 -0.13089792
-0.03236616 0.28833792 -0.10695902 -0.27928114 -0.25845534 -0.14399165 0.014949949 0.21826248
-0.21345341 0.2814074 -0.010788653 -0.27452084 -0.00068127515 0.2760237 0.0011929426 0.28960994
-0.06706269 -0.13765538 0.018018797 0.1513354 -0.19330242 -0.31138182 -0.23033021 0.14053889
0.19904004 0.07944585 0.17232178 0.25392428 -0.26784483 -0.16786088 0.15106328 -0.14123112
0.108343974 0.061361786 0.08677312 0.259918 0.26139802 -0.13860059 -0.038402244 0.014513936
0.16559976 -0.28701323 0.042471632 0.17229871 0.18706629 0.13843898 -0.058437984 0.26496252

actor_encoder.2.weight f4 [128, 128]
00000000: 8697 09bc 6ce9 2fbc 70e4 a2bd 5457 c73c
00000010: 1c88 92bd 9a0b 713d 86cf bc3d b36d 63bc
00000020: 9733 e73c f10f 46bc 6b14 7d3d 7c03 aa3c
00000030: 43e2 1e3d a973 57ba a956 a0bc 5cb7 82bd
00000040: 88e1 bdbc d132 c33d 85ae fe3c 4f49 3fbc
00000050: 6b6d a43c 7dba 923d 80b9 cb3c 40cf 92ba
00000060: 3c4a 923d 8f5b 43bc 3d20 6dbd 7505 283a
00000070: 54b4 363d bf97 a03d 9c2f a53c f197 7b3c
00000080: a728 c23d 7c72 c8bc 8408 9c3c 4482 1dbd
00000090: 1665 43bd ce5d ae3d 4ba4 d0bc 7fe3 d0bc
000000a0: ccd0 7b3d ea02 a13c 8d7d 19bd b67d 1a3d
000000b0: bbbd d2bd 49dc 913c 3d1a 67bc dd6b 813c
000000c0: eb47 373d 7113 6cbd 20a8 c33d f223 1bbd
000000d0: ac8c 94bd 2c6a b4bd f861 6d3d 5027 94bd
000000e0: af22 35bd c8ab 8c3d bc54 85bd 4289 983d
000000f0: 2701 c53c 6df8 54bd 51c9 42bd 7e20 563d
00000100: 8f22 d93d d239 6b3d cc51 8fbd 7a82 90bd
00000110: 7fa1 bf3c f65b 93bd 0d40 b43d ccb0 783d
00000120: 9553 68bc 7dad 8dbd ba10 aabd f8aa b23a
00000130: ec77 a83d 8b95 e03b 0e66 74bd 04a1 ab3c
00000140: 552b b5bd 74e3 5fbd d56e a93d d707 11bd
00000150: 7e45 c6bc 406f 6abd f688 64bd 4a43 033d
00000160: 3cd9 aabd 0168 ec3c 7d43 8dbd fc7a 8bbd
00000170: de1f 96bd 7c3d 18bd 9e39 b73d a712 e73c
00000180: 2fde 78bd 44b4 c4bd d5dd 223d 8b4b 4fbd
00000190: 5735 423c 7d3f 07bd 403a 96bd c510 873c
000001a0: 25a2 273c b55b 31bd 4a12 503d e21c 17bc
000001b0: 10ed 223d 327c c73d 8208 a3bc 2c94 7bbd
000001c0: 7819 c03c 7e17 acbd 5843 37bd 6401 003d
000001d0: 99f5 c33c 1d3f 4abd d0b9 e83c c558 36bb
000001e0: dbeb 7bbd 621a 913c ec19 30bc d51d 253d
000001f0: c7ce 3bbd 8a8f 353a 4bcd af3c 3302 0ebd
00000200: 1296 673d f3df d33d a1cf fa3d 2667 a33d
00000210: 85c4 79bd a493 ad3b 856a c4bd 822e 4bbc
00000220: 687c dcbb ba36 6dbb 269a 983d ea73 9d3d
00000230: 9bfb f43d 0b45 d3bc e2b0 7dbc f061 883d
00000240: 644a afbd 37ab 9b3d 9c43 ac3c 232b 51bd
00000250: cea9 ac3c ac5c e9b7 0d83 c83d bb43 913d
00000260: 3ed0 993c a0b8 253d 78f0 5d3c 496d c83b
00000270: 0322 ad3d e8f6 ee3c 3656 f0bb 54e9 9fbd
00000280: 2c5b b9bd 77f4 e13c ee85 c83d 2f2a 81bb
00000290: 53fd 6e3d fc6a c5bd 5ef2 d33d 3afd 4f3d
000002a0: 8593 1ebd 6418 89bc c876 80bc 7528 bdbb
000002b0: 4f78 913d 0d11 ba3d e43e 353d 856d 233c
000002c0: 80ea 643d 88bf b0bd a3eb ccbd 31ba f6bc
000002d0: 2c5d 843d d5ef c63c d169 a93d 6ac3 1d3c
000002e0: f471 b63d 550f 563d 53cf 02bd 3c1a d33d
000002f0: 5fc9 36bd e0e1 0cbd b15a 5d3d 8f2e f1bc
00000300: 90e4 fc3a fae4 ea3c c9e1 323d 8ef6 9bbd
00000310: c57d 743c d9b7 18bd 5e0a a8bd 9a9b aabc
00000320: 2c66 833d 44ab 53bd f664 983d ad4a c7bc
00000330: f2cf fa3c 0636 053d 05f7 10bd ef90 723d
00000340: 0607 7cbd 4c3e d8bc 4a57 66bd 44cf d13c
00000350: 4776 b03d d5ae e2bc a631 a7bc e95b a0bc
00000360: a398 b53d b74c 573d 2cf2 7fbc a776 0b3d
00000370: 9da0 4f3d caf7 f03c 984c 32bd 6eda 56bd
00000380: 9695 ffbb 19a1 873d 356e 05bd ab82 a43d
00000390: cd63 a33b 6ae2 223d 9265 563d a8d0 8dbb
000003a0: 45b6 b9bd 615e 30bd 6d4e 253d 8d8b 48bd
000003b0: e259 84ba 9b11 d8bc c34f 963d 83d2 26bd
000003c0: 14e4 fdbc b241 533b 5279 6eba 4b34 88bb
000003d0: fec0 cfbc 76f9 2a3c ba9f 4f3d dad9 553c
000003e0: 6ade a1bd 859f 1dbd 2749 39bd 7e79 7f3d
000003f0: def8 20bd 57e5 e73d 505b 553d ff1f a2bd
-0.008397942 -0.010736804 -0.07953727 0.024333633 -0.07154867 0.058848955 0.092192695 -0.013881135
0.028222842 -0.012088762 0.06178705 0.020753615 0.03879 -0.0008218834 -0.019572573 -0.06382629
-0.02317883 0.09531177 0.031089077 -0.011675193 0.020071706 0.07164476 0.024868727 -0.0011200681
0.07143065 -0.011923685 -0.057892073 0.00064095046 0.044605568 0.07841443 0.020164303 0.01535605
0.0948041 -0.024468653 0.01904703 -0.03845431 -0.047703825 0.085139856 -0.025468966 -0.025499104
0.06147842 0.01965471 -0.03747325 0.037717544 -0.102900945 0.017805235 -0.014105377 0.015798504
0.04474632 -0.05763573 0.09553552 -0.037876077 -0.072533935 -0.08809313 0.05795476 -0.07234061
-0.04422253 0.06868702 -0.065103024 0.07448055 0.024048401 -0.05199473 -0.04755527 0.05227708
0.10602295 0.05742819 -0.069980234 -0.070561364 0.023392437 -0.071952745 0.08801279 0.06071548
-0.014180084 -0.06917856 -0.083039716 0.0013631275 0.08225998 0.0068537644 -0.05966764 0.020950802
-0.088461556 -0.054660276 0.08273093 -0.035407867 -0.024203058 -0.057235003 -0.05579468 0.032046594
-0.083422154 0.028858187 -0.06897638 -0.06810567 -0.07330297 -0.03716801 0.089465365 0.028207136
-0.060758766 -0.096046954 0.039762337 -0.050609153 0.0118535375 -0.03301953 -0.07335329 0.016487489
0.010231529 -0.04330035 0.05079869 -0.009223195 0.03977686 0.09740485 -0.019901518 -0.061420605
0.023449644 -0.08402918 -0.04474196 0.031251326 0.023920821 -0.049376596 0.028408915 -0.0027823907
-0.061504226 0.017712776 -0.010748368 0.040311653 -0.045851495 0.0006925991 0.021460196 -0.034670066
0.056539603 0.10345449 0.12246633 0.079786584 -0.06097843 0.005297141 -0.095906295 -0.012401225
-0.0067286976 -0.003619595 0.074512765 0.076881245 0.119620524 -0.025789758 -0.015484067 0.06659305
-0.08559111 0.07601016 0.021028332 -0.05106653 0.021077063 -2.7818918e-05 0.09790621 0.07092997
0.018776055 0.040459275 0.013546102 0.0061165434 0.08453753 0.029170468 -0.007334496 -0.07808176
-0.09050593 0.02758239 0.0979117 -0.0039417963 0.058347058 -0.09639546 0.10348962 0.050778605
-0.038714904 -0.016735263 -0.01568164 -0.005772645 0.07103025 0.090852834 0.04424943 0.009974842
0.0558877 -0.08630282 -0.10005882 -0.03011808 0.064630836 0.024284283 0.08272136 0.00962911
0.089084536 0.052260716 -0.031936 0.10307738 -0.044625636 -0.0343951 0.05404157 -0.029441146
0.0019294191 0.028673638 0.043672357 -0.07615386 0.014922564 -0.037284706 -0.082051024 -0.02082615
0.06415972 -0.051677004 0.07441132 -0.0243276 0.030616734 0.032522224 -0.035391826 0.05922025
-0.061530136 -0.026396893 -0.05623559 0.025611527 0.086163096 -0.027671257 -0.020409416 -0.019575076
0.08867004 0.052563395 -0.015621703 0.034048703 0.050690282 0.02941503 -0.043530077 -0.052454405
-0.0077998145 0.06622524 -0.032575805 0.080327354 0.0049862624 0.039766707 0.05234296 -0.0043278523
-0.09067968 -0.043058757 0.040357996 -0.04896121 -0.0010097588 -0.026375582 0.07339432 -0.040728103
-0.030992545 0.0032235202 -0.00090970576 -0.0041566244 -0.02536058 0.010435453 0.050689436 0.013052428
-0.0790375 -0.038482208 -0.04523578 0.062371723 -0.03929984 0.1132304 0.052089036 -0.07916259

actor_encoder.2.bias f4 [128]
00000000: 0feb ab3c 0933 8f3c e78d 05bb 8559 773c
00000010: 8dfa bc3d 4d9c b6bc 8587 55bd d467 913c
00000020: 6050 9abd 3ae8 393d 9df2 8c3d bc69 e33c
00000030: 0256 1abd d1cf 933c 3616 3b3d f731 aa3c
00000040: fd06 76bd fe14 883c c506 493d 1a4d 3bbb
00000050: 2ab8 a23d 1ab5 a63d 8e21 13bd 667a 42bc
00000060: cbce 853d ab0f 433c 8e30 823d 07e3 50bd
00000070: 9ac5 bcbd 8408 933d 851a 86bc 144d 58bc
00000080: c509 0abd 8797 53bd f66e b3bc 7e27 b63c
00000090: cdba b13c 13e1 8d3d a2d3 7ebd d906 e23b
000000a0: 4f40 b93d fffe 44bd 83af 783d 4d3c 513c
000000b0: 0b16 833d 3031 d33c 3a85 ffbc 4271 67bc
000000c0: 4093 273d 8523 8a3d c338 6dbd d3bb 553d
000000d0: b9f2 63bd 7cd9 40bd 304d 86bd e912 95bd
000000e0: 8ea7 2abd c749 f33c 4cfa 083d 57e1 6fbd
000000f0: 721f 38bd 1a27 65ba c784 52bd 3463 e93c
00000100: 6bf7 413d dd5a 213d 4c6a 81bc 437e 4abd
00000110: 8ee8 81bd 26bc 77bd 2610 5b3d c335 84bd
00000120: 1177 55bc 3bb0 ed3c c202 ca3c 0bbb 8b3d
00000130: daf3 39bd 7f85 72bc c42d 923c 0aa0 ac3d
00000140: 2363 3dbd 204a f4bb dce5 ed3c d68c 9e3d
00000150: c7c2 263d 32df f5bb 10f8 953c c997 8e3d
00000160: df27 d1bc 0523 83bd 0ccf c3bc 1f36 143d
00000170: 4717 a13d a779 b3bb aa15 883d e329 2fbd
00000180: 02a2 30bd 1caf b63d a44e 67bb 7189 343d
00000190: b806 143b 8a6a 453c 189c d2bc ef0a c73c
000001a0: 38db d33d df19 b73d 7f6d c13d 9e65 823d
000001b0: aaa1 623c 8d2e ce3c ea2e 39bd 36c1 933c
000001c0: 00ee fdbc 9a8c e83c e1c2 d8bc 4a45 33bd
000001d0: a7f1 41bd 0a89 d63c 8aed efbc b5dd b2bd
000001e0: 4667 833c 70cc e23c 67b6 883a 0fc9 f53c
000001f0: 976e 6cbd 9a6e c93c 02fe 113c fc37 39bb
0.020986108 0.01748039 -0.002037877 0.015097027 0.09227476 -0.022291327 -0.052131195 0.017749704
-0.075348616 0.045387484 0.06882212 0.027760379 -0.03767968 0.01804343 0.04567548 0.020775778
-0.06006526 0.016611572 0.04907872 -0.0028579892 0.07945283 0.08140011 -0.035920672 -0.011870002
0.06533583 0.011905591 0.06356917 -0.05099776 -0.09217377 0.071793586 -0.016370067 -0.013201971
-0.033700723 -0.05165818 -0.021903496 0.022235628 0.021695519 0.06927695 -0.062213548 0.006897789
0.09045469 -0.048094746 0.060714256 0.0127707245 0.06400689 0.02578029 -0.031191457 -0.014126124
0.040911913 0.06745056 -0.05791546 0.052181076 -0.0556514 -0.04708241 -0.06557691 -0.072789975
-0.0416637 0.029698266 0.033441827 -0.05856451 -0.044951864 -0.00087414833 -0.051396158 0.028489687
0.047355097 0.039393295 -0.015797757 -0.04943682 -0.063431844 -0.060482167 0.053482197 -0.06455567
-0.013028876 0.029014697 0.024659518 0.06822785 -0.04539857 -0.014802336 0.017844088 0.084289625
-0.046237122 -0.0074551255 0.02904027 0.07741706 0.040713098 -0.0075034136 0.018306762 0.069625445
-0.025531707 -0.06403164 -0.023902439 0.036184426 0.07865768 -0.0054771486 0.06644757 -0.042764556
-0.043123253 0.08920118 -0.0035294676 0.044076387 0.0022587012 0.012049327 -0.025709197 0.024297206
0.10344547 0.089404814 0.09444713 0.06367038 0.013832489 0.025168682 -0.045210756 0.018036466
-0.030997276 0.028387357 -0.026460113 -0.04376725 -0.0473496 0.026188392 -0.029288072 -0.087336935
0.016040456 0.027685374 0.0010430337 0.030003099 -0.057722654 0.024588872 0.008910658 -0.002826213

actor_head.weight f4 [2, 128]
00000000: bb7e c13b 35c8 40bc 1d29 86bb b432 8eba
00000010: 36b3 12bd 5e84 e23c 3e9f cebb 4d46 9e3c
00000020: 0a82 133c 4d6f 3a3c f7e3 e23c 0dd5 15bd
00000030: 6d8f 1fbd f5f8 eabc f9d6 f3bc 2e9d d23b
00000040: dbf5 073c 9986 61bc 1dc7 30bc 59b0 303a
00000050: 28b3 26bc 93cf 863c 5ea8 633c 900c d73c
00000060: 4fbd 01bd 37ff aa3c 3f3f 9ebc dbcf 49ba
00000070: f4d7 1abc f70b d63c 8e6c 14bd 9a7e 013d
00000080: d27e d53b 128e 243a 87b2 3c3c d479 f3ba
00000090: 6a8c b03b a219 0d3c 5c0e d6bc 9fd6 bfbc
000000a0: 4db8 d13c e910 0abb cffc ca3c ec55 05bc
000000b0: 4c06 84ba 52ff 4b3a 28cb 313d 7fff 333c
000000c0: a77b 823c 4887 6c3c bb5a bbbc 1c2b a13c
000000d0: 5d8a 34bd d945 9e3c 81e5 8b3c 05e6 82bb
000000e0: 7acc abbc 1508 643b 396f 6139 c841 913c
000000f0: 5dc6 f4ba c676 203c 6360 223c c346 12bd
00000100: e5b7 553c 7e30 21bd b3bd 5abc bab2 ebbc
00000110: 7f48 34b9 605c 62bb f082 ccbc 9f88 1d3c
00000120: 6b10 ee3c 65ad 97bc 150b dabb 029a 04bc
00000130: c316 ff3b fe80 793c e9ce 973b 30bd 303b
00000140: b1ba d5bc d140 7d3c fcea ce3c c577 21bd
00000150: 7626 583c 086f d73c 52c1 5d3c 98af 423c
00000160: d5e9 adbc 8198 5f3c 2860 4dbc 9674 67bc
00000170: 326b bf3c 411b d23c 6239 80bc 7326 88bc
00000180: 4187 57bc b942 cebc 905e 793c 2095 babb
00000190: 630c 49bd 9e91 0cbd d205 76bc e7fd c53c
000001a0: d6f5 133c 5a54 12bd 3eba baba 9987 823c
000001b0: 8c9c 9f3c ca56 2b3c c1aa e5bc 005a 6e3c
000001c0: 28e8 a9bc 9fb4 84bb e7a2 0e3d 7452 cebc
000001d0: 7b69 b2bb a49c 923c 2008 f83b 39eb 703b
000001e0: cadd c8bc 2833 19bd 8d4d ecbc 5f54 08bc
000001f0: a433 1f3c fe31 6c3c d09c 8cbc 0afa 233c
00000200: 234b d03a 2c72 303d cad0 a13b 3bbb 28bd
00000210: 9e37 4b3b 9a90 d73c 58d3 e63c d033 37bc
00000220: e4bd 43bc 378b 7b3c 6394 153d 771b f3bc
00000230: 6948 863c c5be 633c 0154 05bd e7ac fe3a
00000240: 84f8 1b3c 3e24 f2bc 3509 e1bc 3e6a 08bd
00000250: efca 2b3d 72e7 55bc e454 993c 4f40 fc3c
00000260: c0e6 033b 9e07 c03b 4822 0f3a 9385 b33a
00000270: e37e 8ebb 4f97 f53c 0982 90bc 90a9 99bb
00000280: 31b5 91bc 9a16 503b 4ec3 8b3c 8716 adbc
00000290: c92c 32bd 0310 94bb 873b 9cbb 5a8b 7f3c
000002a0: 91fe 113d e560 623c 70c2 bb3c a808 abbb
000002b0: 9902 813b bdd1 0c3a e5ce babc e073 f1bc
000002c0: 7086 973b a7e8 043b 36d2 ed3c 188f d83c
000002d0: ded3 03bd b8c6 163d df68 883c 54d9 283c
000002e0: 2f76 3ebd 46d0 07b9 fc38 97bc 36bc f33b
000002f0: a601 f7b9 c5f5 f83c 1b22 bdbc e9ea b0bc
00000300: 7df3 b5bc 0515 303b 3c34 8d3c c980 f0bb
00000310: d895 89ba da39 73bb 3a63 043d 08df b33c
00000320: ae20 a43c fc7f 833c 6c25 c9ba bc7c 903c
00000330: dc6c cd3c c499 c53c 4e8d a93c 2c74 f63c
00000340: 1c98 7e3c 3dc8 963c f118 163d 3a47 3d3c
00000350: 66cb f23c 689a 8c3c b8e7 cfbc 62c0 46bb
00000360: 13d9 153c 6ede 0f3d cb88 d33c 2b11 d1bc
00000370: e650 a43c eac3 233c 6f01 e93b 6b4f 933c
00000380: d075 273d 6045 153d 54fa 373c a2ce 15bd
00000390: da20 323c 8534 923c 9706 653d 8d5e 153d
000003a0: f993 3fbd 8d93 adba 88a3 16bd f6b7 93ba
000003b0: 4596 983c 9719 063c a656 85bb 7114 c6bc
000003c0: 737a b7bb 1890 f2ba ebb0 913b 5b29 05bc
000003d0: 5745 373c a3f5 573c c6d3 743a aad8 20bb
000003e0: dbd0 143c 887f 28bd c43d 3abc bcce bd3c
000003f0: 5b2c 383d a18f eb3c 5112 4e3d 30b8 ff3a
0.005905 -0.011766483 -0.0040942566 -0.0010848851 -0.03581544 0.027651008 -0.0063056042 0.019320631
0.009003172 0.011379075 0.027696593 -0.036580134 -0.03895514 -0.028683165 -0.029765593 0.0064274287
0.008298363 -0.013765001 -0.01078966 0.0006740145 -0.01017455 0.016456401 0.013895122 0.026251107
-0.03167468 0.020873649 -0.019317267 -0.00076985144 -0.009450901 0.026128752 -0.03623634 0.031614877
0.0065153623 0.00062772736 0.011517174 -0.0018575736 0.0053878324 0.008612068 -0.026129894 -0.023417769
0.025600577 -0.0021067208 0.024778752 -0.008138161 -0.0010072677 0.0007781881 0.043406636 0.010986208
0.015928103 0.01443655 -0.022870412 0.019673876 -0.044077266 0.019320415 0.01707721 -0.0039947056
-0.020971525 0.0034794856 0.00021499106 0.017731562 -0.001867484 0.009793943 0.009910676 -0.035712015
0.013044332 -0.039352886 -0.013350892 -0.028771747 -0.00017193145 -0.0034539923 -0.02496478 0.009615093
0.029060563 -0.018515298 -0.006654153 -0.008093359 0.007784696 0.015228508 0.00463282 0.0026968233
-0.026089998 0.015457348 0.025258534 -0.03942086 0.013192764 0.026298061 0.013534861 0.011882685
-0.021229664 0.0136472 -0.0125351325 -0.014126917 0.023366544 0.025647761 -0.015652362 -0.016619897
-0.013154806 -0.0251783 0.015220299 -0.0056940466 -0.04908408 -0.03431856 -0.015016036 0.024168922
0.00903078 -0.035724975 -0.0014246178 0.015933799 0.019483827 0.010457704 -0.028035523 0.014547825
-0.020740584 -0.004049852 0.034823325 -0.025185801 -0.005444703 0.017896958 0.007569328 0.0036761297
-0.02451982 -0.037402302 -0.028845573 -0.008320897 0.009716902 0.014416216 -0.017164618 0.010008344
0.0015891533 0.043077633 0.0049382197 -0.041194182 0.0031008492 0.026314069 0.028176948 -0.011181787
-0.011947129 0.015353016 0.036518466 -0.029676182 0.01639195 0.0139004635 -0.032550815 0.0019430191
0.0095197 -0.029558297 -0.02747021 -0.033304445 0.04194158 -0.013055669 0.018717237 0.030792383
0.0020126551 0.005860283 0.00054601254 0.0013696424 -0.004348622 0.029979376 -0.01764013 -0.004689403
-0.017786594 0.0031751753 0.017060902 -0.021128906 -0.04349974 -0.0045185103 -0.0047678384 0.015597189
0.035643164 0.013817047 0.022919863 -0.0052195378 0.0039370772 0.00053718296 -0.022803733 -0.029474199
0.0046241805 0.0020280273 0.0290309 0.02643542 -0.032184474 0.036810607 0.016651569 0.010305721
-0.046499427 -0.00012952191 -0.01845979 0.007438208 -0.0004711274 0.03039063 -0.023087552 -0.021596389
-0.02221083 0.0026867997 0.017236821 -0.007339571 -0.0010496927 -0.003711334 0.032321192 0.021956936
0.020035114 0.016052239 -0.0015346236 0.017637603 0.025076322 0.024121173 0.020697262 0.030084692
0.015539195 0.018406028 0.03664488 0.011552626 0.029638004 0.01716347 -0.025379047 -0.0030327071
0.009145993 0.035124235 0.025822064 -0.025520882 0.020058107 0.00999544 0.0071107666 0.017982205
0.04088384 0.036443114 0.0112291165 -0.036574014 0.01087209 0.017847309 0.055914488 0.036467124
-0.046771977 -0.0013242826 -0.03677705 -0.0011270035 0.018626342 0.008184812 -0.004069167 -0.02417967
-0.005599314 -0.0018506078 0.004446139 -0.008127536 0.0111859655 0.013181123 0.0009339418 -0.0024543204
0.009082998 -0.04113725 -0.011367265 0.023169868 0.044964176 0.028755011 0.050310437 0.0019509848

actor_head.bias f4 [2]
00000000: 6430 a8bb fb57 ec39
-0.0051327217 0.00045078978

critic_encoder.0.weight f4 [128, 11]
00000000: 456c 4fbe fb77 853e 1c26 c93e a7a1 493e
00000010: fe2a 09bd 0b1c a5be 0ec3 11bc 711c c9bd
00000020: 3612 af3e 623b 1abc 8e7d 0abe c395 4bbd
00000030: 55ef 9c3e d915 7c3e 65f4 743c 0dd4 76be
00000040: 7e78 c73e 3057 25be ee68 993c f8ab 5f3d
00000050: e01d a4be cb85 d3bd 2b1c d0be 66a3 8bbb
00000060: da81 27bd d367 a83e 668c 64be 3170 af3e
00000070: 4ba6 94be 2f0e 99be 9cda a3bc fdb2 89bd
00000080: df3d ad3e a6b0 89be bf6f 28bd cd38 f23e
00000090: 35a5 4a3c 5cd8 96be 6d0c 6cbe 930e bcbc
000000a0: daef be3e 7ee1 d73e 6392 913e 6070 403e
000000b0: cf08 a9be 6243 36be a998 873e b7f5 d93d
000000c0: 045e 96bd f189 513e 3cd1 3a3d 2f34 613e
000000d0: 5f0c 1e3e 6485 1c3e 658e b2bc 9c7b b0bd
000000e0: d3ba 383d cc76 f63e 0580 963e 523d db3d
000000f0: f9bf 053e 8894 93be fa66 ea3e bf21 8a3e
00000100: 2c52 363e d554 a13e 1946 ffbd 4f65 fbbd
00000110: a67a c33e 65bd 13be 309f bcbd 216b 82be
00000120: 7f2e 7cbd 2b77 3cbe 7f51 d53e a154 05be
00000130: 6187 3cbe 2f6e d43e 57db 8ebe fe92 153f
00000140: 81ec bdbc fc07 6bbe a8a8 203e 18f3 bf3b
00000150: a812 dc3d 6693 87bd 340b a33e 3481 40be
00000160: 09ca 97be 2ea4 97be 80b9 1d3e e56c 633d
00000170: cfc4 0abe b992 ab3e b267 25bc dd7b c73e
00000180: d515 d23e 2be0 2f3e eb88 5abe da44 003e
00000190: cf01 873e d6d8 d53e 9f4e 2d3d 4e7d 79be
000001a0: db6e 9d3e 5541 37be 1662 633e 4ae9 b33e
000001b0: 701c 4b3e 189f 893e 320f bfbd 8302 873e
000001c0: bcee 073f 9fd0 61bd e0ba 5dbe 21cd 3f3d
000001d0: 6052 7fbe 95a0 fa3d 1ab1 463e 862a 42be
000001e0: b89e b33d 982c e13b e8a1 563d 176b 23bd
000001f0: 7c50 143e 0539 733e 3e1d f4bd e1b4 56be
00000200: bc0b 22bd 29a9 98be 1d4e 70be 5b7e dfbc
00000210: 7790 68be 14b4 8cbe d301 953e a639 213e
00000220: ccee 8ebe a27c 92be 884d 1cbe 2939 e13d
00000230: d886 c23e fab2 49be 6373 9e3c 98da ddbd
00000240: cd7c aa3d 8791 823e cf58 d93d 02d7 80be
00000250: 81e8 f83c 488d 4f3e de12 2c3d 6147 b6bd
00000260: b724 9c3e aeaa b53e 81a4 c5be 4370 cfbc
00000270: 108e 893b 45b1 5b3e c3f6 febd 5eb7 b3be
00000280: dca6 433e 7fa7 2bbe ed2c 3b3e 12ef ebbb
00000290: 2079 99be 1bc7 1cbd f066 c2bd a567 9a3e
000002a0: 59de 62be afef 23be 7734 37bd ccb7 a13d
000002b0: d078 e63d 7f8f 7c3e 1483 af3b b8cf fd3d
000002c0: f1bb 0f3e 649c 2a3d 407f ec3d 5a9f 863e
000002d0: f705 233e 3091 a0be cc11 723e 9fa5 b93e
000002e0: 0756 ea3d 109c 9fbe 624c 973e 7a7b afbe
000002f0: 34b8 4fbd 89e4 93bc c892 7fbe fe74 3d3d
00000300: fac6 a5be 6fde 083e 5ab4 213e ee15 c9bd
00000310: 3cb3 e03c 0578 9e3c 2c4a 523e 44fe 9f3d
00000320: b246 a53c 801a 24be 30d9 0b3e 02a9 923e
00000330: 0bfd e63e 107a 633e 9435 bb3e cc8c 5cbe
00000340: da51 843e 3081 8dbe 8cb2 383e ca95 063f
00000350: 99ac abbd abec 523d 55ae f33d 74dd 01be
00000360: 9fd4 cebc 2ef6 083e cbce 04be 7c72 6e3e
00000370: 89d9 a3be 0ebc a5be 7ee0 db3e 4922 f93d
00000380: 589e 3bbe 430a 793e 8f7f 06be 91fb 2f3e
00000390: d615 b43e dc08 7cbe 1424 6ebd dc32 893e
000003a0: 2ac8 183e 6167 fe3e ff7b 20be 22f6 01be
000003b0: 9684 a03e 09df cbbd d9b8 e13e 53e8 153e
000003c0: e3ae 0ebd 57da a93e 5d49 8fbe 0f69 83be
000003d0: 0674 c03e 0ef2 1bbe 5ca2 673e 3310 863e
000003e0: b425 8dbe 2448 c63c 0313 9cbd 6026 e93d
000003f0: ef07 9c3e 79b4 3d3d 0f38 1ebe f387 fc3e
-0.20256145 0.260681 0.39286888 0.19690572 -0.033488266 -0.32247958 -0.008896602 -0.09819878
0.3419358 -0.009413572 -0.13524458 -0.04970337 0.30651346 0.24617709 0.014950846 -0.24104328
0.38959116 -0.1614654 0.018726792 0.05460736 -0.32054043 -0.10328253 -0.4064649 -0.004261422
-0.04089532 0.32891712 -0.22319183 0.34265283 -0.2903312 -0.29893634 -0.020001702 -0.067235924
0.33836266 -0.26892585 -0.041122194 0.4730896 0.01236849 -0.29461944 -0.23051615 -0.022956168
0.37292367 0.42164224 0.28431997 0.18792868 -0.33014533 -0.17799142 0.26483658 0.106425695
-0.07342151 0.20462777 0.045609698 0.21992563 0.15434407 0.1528526 -0.021796415 -0.086173266
0.045100044 0.4813751 0.29394546 0.10705055 0.13061513 -0.28824258 0.4578169 0.2697887
0.17804784 0.31510034 -0.12464542 -0.122751825 0.3817951 -0.14427717 -0.0921005 -0.25472358
-0.06156778 -0.18404834 0.4166374 -0.13020565 -0.18411018 0.41490313 -0.27901718 0.5842742
-0.023184063 -0.22952265 0.15689337 0.0058578365 0.10745746 -0.06619911 0.31844485 -0.18799287
-0.29646328 -0.29617447 0.15402794 0.05552377 -0.13551639 0.33510378 -0.010095524 0.38961688
0.41032282 0.17175357 -0.21341293 0.12526265 0.26368567 0.41766995 0.042311307 -0.24364206
0.3074864 -0.17896016 0.22205386 0.35138923 0.19835067 0.2687919 -0.0932907 0.26369104
0.53098655 -0.055130597 -0.21653318 0.046826486 -0.24933767 0.1223766 0.19403496 -0.18961534
0.087705076 0.006871771 0.0524005 -0.03989705 0.14483827 0.2375222 -0.1191964 -0.20967437
-0.039561972 -0.2981656 -0.23467298 -0.02728193 -0.22711359 -0.2748114 0.29102954 0.15744647
-0.27916563 -0.28610712 -0.15263951 0.109972306 0.37993503 -0.1969718 0.01934213 -0.10832709
0.08324585 0.25501654 0.10612642 -0.25164038 0.030384304 0.20268738 0.04201018 -0.08900333
0.3049676 0.3548178 -0.3860207 -0.025322085 0.0041978434 0.21454342 -0.1244941 -0.35100836
0.1910662 -0.16763113 0.18278857 -0.0072001303 -0.29975224 -0.03827582 -0.0949229 0.301572
-0.22155131 -0.16009401 -0.04472777 0.078963846 0.11253512 0.24664114 0.005356202 0.12393135
0.14036538 0.041653052 0.115477085 0.2629345 0.15920244 -0.3136077 0.23639601 0.3625917
0.1144219 -0.31173754 0.29550463 -0.34273893 -0.05071278 -0.01805331 -0.24958336 0.04625415
-0.3237837 0.13366102 0.15791455 -0.09818636 0.027429216 0.01934434 0.20536107 0.07812169
0.020175312 -0.16025734 0.13657069 0.28644568 0.4511493 0.22214532 0.36564314 -0.21538085
0.25843698 -0.27637625 0.1803686 0.5257231 -0.0838253 0.051495235 0.118984856 -0.12682134
-0.02524787 0.1337516 -0.1296951 0.2328586 -0.32001904 -0.32370037 0.4294471 0.121647425
-0.18322122 0.24320321 -0.13134597 0.17185809 0.3517291 -0.24612755 -0.058139876 0.26796615
0.14920107 0.49688247 -0.15672301 -0.12691548 0.31351155 -0.0995465 0.4408634 0.14639406
-0.034834754 0.33174393 -0.2798566 -0.2566609 0.3758852 -0.15229055 0.22620529 0.26184234
-0.27567828 0.024204321 -0.07620814 0.113842726 0.30474803 0.04631469 -0.15451072 0.4932247

critic_encoder.0.bias f4 [128]
00000000: 9e1e 993e 4b6b d83d be5f c2bd 963d 8b3d
00000010: b43d b6bc f584 aebd 92db b43e 80e9 883e
00000020: 38f9 7e3d bdcd afbd 7201 113d ee74 95be
00000030: 8798 783d 88a9 b73e f1d6 ba3e eae5 883e
00000040: 55be a73e dd48 b1bd 9d28 9fbd 8326 d13e
00000050: 7e76 b33e 09ed 9f3e 50f8 9d3e 0b0e 9e3e
00000060: 3bbe 913e 23d6 8a3e 9887 893e 1161 ac3e
00000070: 0d91 acbd 01c3 ad3d c987 4fbc 6546 90bd
00000080: 6722 843c 3400 18be 2a80 f43d 2472 983e
00000090: 5b14 e4bd 8640 52bd bebb a83e a1da b53e
000000a0: 677c 213e 4d81 5a3e f939 d13e 52d1 4b3b
000000b0: 2946 423d 792c b4bd ba99 b3bd d8aa 633e
000000c0: 2ef9 9939 d14e 423e f742 02bd a936 e83d
000000d0: e331 d03d b551 1b3e 0782 443e 4f7e a13d
000000e0: e824 6b3e 0ac1 dfbc b1d7 ca3e 067c 0bbe
000000f0: 72b4 8a3d fb93 0d3e 1761 873e 5496 253d
00000100: a969 96bc 23c8 923e 4616 bb3e 665b 253e
00000110: c34b de3e 69f3 913e ebb5 a03e 0574 463d
00000120: e5ca 9e3e a12c f03d 0ffa 8c3e f794 963e
00000130: 5cf4 823e 8587 d23e 64a0 2f3e 3048 48bd
00000140: 1c95 943c 9d50 873e 09db da3d 5378 923d
00000150: de83 d43d 6136 92bd d31e df3e 9e71 0cbe
00000160: ce3f d53e 8e77 c73d b15a ae3d 454d 923e
00000170: 2e74 ae3d 3c44 9d3e b85a 27be 6dea c83d
00000180: 9657 de3d 5eff 533e fa21 003d dc37 723d
00000190: 2f50 b93e 4331 633e c99b f3bd 2924 0cbe
000001a0: 5664 a3bb 92cc c5ba c907 873e 7d42 7bbd
000001b0: 76da ea3e 4f3d aa3c 67b0 1dbd 390f 8f3e
000001c0: 5bc5 2ebd 1ade a83e fdfc da3e 460a b7bd
000001d0: 14cc 3bbe 13b5 a33c 022e b33e 77ee 1cbe
000001e0: 8a95 b4bd 9fa1 8dbe 8a23 ad3c 3a14 b83c
000001f0: 2731 c53e 471a 853e b834 d73e caae 6c3e
0.29906172 0.105673395 -0.094909176 0.06798856 -0.02224622 -0.08521453 0.3532377 0.26740646
0.062249392 -0.08584163 0.03540177 -0.29190773 0.060692336 0.3587153 0.36492112 0.2673791
0.327624 -0.08656476 -0.07771418 0.40849695 0.3505134 0.3123553 0.3085351 0.3087009
0.28465447 0.27116498 0.26861262 0.33667806 -0.08426104 0.0848446 -0.012666651 -0.07044677
0.016129686 -0.14843827 0.11938508 0.29774582 -0.11136695 -0.051331066 0.32955736 0.35518363
0.15770112 0.21338387 0.40864542 0.0031100106 0.04743019 -0.08797545 -0.087695554 0.2223314
0.00029368087 0.18975379 -0.031802144 0.113385506 0.10165765 0.15167888 0.19190226 0.078854196
0.22963297 -0.027313728 0.39617684 -0.1362153 0.067726985 0.13825981 0.2644126 0.040426567
-0.01836093 0.28668317 0.3654043 0.16148147 0.43417177 0.2850602 0.31388792 0.04845049
0.3101417 0.11727262 0.2753453 0.29410526 0.25577056 0.41119018 0.17151028 -0.04889697
0.018137507 0.2642869 0.10686309 0.07151856 0.10376714 -0.07139278 0.43578205 -0.13715217
0.41650242 0.097396 0.08513392 0.28574577 0.08518253 0.3071612 -0.163432 0.09810338
0.108565494 0.20702884 0.031282403 0.059135303 0.36193988 0.2218676 -0.11894948 -0.13685669
-0.004986326 -0.0015090874 0.26373127 -0.061342705 0.45869797 0.020781187 -0.03849831 0.279413
-0.04266868 0.3298195 0.4277114 -0.089375064 -0.18339568 0.019983804 0.3499604 -0.15325342
-0.08817585 -0.2766237 0.02113511 0.022470582 0.38514063 0.2599661 0.4203241 0.23113552

critic_encoder.2.weight f4 [128, 128]
00000000: 849d 993d b258 dc3d 695b b73d 43dc 983d
00000010: 7454 613e afaa 593e bab2 003e 552a 7b3e
00000020: 6701 b93d 305a d23d 3a6b 323e 3d97 abbd
00000030: 6cab 103e 8b11 8d3d fade b93d 9122 113e
00000040: 93c6 3a3e 3d58 e03d 77f9 0d3e f3f0 0c3e
00000050: d368 263e 8df8 4f3e daf4 153e ce99 483e
00000060: b651 233e 9d24 823d 603f 333e 41e2 293e
00000070: c52e 68bd 7263 403e 2ca3 ed3d bd96 c13d
00000080: 8678 5e3e ca08 de3d 8f7b 363e c536 003e
00000090: abd8 1e3e dfb0 553e b63d 5b3e b4d0 523e
000000a0: 9be1 453e 785b 733d 8da1 183e 34ed 193e
000000b0: ce50 923d 801d 5a3e 7c5e 1b3e 3d6e 433e
000000c0: fd0c 483e c59e 5e3e 2fca 0f3e ebe5 533e
000000d0: 6836 3f3e c9a2 1b3e 2cd6 de3d 065f f43d
000000e0: 5157 9e3d f855 863d 90e2 0b3d 3760 033e
000000f0: a7e5 5f3e a2b4 e53d 1a08 8f3d 5db5 0f3e
00000100: c9ca 513e 0d16 393e 5096 1a3e 05d1 983d
00000110: e2b0 5d3e 1504 0e3e 916f 5b3e ab6e 343e
00000120: 9c19 303d 007f 543e 5dee 563e 8517 983d
00000130: 2744 db3d fe53 113e 2dcc f73d dc1d 5c3e
00000140: cfd8 a83d 4efb 413e c0dd 923d 5468 f83d
00000150: 4a69 383e 036e 453e ba1e 5e3d 3f99 013e
00000160: c39d 643d 012a ed3d cf41 433e 5076 873d
00000170: 7838 123e 13b2 5c3e 36ee d33d 8738 393e
00000180: c001 633e c83f 543e aa50 ed3d a799 323e
00000190: 47ad 1f3e eae6 a73d 23be 333e 45b8 1b3e
000001a0: 338e 063e a310 613e 6770 e83d b540 da3d
000001b0: da5a bb3d e928 0c3e bad9 c63d 62be 093e
000001c0: 768b 1e3e be6c 973d 9de1 163e a8d6 2d3e
000001d0: 8e3f 633d d40f 083e fbbb b53d 6832 ae3d
000001e0: 87ee 973d 321c 0f3d 6a9f b43d 81ae 093e
000001f0: b3c0 453e 2ac6 533e 2982 003e 8a76 493e
00000200: 1ab9 ab3d 00ef 153e 2356 c13d 0926 023e
00000210: fd40 603e ae2e 7b3e 47d2 083e 4898 193e
00000220: 1415 073e cb58 343e 5c66 053e 0e1d bbbc
00000230: 9fe5 b43d 937a bd3d b48b 203d 1e0a 2a3e
00000240: 5edb a83d 4852 303e 4b3f e33d 607a 583e
00000250: b5ca dc3d 310f 073e 283e 3c3d 7147 f53d
00000260: 7526 4a3e 1b12 2f3e 370e 153e 77b9 563e
00000270: 5e39 fdbc 2588 f63d dd91 333e a31f 013e
00000280: 80a6 1c3e ce82 e43d 72fa 223e 5636 633d
00000290: d540 1e3e a077 c63d 409d 013e dfca 683e
000002a0: 9eae 1c3e cef3 5d3e 54e0 bf3d cf90 903d
000002b0: 68d1 153e 410b bb3d 39cc 623e c2e5 553e
000002c0: 31fe 253e 4674 5f3e 752a 8d3d 0093 763e
000002d0: 4e12 233e e37f 9c3d 5e50 533d b6b6 583e
000002e0: f103 443e 3e7a a33d c9a0 703d 49db 473e
000002f0: 87fb 6a3e d802 f13d f734 2d3e 38ff fe3c
00000300: 758e 0e3e 38c7 073e 70d3 d63d 2841 183e
00000310: 382a 433e c73a 393e 7e65 653e 77aa 563e
00000320: b23f 683e c77b 6f3e 5c65 f33d 92d6 853d
00000330: 2627 683e e39d e93d cf1b a83d 227c 1c3e
00000340: 3959 0f3e 4aa0 ac3d c3cb e53d c6a8 273d
00000350: fd3c 963d 4f71 ea3d 68c9 243e ac9e 523e
00000360: 6a1e 7d3d 3b88 4b3e 4681 293e 50ef d03d
00000370: 7363 133e 5370 693e d4ca 103e 17e5 a63d
00000380: a6a2 443e 16cf 253e 019a ec3d 23b5 593d
00000390: d363 e93d 46b0 323e 3ac1 573e 4b4d f03d
000003a0: 40ef 583e b57b 5e3e bc74 ad3d 6e81 2c3e
000003b0: cf77 613e 1c87 1e3e ce0c 323e 3775 703e
000003c0: c330 ea3d 2ec2 f23d c3c3 733e dced 593e
000003d0: 3cab f23d 316b 323e baf7 553e b16d 403e
000003e0: 87bf 413e 57e5 793d 7553 3a3d 5b7e 003e
000003f0: 911d cf3d eb12 2f3e 0009 f63d 512d 693d
0.07500747 0.10759105 0.08952982 0.074638866 0.22004873 0.21256517 0.12568179 0.24527867
0.090334706 0.10271108 0.17423716 -0.08378456 0.14127892 0.06888112 0.090757325 0.14173342
0.18239813 0.1095433 0.13864695 0.1376379 0.16250925 0.20309658 0.14644185 0.19589922
0.15949139 0.0635464 0.17504644 0.16590215 -0.056685228 0.18787935 0.11603388 0.09452579
0.21725664 0.1084152 0.17820571 0.12520893 0.1551234 0.20868252 0.2141026 0.20587426
0.19324343 0.059413403 0.14905377 0.15031892 0.071443185 0.21300316 0.15172762 0.19085021
0.19536205 0.21740253 0.1404197 0.20693175 0.18673098 0.15198816 0.10880694 0.11932187
0.07731498 0.06559366 0.034151614 0.12829672 0.21864949 0.112160936 0.06983967 0.14034028
0.20487513 0.18074818 0.15096402 0.07461742 0.21649507 0.13868745 0.21429278 0.17620341
0.042993173 0.20751572 0.20989366 0.07426361 0.107063584 0.14192197 0.1209949 0.21495765
0.08244478 0.18943521 0.07171202 0.12129274 0.18008915 0.19280247 0.054228522 0.12656115
0.055814516 0.11580277 0.19068073 0.06614363 0.14279354 0.21552305 0.103481695 0.1808797
0.22168636 0.20727456 0.11587651 0.17441426 0.15593444 0.0819834 0.17553 0.15207012
0.13140182 0.21979003 0.11349564 0.10656873 0.09148188 0.13687481 0.09709497 0.13451532
0.15482888 0.07393788 0.14734502 0.16976416 0.055480532 0.13287288 0.08873745 0.08505708
0.07418542 0.034939 0.08819468 0.13445474 0.1931179 0.20681062 0.12549652 0.19674125
0.08384915 0.14641953 0.094402574 0.12709822 0.21899791 0.24529526 0.13361464 0.14999497
0.13191634 0.17611997 0.13027328 -0.022841003 0.08832859 0.09251895 0.03919573 0.16605422
0.08244966 0.17218888 0.110960566 0.21140432 0.10780851 0.13189389 0.045957714 0.11976517
0.19741233 0.1709675 0.14556204 0.20969187 -0.030911144 0.12037686 0.17536111 0.12609725
0.1529789 0.111577615 0.1591585 0.05547174 0.15454419 0.096907854 0.12657642 0.22733639
0.15300986 0.21675035 0.09368959 0.0705887 0.14630663 0.09133006 0.22148217 0.20888427
0.16210248 0.21821699 0.06892864 0.24079514 0.15924951 0.0764158 0.051590316 0.21163449
0.19142129 0.079823 0.058747087 0.19517244 0.22947513 0.117681205 0.16914736 0.031127557
0.1392153 0.1325959 0.10489547 0.14868605 0.19059074 0.18088828 0.22401997 0.20963465
0.22680548 0.23387061 0.11884567 0.06535067 0.22671184 0.114070676 0.08208429 0.15281728
0.1399888 0.0842901 0.11220505 0.04093244 0.07335851 0.11447393 0.16092455 0.20568341
0.061796583 0.19876187 0.1655322 0.10201895 0.14393406 0.22796755 0.14139873 0.08149164
0.1920267 0.16192278 0.115528114 0.05315126 0.11395993 0.17450055 0.21069804 0.117334925
0.21185017 0.21726878 0.08469531 0.16846249 0.2201836 0.15481228 0.17387697 0.23482214
0.11435082 0.11853443 0.23805146 0.21282142 0.118490666 0.17423703 0.20895281 0.18791844
0.18920718 0.06100973 0.045489747 0.12548201 0.10113061 0.1709706 0.12013435 0.056927983

critic_encoder.2.bias f4 [128]
00000000: c52e d43d 973d 0e3e 2f1a e93c da8d 3c3e
00000010: 7099 673b 40f5 3a3e e0b5 e73d 49bf 303e
00000020: 4ef9 243e 4a52 583c 5fbd 293e e241 293e
00000030: a5b6 47bc f538 0d3e 3655 1d3d d1e9 0d3e
00000040: dd27 593e 28f3 cd3d 808c ac3d 1a47 95bd
00000050: d367 233d 2ccb c8bd 753c 32bd 5f56 d53d
00000060: 3198 f03d fdfe ec3d 92c4 17bd b6a8 003e
00000070: 63d4 1b3e 2bf6 a3bc 6c0e cc3c 02d2 353d
00000080: 76ff 3a3e 0850 4b3e db0f 4d3e cb98 a0bd
00000090: 76ad a83d 5100 323d abaf b93d d334 d23b
000000a0: 8f57 48bd c368 183e adaa 313d 3bc0 cb3d
000000b0: b164 9f3d b8cd 3bbd 34f2 a43d 8027 9c3d
000000c0: 0922 2abd 92de 363e dfd7 07bd d579 8a3d
000000d0: e046 d13d f4b8 c3bc d379 1a3e f357 9f3d
000000e0: bf27 313c 9125 743d 327f 583d 3c77 c6bc
000000f0: 2ef9 9fbc af02 9dbd fcb9 68bd 678f 393e
00000100: 764f 783c 3013 cabc 2d31 36bc c8d0 503d
00000110: 8e6b 313d 7c2f 1b3e b0ce 573c 0457 773d
00000120: 29cb 8b3d aff0 083e 5347 56bd 53dd 633d
00000130: 3e9d 453d 8837 80bd 71b6 0cbd 2a5b 243e
00000140: a52d 53bd d13a 5d3d 9e9f 893d 14b9 4fbd
00000150: cb89 f43d 687b fb3c b834 1d3e 6386 18bd
00000160: 690a 90bd a88b 003e 134c b13d 89e5 133d
00000170: 8c5c 093e dbd1 613d 7238 973d dee4 073d
00000180: 2fb9 bc3d d526 81bd 46cb 863d a86d 5abd
00000190: 6d87 8c3d 1490 373d 3274 e0bc 22fd b93d
000001a0: 870a 4e3e d8d8 cc3c 52b4 97bd 3f80 3bbd
000001b0: 0d48 dfb9 3027 a03d ad44 a33d 9c16 b3bc
000001c0: a7ca 753d b472 babd b0c0 033e ed52 45bd
000001d0: 686c 5b3d c2f0 1e3e 6fc9 d83d 016d ad3d
000001e0: 75d9 0f3e a8be 623d adb8 983d 5267 6b3d
000001f0: cefc a0bd 2569 6fbd 15a1 e23d 9753 453e
0.10360483 0.13890682 0.028454868 0.18413487 0.0035339259 0.18257618 0.11313987 0.1726047
0.16110727 0.013203213 0.16576146 0.16529039 -0.012189542 0.13791259 0.03841134 0.13858725
0.21206613 0.10056144 0.08425236 -0.07288952 0.039893936 -0.09804377 -0.043514688 0.104168646
0.11747778 0.11572073 -0.0370527 0.12564358 0.15217738 -0.020014843 0.02490922 0.044389732
0.18261513 0.19854748 0.2002558 -0.07841643 0.0823621 0.043457333 0.09066709 0.0064149885
-0.048911627 0.14883713 0.04337566 0.099487744 0.07782877 -0.045850486 0.08054009 0.076247215
-0.041536365 0.17858341 -0.033164855 0.06761519 0.102185965 -0.023891903 0.15085535 0.07780447
0.010812699 0.05960614 0.052855678 -0.024226777 -0.019527998 -0.076665275 -0.056817994 0.1812111
0.015155664 -0.024667352 -0.011120123 0.05098036 0.043315463 0.15154833 0.013171837 0.06038572
0.06825859 0.13373064 -0.052314114 0.055630993 0.04824566 -0.06260592 -0.034353677 0.16050401
-0.051557202 0.05401117 0.06719898 -0.050713614 0.119403444 0.030698493 0.15352142 -0.037237536
-0.070332356 0.12553275 0.08657088 0.036107574 0.1341421 0.055131774 0.07383813 0.03317725
0.092150085 -0.06306235 0.0658174 -0.053327233 0.06861768 0.044815138 -0.027399156 0.090814844
0.20121203 0.025005743 -0.0740744 -0.045776602 -0.00042587557 0.078199744 0.07972083 -0.021861367
0.060007717 -0.09103909 0.12866473 -0.048174787 0.05357018 0.1552153 0.105852954 0.084680565
0.14047797 0.055357605 0.07457099 0.05747158 -0.07860719 -0.058449883 0.1106588 0.19270168

critic_head.weight f4 [1, 128]
00000000: 07aa 4e3e d195 683e cf28 9b3d 2df0 5c3e
00000010: 5e67 3dbd 8ab0 343e 2c31 303e f9a4 5f3e
00000020: 12f9 073e 7447 a0bd 9ac0 633e ba7a 5b3e
00000030: 96e6 0a3e 86f1 603e 6f66 9dbd 1841 613e
00000040: e446 433e b045 3f3e 67ae 573e 2dc9 0fbd
00000050: 16d2 33bd f0db 67bd cdc9 f7bc fe8c 563e
00000060: 17c7 553e 4eed 663e 06db bebc e4a9 723e
00000070: ff05 423e 9a6d b7bd 56b7 553e c78a 1fbd
00000080: b10d 423e 6e6f 873e 2c64 573e fb65 3cbd
00000090: 2c75 883e 8df6 9bbd bd14 463e 5458 5ebd
000000a0: 8bd7 22bd 7f59 863e dc87 2cbc 5417 433e
000000b0: edb0 3e3e c764 a43c 9be9 23bd f685 4e3e
000000c0: 1226 7fbd c1a4 353e 9de1 80bd 9318 1ebd
000000d0: 544f 1c3e 6e24 693d 3f81 3a3e f9dc 4f3e
000000e0: 01d7 69bd eb6f 583c b256 90bd b354 a2bd
000000f0: a935 67bb b61f 8fbd 7c1b 8fbd 5be8 373e
00000100: 028c 8ebd 3f76 68bd a5e2 cb3a f759 7cbd
00000110: fb25 873c 547e 783e 2c61 44bd f70c 513e
00000120: 915d 9bbd 1ce4 843e 2021 f1bc c9bd 873e
00000130: 29ee 5abd 4c90 98bd f8fc b1bd 0516 513e
00000140: 79c0 27bd eced 96bc d13a b4bd fbcb 63bd
00000150: 383f 663e dbc6 e6bc 89ee 5b3e c058 9dbd
00000160: 54ab fbbc 4c92 7a3e dad3 7e3e 6edf 553e
00000170: 2aa7 223e 8d84 79bd 56d5 9ebd 70f6 523d
00000180: 5e54 413e c5e6 07bd bc95 6e3e 7ebb 92bd
00000190: 6be5 863e 763a 0abc b595 a1bd 1778 583e
000001a0: 9b29 343e a14c 4d3e 5b36 42bb d6dc ac3c
000001b0: 476e 8cbd 8e20 3f3e 7a94 15bd 3114 90bc
000001c0: 185c 2c3e e09a d0bc 0771 853e 5dc4 a8bc
000001d0: 0b67 98bd 5091 773e 456b 7b3e 51d9 223e
000001e0: ca80 6f3e 4034 483e f6ce 5bbd f690 113e
000001f0: 574d abbd 78dd 963d 65dd 6d3e c9dc 3c3e
0.20182048 0.227134 0.07576143 0.21575995 -0.046241157 0.1764547 0.17206258 0.21840276
0.13278607 -0.078261286 0.2224144 0.21433535 0.13564524 0.21967134 -0.07685553 0.21997488
0.19070011 0.18678927 0.21062623 -0.035103966 -0.043901525 -0.056606233 -0.030247593 0.20952222
0.20876728 0.22551462 -0.023297798 0.2369762 0.189476 -0.08956452 0.20870718 -0.038950708
0.18950535 0.26452202 0.21034306 -0.045995694 0.26651895 -0.07615385 0.19343849 -0.054283455
-0.03975634 0.26240155 -0.010530438 0.19051868 0.1862218 0.020067586 -0.040017705 0.2016829
-0.062292166 0.1773863 -0.06293032 -0.038597655 0.15264636 0.056919508 0.18213366 0.20299138
-0.05708981 0.013210277 -0.07047786 -0.07926311 -0.0035279787 -0.0698847 -0.06987664 0.1795973
-0.06960298 -0.056753393 0.0015555216 -0.061609235 0.016497603 0.2426694 -0.047944233 0.20415102
-0.07586206 0.25955284 -0.02943474 0.26511982 -0.053449783 -0.074493974 -0.08690828 0.20418556
-0.04095504 -0.018423997 -0.08800281 -0.055614453 0.22485054 -0.028170994 0.21477713 -0.07682943
-0.030721344 0.2446987 0.24885502 0.20886013 0.1588408 -0.060917426 -0.07755534 0.051504552
0.1887984 -0.033179063 0.23299307 -0.071646675 0.26346907 -0.00843679 -0.078898825 0.2113956
0.17593996 0.20048763 -0.002963445 0.021101397 -0.06856971 0.18664762 -0.03651855 -0.017587753
0.16832006 -0.025464475 0.26062796 -0.020601446 -0.07441529 0.24176526 0.24552639 0.15903212
0.23388973 0.19551182 -0.05366417 0.14215454 -0.08364361 0.073664606 0.23228987 0.18443598
