proly/models_c/player1/model_ep0.pt (torch, 150482 bytes, 11 tensors)

actor_encoder.0.weight f4 [128, 11]
000000 6c 55 34 be 4c 40 29 be 57 97 00 be ea ac 98 3d
       -0.17610711 -0.16528434 -0.12557732 0.07454856
000010 9a ad 4c 3d 84 54 79 be 68 c6 94 3e 9b d0 2b be
       0.049970247 -0.24348646 0.29057622 -0.16778795
000020 37 d0 69 3c 7b 31 8f 3e a7 d1 47 be 8a a2 5e be
       0.014270834 0.27967438 -0.1951357 -0.21741691
000030 d6 8e b5 3d f4 bd de bd 26 a6 fa bd 15 85 3c bd
       0.088651344 -0.108760744 -0.122387215 -0.046025354
000040 43 52 09 3d ea 94 6f bd 40 dc 1c 3e 09 d8 5c be
       0.033525717 -0.058491625 0.15318394 -0.21566786
000050 4b b2 27 3e 80 03 c2 bd db fc 0c 3e e9 6a 89 3e
       0.16376607 -0.09473324 0.13768332 0.26839378
000060 09 8a 08 be 37 56 92 be 49 7f 0a 3d 21 9b 8a 3e
       -0.13333906 -0.28581402 0.033812795 0.2707148
000070 be f8 98 be 16 60 01 3d 6c 92 38 3d 8b 4c 0b be
       -0.29877275 0.031585775 0.045061514 -0.13603418
000080 71 5d 77 bd 27 ec 1d 3e 08 8d 97 3e 37 41 a0 bd
       -0.060391847 0.15422116 0.29599786 -0.07824939
000090 60 63 0a be ce cd 59 3d a7 e6 e7 bc 65 74 07 bd
       -0.13514471 0.053174786 -0.028308226 -0.033069987
0000a0 af 2d 1a be 86 a6 53 bd e6 de ec ba d0 2a 1e 3e
       -0.1505649 -0.05167248 -0.00180718 0.15446019
0000b0 b2 fc 60 3e 39 92 6f 3b 65 ec 89 3d 8a 0a 74 bd
       0.21971396 0.0036555661 0.06734542 -0.059580363
0000c0 60 cf 54 3e bf 7b fc bc ae 87 47 3d ff 8a 43 be
       0.20782232 -0.030820725 0.04871338 -0.19095992
0000d0 15 ac 54 be 10 af 21 be e9 6f 89 3d 30 c7 7e 3e
       -0.20768769 -0.15789437 0.06710798 0.24880672
0000e0 f7 ed 09 3e 0d 9e 91 be db a5 a9 3c a7 85 78 bb
       0.13469683 -0.28440896 0.020708969 -0.003792146
0000f0 d4 a6 06 3e cd 4d 2b 3d 7b 16 89 3e 5b d5 27 be
       0.13149577 0.041822243 0.26774964 -0.16389982
000100 02 b5 97 be ba 2c 4d be 46 48 a0 3d 26 fc 92 be
       -0.29630286 -0.20036593 0.07826285 -0.28708
000110 4b 41 28 be fd 83 81 bd 28 88 9a be b5 91 02 be
       -0.16431157 -0.06324003 -0.30182004 -0.12750895
000120 0d cc 76 be 60 e0 0c 3e cb 98 5f be 81 4a da bd
       -0.24101277 0.13757467 -0.2183563 -0.10658742
000130 60 2e 66 be 66 40 f4 3d 85 35 6f be f6 39 92 3d
       -0.22478628 0.119263455 -0.2336026 0.071399614
000140 1f 3c 83 3e f0 05 17 3e 98 e7 2f be 27 8f d9 3d
       0.25631806 0.14748359 -0.1717819 0.10623007
000150 37 c7 80 be 7f 14 12 3e 6b d8 f8 3d 94 8b 52 be
       -0.2515199 0.14265631 0.121506535 -0.20561057
000160 3f 09 0a be 00 0f 45 3d 85 3f 1d 3e 40 09 1b 3d
       -0.1348009 0.04811001 0.15356262 0.03785062
000170 03 5c 7e be 64 94 80 3e 14 96 3b 3e b9 15 6b 3e
       -0.24839787 0.25113213 0.18318969 0.22957505
000180 b5 65 78 be 98 bd 8d bd f6 2b e7 3d c9 dc f6 bd
       -0.24257548 -0.06920928 0.11287682 -0.1205383
000190 6e da 11 3e 77 9a 81 be da 3a 0a 3d cd 7a 8a be
       0.1424348 -0.2531316 0.03374753 -0.27046815
0001a0 1d 78 7b bd 1c 41 0e be ef 20 0d be 39 0c 31 be
       -0.061393846 -0.13892025 -0.13782094 -0.17289819
0001b0 85 43 1e be 6b 88 3b 3e 08 81 8c 3d 2c 7a 90 3e
       -0.15455444 0.18313758 0.06860548 0.2821821
0001c0 5e 4f 78 3e 3a e0 8d be 7c 27 02 3e 40 18 93 be
       0.24249026 -0.27710134 0.12710375 -0.2872944
0001d0 2f e8 81 3e d8 2d 50 3e f3 ed 0a bc de 86 90 be
       0.25372455 0.20329988 -0.008479583 -0.28227895
0001e0 fb 6c 71 be a9 16 87 3e ca 35 40 bd 34 ea 2e be
       -0.23576729 0.26384476 -0.046926297 -0.17081529
0001f0 49 7c 96 be 9c 20 87 3e 5e 25 7f 3e d5 b4 4c be
       -0.29391697 0.26392066 0.24916598 -0.19990857
000200 c5 34 ed bb 73 33 c9 bd 95 77 af 3d 2d 82 eb 3c
       -0.0072389566 -0.09824266 0.0856773 0.028748596
000210 df 8c 20 bd 97 5b 56 3e a4 cb 62 bc f3 87 bc 3d
       -0.039196845 0.20933376 -0.013842497 0.09205618
000220 cb 55 1c 3d ee 5d 0b be f7 6b 1a bd 49 4c ee 3d
       0.038167756 -0.1361005 -0.03770062 0.11635644
000230 0a 7e 37 3d 38 5b 05 3e cd b7 9b bd ca 1b 86 be
       0.044797935 0.13023078 -0.076034166 -0.26193076
000240 18 f2 0c be 2f f7 c5 3d a8 80 87 3e 4d 89 ed bd
       -0.13764226 0.09666287 0.26465344 -0.11598454
000250 a9 46 bb 3d f5 31 95 be 9b 40 d5 bd 90 12 16 3d
       0.09144337 -0.29139677 -0.10412713 0.036638796
000260 12 a8 27 3e 44 f4 60 be 39 aa db 3c e0 b9 3d be
       0.16372707 -0.2196818 0.026814567 -0.18527937
000270 5e 93 89 bd 30 4c 83 3e 11 3c 2d be b9 49 3e 3e
       -0.06717561 0.25644064 -0.16917445 0.1858281
000280 a6 fb 84 3d 36 c7 78 be d8 76 c5 3d 55 a6 77 be
       0.06493311 -0.24294743 0.09641808 -0.24184544
000290 c9 4e 87 bd d8 30 cc bd 45 da 78 3e c1 b3 94 3e
       -0.06606824 -0.09970254 0.24302013 0.2904339
0002a0 f3 a6 81 be c4 66 86 be ea 74 91 be 3f 06 9e 3d
       -0.25322685 -0.2625028 -0.2840951 0.07716035
0002b0 af e3 8f 3e 00 6a f6 bd 45 6d b0 bd a1 de 41 3e
       0.28103396 -0.12031937 -0.086145915 0.18932582
0002c0 1b e2 d6 3d f3 da 98 3c 40 e2 66 be a6 ad af 3d
       0.10492345 0.01865909 -0.22547245 0.08578043
0002d0 3f 64 67 3e ff 69 7f be 5c 49 fc bd 0f 5b 50 3e
       0.22596835 -0.24942778 -0.1231868 0.20347236
0002e0 1b 82 04 3e 0b ae 94 3b 14 92 d8 bd 92 b8 e1 3d
       0.12940256 0.004537349 -0.10574737 0.11021532
0002f0 8b 27 d1 3d d0 b7 fb 3c 61 d8 3f be 20 e6 5a be
       0.1021262 0.030727297 -0.18734886 -0.21376848
000300 83 03 89 be 61 ce b3 3d 0e 5d 5d bd ea dc 83 be
       -0.26760492 0.08779598 -0.054043822 -0.25754482
000310 b9 6d 5c bd e2 27 6b 3e a2 79 77 3e 33 98 80 be
       -0.053815577 0.22964433 0.24167493 -0.2511612
000320 8d 95 94 3e 39 18 8a bd e9 96 5f be b2 e0 06 be
       0.29020348 -0.06742901 -0.21834911 -0.13171652
000330 43 01 2c 3d 77 ec de 3d 48 3c 83 bd 0e 3e 8d bd
       0.04199339 0.10884946 -0.06407982 -0.068966016
000340 9f e4 1e 3d 64 56 8e bd 84 be 14 3e a5 09 0c 3e
       0.03879225 -0.069500715 0.14525801 0.13675554
000350 94 e0 fe 3d 57 f4 8a be 23 e7 91 bd 9d a5 f0 3d
       0.12445179 -0.27139542 -0.07124164 0.11750338
000360 58 f5 9b bd 39 2c e9 bd 9a 40 46 be 71 a3 5e bd
       -0.07615155 -0.11385388 -0.19360581 -0.05435509
000370 47 99 8b 3e 84 9a 0e 3e ab 50 92 3e 9d 19 3c 3e
       0.2726538 0.1392613 0.2857717 0.18369146
000380 4e b9 c0 3b ce 77 8f 3e 30 a1 8e 3b cc ab 10 bd
       0.005881465 0.2802109 0.004352711 -0.03532009
000390 9e 47 46 be c4 04 37 be 93 a5 66 be b7 ef fb bd
       -0.19363257 -0.17872912 -0.22524099 -0.12301581
0003a0 8f 47 c2 bd b2 7f 33 3d 46 63 fb bc f3 cc c9 3d
       -0.09486305 0.04382295 -0.030686986 0.09853544
0003b0 9b ba 01 be d2 b1 9a be 97 51 36 bd 52 5b b6 bc
       -0.1266884 -0.3021379 -0.044511404 -0.022260342
0003c0 1a 0f 00 3d 59 2d 1a 3d c2 eb 08 3e 99 51 0d 3e
       0.031264402 0.037640903 0.13371184 0.13800658
0003d0 08 14 0e be 31 e3 96 be 29 c9 db 3d 98 83 34 be
       -0.13874829 -0.29470208 0.10731728 -0.17628324
0003e0 ea 03 27 3e e7 cf 32 3e 1c 3e 35 be ab e5 84 be
       0.16310087 0.17462121 -0.17699474 -0.25956473
0003f0 e6 63 05 be 7f d9 94 bd 8e 0b 43 3e 72 f5 16 be
       -0.1302639 -0.072680466 0.19047377 -0.14742067

actor_encoder.0.bias f4 [128]
000000 31 53 a3 3d 6f 19 56 3d 31 af d6 bd 42 80 2c 3e
       0.07974852 0.05227035 -0.10482634 0.16845801
000010 37 d9 4e 3e 64 49 18 bd 1d 16 8f 3e 63 0b 86 be
       0.20200048 -0.037179366 0.2794656 -0.26180562
000020 c0 4c bf bc 09 e2 9d bd 7d d8 7d 3d 04 27 7f bd
       -0.023352027 -0.077091284 0.061974037 -0.062293068
000030 18 0c 04 3e 53 c2 0a be ca ac 2b 3e 86 bd 47 bc
       0.12895238 -0.13550691 0.16765133 -0.012191182
000040 3d 45 8d be 5e 37 bb bd e5 7a 83 bd 34 1a c9 bd
       -0.27591887 -0.0914142 -0.06419925 -0.09819451
000050 c2 73 79 bd 3b a7 bc bc d0 f3 95 bd 37 1c 7a be
       -0.06090141 -0.02302896 -0.07321894 -0.24424826
000060 c6 d2 0b be 34 26 81 be 28 cc 02 be 6a 3f 50 3e
       -0.13654622 -0.2522446 -0.12773192 0.2033669
000070 c8 46 10 bd b3 d6 ba 3d 87 01 01 3e 4d f3 8f 3e
       -0.035223752 0.09122982 0.12598239 0.2811531
000080 2f 5a ad 3d d2 74 03 be 5b 7b 98 be c8 60 a0 bd
       0.08464467 -0.12837532 -0.29781613 -0.078309596
000090 59 eb 7e 3d 18 ed 93 bc 15 3e 92 be d6 00 81 be
       0.062236164 -0.018057391 -0.2856299 -0.2519595
0000a0 9f fa 6c 3b d9 da 8a be cd d4 5f bd 97 f0 7a 3e
       0.0036160124 -0.27120093 -0.054646302 0.2450584
0000b0 22 3e 48 3e ee 8e 8e 3e 7e 2b 1a bc b0 5a 4d be
       0.19554952 0.27843422 -0.009409783 -0.20054126
0000c0 5e f0 fa bd 5e 9a cf bb f8 93 4b bc a4 62 46 be
       -0.12252878 -0.0063355407 -0.012425415 -0.19373566
0000d0 07 de 05 be ea da 88 bb 5f de 90 3e e3 a3 6c 3d
       -0.13072978 -0.004176487 0.28294656 0.057773482
0000e0 fe 91 8b 3e 62 6a 95 3d ea 95 04 be 38 8b 28 3d
       0.2725982 0.072956815 -0.12947813 0.041148394
0000f0 4d 73 64 3e ae 37 57 3c d8 0c 4c be b8 75 89 bd
       0.22309609 0.013135834 -0.19926775 -0.06711906
000100 95 f2 58 be d9 f1 b5 bc 74 64 7f 3d 4d 4c 9a 3e
       -0.21186288 -0.022210049 0.06235166 0.30136338
000110 80 97 32 3e e5 63 04 be 46 ac 1b 3e af 35 50 3e
       0.17440605 -0.12928732 0.15202436 0.20332979
000120 b8 37 8e 3e a2 fe 27 bc 16 8b a0 bd 17 3d 48 3d
       0.27776885 -0.01025358 -0.078390285 0.048886385
000130 6e f8 83 be 51 18 2d 3b 6a 49 6c bc ab c1 e9 bd
       -0.25775474 0.0026412199 -0.0144218 -0.11413892
000140 42 32 b3 bc a4 ea 8d 3e 98 ef 04 be 7d 71 94 be
       -0.02187455 0.2771808 -0.12982023 -0.28992835
000150 e8 6d 80 be 6f 2b 15 be 43 7f be ba 89 b8 47 3e
       -0.25083852 -0.1456735 -0.0014533777 0.19503988
000160 ea d1 43 be 47 7e 94 3e 08 11 3c bd ad ed 90 be
       -0.19123045 0.29002592 -0.04591468 -0.28306332
000170 3c 6b d6 3b 6d 99 82 3e e3 0a e9 bc 1e a4 82 3e
       0.006543545 0.2550768 -0.028447574 0.25515836
000180 89 fe 88 bd 9d 49 34 be 03 d9 04 bc a9 ae 29 3e
       -0.06689174 -0.17606206 -0.00810838 0.16570534
000190 92 4d 37 be f6 eb 94 be 31 6b 7c be 6f 13 08 3e
       -0.17900684 -0.29086274 -0.24650265 0.13288663
0001a0 ab 5e 37 3e 1e 7f 83 3d 87 43 28 3e 08 97 93 3e
       0.17907207 0.0642073 0.1643201 0.28826165
0001b0 8f 78 7a be 2a 1a 44 be 42 e1 12 3e 8b a3 ff bd
       -0.24460052 -0.19150606 0.14343742 -0.12482365
0001c0 14 ee cf 3d 52 a1 9f 3c af 75 b6 3d 15 85 8b 3e
       0.10152832 0.019486103 0.08909165 0.2724997
0001d0 4c 51 8b 3e 17 25 de bd 19 62 4b bd ac 5f 1f bd
       0.27210462 -0.10846918 -0.0496541 -0.0389096
0001e0 bb 9e 28 3e 48 68 92 be 63 ac 53 3d 0a 90 1e 3e
       0.16466801 -0.28595185 0.051678073 0.15484634
0001f0 26 62 29 3e 6f 25 0f 3e 27 f8 bf bd 1b 47 7e 3e
       0.16541347 0.13979124 -0.09373503 0.24831812

actor_encoder.2.weight f4 [128, 128]
000000 83 aa b0 3c 8c e9 df 3c 0d 2e 52 bd ef de 17 3c
       0.021565681 0.027333044 -0.05131345 0.00926946
000010 94 4c a3 bd 1f 36 92 3d 4d b9 ab 3d 2c 78 0c bc
       -0.079735905 0.07139229 0.08384953 -0.008573573
000020 a4 ab 2e 3c 59 05 1a bc 10 8f 55 3d de fc 21 3d
       0.0106610395 -0.009400689 0.05213839 0.039547794
000030 0c be 55 3d 46 c4 99 3c e3 ac 1a 3c 72 92 94 bd
       0.052183196 0.018770348 0.0094406335 -0.07254495
000040 9c 57 6a bd 9a 04 ae 3d 67 84 61 3c b5 3f 10 bd
       -0.057212457 0.084969714 0.013764477 -0.035217006
000050 ec d7 38 3d ea c9 83 3d 4d 0e 0f 3c ee 5a 58 3b
       0.045127794 0.064349964 0.008731437 0.0033013183
000060 89 c1 6c 3d 5e 91 11 bc e6 49 5a bd 0f a7 9e 3c
       0.057801757 -0.008884756 -0.05329313 0.01936677
000070 2d 7d e2 3c f2 57 b3 3d 2e 4e ad 3c 2e b1 10 3d
       0.02764758 0.087570086 0.021155443 0.03532522
000080 37 36 b0 3d 7f 91 42 bc 8e ff af 3c 10 a5 2e bd
       0.08604091 -0.011875509 0.021484163 -0.042637885
000090 1a a0 f4 bc 11 e3 9b 3d 61 13 eb bc 25 b9 92 bc
       -0.029861499 0.07611669 -0.028695764 -0.01791055
0000a0 c7 e4 69 3d c5 7e 40 3d 81 26 7b bd e1 30 07 3d
       0.057102945 0.046995897 -0.061316017 0.0330056
0000b0 6d 28 a2 bd 70 19 2b 3d c9 67 1f bd 52 8b bf 3c
       -0.07917867 0.041772306 -0.038917337 0.023381863
0000c0 b9 0f 4d 3d 58 11 91 bd 77 ab 8e 3d 27 18 0a bd
       0.050063822 -0.07083386 0.06966298 -0.03371444
0000d0 df ab 84 bd 88 42 93 bd 9c 6d 50 3d 8c ab 24 bd
       -0.06478094 -0.07190424 0.05088578 -0.040202662
0000e0 21 6a 33 bd 31 0e 71 3d 07 e7 96 bd a7 9f ac 3d
       -0.043802384 0.058851425 -0.07368284 0.08428889
0000f0 58 a2 4d 3d 5a 65 f7 bc 12 88 e6 bc 68 aa 94 3d
       0.05020365 -0.030199695 -0.028141055 0.07259065
000100 24 ec b4 3d 5a 56 7e 3d 9d a1 55 bd 76 12 77 bd
       0.08834103 0.06209407 -0.05215608 -0.06032034
000110 2d 8f e0 3c ee 87 96 bd 67 8b a5 3d af 4f 88 3d
       0.027412022 -0.07350145 0.080832295 0.066558234
000120 c5 2b ad 3a d1 02 ae bd 95 8b 42 bd 57 31 97 3c
       0.0013211897 -0.08496631 -0.047496397 0.018456144
000130 40 0c 8c 3d 6a 71 1e 3d 9c 00 70 bd e4 b2 09 3c
       0.06838274 0.03868238 -0.05859433 0.008404467
000140 6e 8e b0 bd 13 59 4f bd 47 45 94 3d 42 b6 34 bc
       -0.08620916 -0.050622057 0.07239776 -0.011029782
000150 fb 95 16 bd ab 14 50 bd 3c a8 8b bd 9b 3c 3a 3d
       -0.036764126 -0.05080096 -0.068191975 0.045467954
000160 c2 f5 a0 bd 37 64 0b 3d ca f4 72 bd f3 f2 57 bd
       -0.078593746 0.03403112 -0.05931548 -0.05272193
000170 3a 36 7b bd 76 51 38 bd e9 27 82 3d ec c3 b3 3c
       -0.06133101 -0.044999562 0.063552685 0.021944009
000180 0d 80 53 bd f2 71 a1 bd 24 ac 33 3d f4 2f 62 bd
       -0.05163579 -0.078830615 0.043865338 -0.055221513
000190 bf 27 bf 3c e1 c3 03 bd 45 ff 2a bd 8f 54 41 3c
       0.023334382 -0.032169227 -0.04174735 0.0117999455
0001a0 23 d2 85 3c 9c bb bd bc 8e e6 95 3d 59 c1 99 3c
       0.016335553 -0.023160748 0.073193654 0.018768953
0001b0 79 d7 1a 3d 56 72 94 3d 0d b9 72 bc 9e 6b b1 bd
       0.037803147 0.0724837 -0.014814627 -0.086631045
0001c0 52 d1 e2 3c 21 59 5f bd 7f 7a e5 bc 5c 44 25 3d
       0.027687702 -0.05452836 -0.028012512 0.040348396
0001d0 81 95 29 3d 33 3d 05 bd 3d bb f6 3c 8c 6a bb bc
       0.041402344 -0.032529067 0.030118579 -0.022877954
0001e0 c0 f4 5d bd 95 13 16 3c 4e 88 c3 bb 90 17 9c 3d
       -0.05418849 0.009159942 -0.0059671765 0.07621682
0001f0 36 fa 6b bd 3a 2c a5 3c b6 2b 53 3d 57 3d 1a bd
       -0.057611667 0.02016269 0.051555358 -0.037656154
000200 2c 70 31 3d f6 c8 98 3d 3d 22 80 3d 24 3b 25 3d
       0.043319866 0.07460205 0.062565304 0.040339604
000210 15 00 57 bd e0 ba 9b bc 66 4c a2 bd bf 96 64 bc
       -0.052490313 -0.019010007 -0.07924728 -0.013951956
000220 ba 6f 0e bd 67 98 fb bc a9 27 2b 3d 1b b7 47 3d
       -0.03477452 -0.03071232 0.04178587 0.048758607
000230 3c 99 ae 3d 95 d4 1e bd 68 06 f3 bc c6 0d 46 3d
       0.08525321 -0.038776953 -0.02966614 0.04835298
000240 c6 35 98 bd 07 7a 92 3d 4e e9 98 3d eb bf 92 bd
       -0.074321315 0.07152181 0.07466374 -0.07165512
000250 59 d3 a0 bc 83 35 85 3b 49 15 c0 3d 7b 5a 59 3d
       -0.019632028 0.004065217 0.0937906 0.053064805
000260 1f 5d d7 ba c4 84 ff 3c 53 a8 5d bb a1 7d 3d bc
       -0.001643095 0.031191237 -0.0033822253 -0.011565597
000270 40 b8 5f 3d dc c7 ad bc 89 2b 4c 3d e0 75 af bd
       0.054619074 -0.021213464 0.049846206 -0.08567405
000280 7e 41 b7 bd 89 3f 08 3b 79 8c a4 3d 50 34 ff bb
       -0.089480385 0.0020789823 0.080346055 -0.0077882186
000290 58 bf 09 3d c1 f4 9c bd 84 7a 6a 3d f5 c8 27 3d
       0.033629745 -0.076638706 0.057245746 0.040963132
0002a0 4a 15 d1 bc 40 4a 80 bd 82 b3 8e 3b 51 ee f9 3c
       -0.025522847 -0.06264162 0.004354895 0.030509146
0002b0 94 47 15 3d e8 49 31 3d bb b6 8a 3c 22 f5 af 3c
       0.036445215 0.043283373 0.016932836 0.021479193
0002c0 9b ec 05 3d 20 5f f6 bc 3a c5 9f bd 6f 8c 0d bd
       0.032696348 -0.030074656 -0.0780129 -0.034557756
0002d0 2b a1 0e 3d 39 22 5d bc 95 95 b7 3d 6d 9c 9e bc
       0.03482167 -0.013496929 0.089640774 -0.019361699
0002e0 9c 8d a2 3d cb b4 88 3d ba 4e 06 bd 60 23 a1 3d
       0.07937166 0.066751085 -0.032789923 0.07868075
0002f0 0a 5e 91 bd 16 0b ac bd f1 b2 ca 3c a4 bc a5 bd
       -0.07098015 -0.08400552 0.024743529 -0.08092621
000300 5b 6a 88 3c 9e 71 84 3c 74 cb 5e 3d 48 e7 9e bd
       0.016652277 0.016167458 0.054393247 -0.07758957
000310 19 c1 df bb 62 be 71 bd 46 e5 98 bd 3b 3e b5 bb
       -0.006828439 -0.059019454 -0.074656054 -0.0055311
000320 f9 68 4e 3d 05 e3 09 bd 86 b0 27 3d d9 fc 0c bd
       0.05039308 -0.03366377 0.04093983 -0.03442082
000330 69 5c e7 3c b9 7d 8a 3b d0 0e a1 bd 14 4b 4e 3d
       0.028242307 0.004226413 -0.078641534 0.05036457
000340 31 53 99 bd af 0b 8e bb f7 1d 3b bd 17 2c 2e 3b
       -0.074865706 -0.004334889 -0.045682874 0.0026576573
000350 65 38 95 3d 6b 6c 87 bc 7f 5d b1 bc c0 2b 97 bd
       0.07286147 -0.01653119 -0.021651028 -0.073813915
000360 7a c5 8b 3d ab d1 81 3c 4e 7f ee bc 5c b3 46 3d
       0.06824775 0.015847048 -0.029113438 0.048510894
000370 21 0d 9a 3c f3 0a df 3b 59 ec e5 bb 3b 2c 97 bd
       0.018805088 0.006806725 -0.0070167 -0.07381483
000380 0b 2d 91 bc 40 84 00 3d be 6f 81 bd e0 7a 64 3d
       -0.017721673 0.031376123 -0.06320141 0.055781245
000390 48 56 86 39 69 8d d7 3c 14 33 90 3b 6c 6b a3 bc
       0.00025622756 0.026312547 0.0044006202 -0.019948684
0003a0 d9 76 9f bd ea 66 b1 bd f8 84 44 3d 40 b1 91 bd
       -0.0778634 -0.086622074 0.04797837 -0.07113886
0003b0 f5 cd 72 bc 87 5b f5 bc 80 db 25 3d 76 53 f6 bc
       -0.014819612 -0.02995087 0.040492535 -0.030069094
0003c0 cf a5 22 bd 11 70 71 bc 9d 3d b5 bc 79 4c 15 bd
       -0.03970891 -0.014736191 -0.022124106 -0.036449883
0003d0 d8 14 34 bd dd 75 18 bc 29 8c 2c 3d 30 32 35 3d
       -0.04396519 -0.009305445 0.042125855 0.044237316
0003e0 16 15 bb bd 16 4f 2a bd 74 33 86 bd 13 e6 55 3d
       -0.09134881 -0.04157933 -0.06552783 0.05222137
0003f0 e1 e9 54 bd e6 e8 b9 3d ab 2d cb 3c a0 9f 88 bd
       -0.051980857 0.09077625 0.02480205 -0.06671071

actor_encoder.2.bias f4 [128]
000000 c9 e8 17 3d 81 d3 25 bb 35 4d bd 3b db 8b d3 bb
       0.037087236 -0.0025303068 0.005777026 -0.006455881
000010 26 df ba 3d 26 4a 0d bd ee 29 7b bd 7f 50 f0 3b
       0.091245934 -0.03449454 -0.061319284 0.0073338146
000020 68 33 95 bd 14 63 2d 3d e5 05 64 3d 82 07 3e 3c
       -0.072851956 0.042330816 0.055669684 0.01159847
000030 df 24 55 bd 94 13 1f 38 6d dc e7 3c 88 e0 16 3d
       -0.052037116 3.7926788e-05 0.02830335 0.036835223
000040 d6 83 20 bd aa d7 12 3b d6 98 1f 3d 46 23 4c bc
       -0.03918823 0.0022406378 0.038964115 -0.012459582
000050 61 3b 92 3d 3e 35 9b 3d a1 02 c6 bc 7e 6c fa bc
       0.07140232 0.075785145 -0.024171175 -0.030569311
000060 af 66 68 3d aa 3b c6 3b ee ca 60 3d 86 3b 2e bd
       0.05673855 0.006049593 0.05488103 -0.042537235
000070 73 42 ad bd 62 54 81 3d 69 fb 07 bd a8 c6 e5 bc
       -0.0845994 0.06314923 -0.033198748 -0.028048828
000080 67 bc 23 bd c5 a2 02 bd f3 fc 86 bc 4c 8c 55 3c
       -0.039974596 -0.03189351 -0.016478037 0.013033938
000090 1e be 14 3c 86 d9 85 3d 1c 55 9c bd f4 16 42 bb
       0.009078531 0.0653563 -0.07633421 -0.0029615732
0000a0 dc 2a b2 3d 21 c7 26 bd f6 18 4e 3d 6d 70 a1 3b
       0.08699581 -0.040717248 0.050316773 0.0049267323
0000b0 55 96 aa 3d 6b 0f 0a 3d f2 ed 7a bd 6b be 9f bc
       0.08329455 0.03370611 -0.06126208 -0.019499978
0000c0 40 a6 62 3d af fc 90 3d 0a f8 9c bd 15 35 3a 3d
       0.05533433 0.070794456 -0.07664497 0.04546078
0000d0 fb 77 86 bd 0a 86 38 bd c4 1a 84 bd 53 86 84 bd
       -0.06565853 -0.045049705 -0.06450418 -0.06470933
0000e0 67 51 8f bd 03 e4 23 3d 7b cd f2 3c fc 09 8a bd
       -0.06997948 0.04001237 0.029638996 -0.067401856
0000f0 50 c0 1a bd d9 0b 67 bc fc ae 75 bd 1f 82 22 3c
       -0.03778106 -0.014101946 -0.05998133 0.009918719
000100 d7 f8 21 3d 2e 57 21 3d ab 11 8c 3b 67 af 8d bd
       0.039543953 0.03938978 0.004274567 -0.06918221
000110 11 50 78 bd 65 b0 25 bd af 24 26 3d e8 b1 94 bd
       -0.060623232 -0.040451426 0.040562328 -0.072604954
000120 69 2a 43 bc f4 fe 21 3d 04 48 12 3d 91 36 91 3d
       -0.011911967 0.039549783 0.03571321 0.07090486
000130 18 8f 3a bd 4c f4 73 bc 22 9c d1 3b ca ea a8 3d
       -0.04554662 -0.014889788 0.0063967863 0.082479075
000140 f5 82 32 bd db fb 1f bc fe 9e 95 3c 01 c1 88 3d
       -0.04358192 -0.009764637 0.01826429 0.066774376
000150 61 54 3c 3d cd 1a 1c bc 59 57 99 3c 4c 4d b0 3d
       0.045978907 -0.009527874 0.018718408 0.08608493
000160 cc d7 33 bd c4 7f 8c bd 73 65 59 bd ea 47 fd 3c
       -0.04390697 -0.06860307 -0.053075265 0.03091808
000170 ae e1 8a 3d f8 c1 6e bc 12 a6 74 3d cb f0 47 bd
       0.06781326 -0.014572613 0.05972869 -0.048813622
000180 fb 0e 8e bd 95 9b 98 3d a0 7f 1a 3b 78 52 0a 3d
       -0.06936451 0.0745155 0.0023574606 0.033770055
000190 23 a7 13 b9 4f 2e dd bb a7 8b 2f bd b7 b6 a5 3c
       -0.00014081276 -0.006749905 -0.042857792 0.020228727
0001a0 6d 33 9e 3d b9 20 a3 3d cf ed 95 3d 1a 23 8a 3d
       0.077246524 0.07965226 0.07320749 0.06744976
0001b0 c7 3b 85 3c 7c c4 28 3d f2 2c 81 bd 3e 93 12 3c
       0.016263856 0.041203007 -0.06307401 0.008946238
0001c0 c9 5a 00 bd d4 8c 21 3d 09 ca df bc 90 90 2f bd
       -0.03133658 0.039440945 -0.027318018 -0.042862475
0001d0 97 4a 17 bd 3b 51 dd 3c 17 e9 eb bb 5b 9e 95 bd
       -0.03693637 0.027016273 -0.0071994173 -0.073055945
0001e0 e0 e4 72 bb 18 be 8d 3b d9 fc 0a bc 58 11 ec 3c
       -0.003706269 0.0043256395 -0.008483135 0.028816864
0001f0 ea f8 80 bd e9 55 fa 3c 86 20 39 bc 3b 52 ff 3b
       -0.062974766 0.030558543 -0.011299258 0.007791785

actor_head.weight f4 [2, 128]
000000 42 18 dd 3a 6e 2d 16 bb 00 00 00 00 1b db 39 b9
       0.0016868191 -0.0022915262 0.0 -0.00017724598
000010 4b 43 ca bb 4f c7 06 3b 18 9f a3 3a fb d8 8e 3b
       -0.0061725727 0.0020565575 0.0012483327 0.004359362
000020 ce 0d 86 3b a3 9f 86 3b c6 40 4b 3a 30 24 e3 bb
       0.004091001 0.0041083856 0.00077534874 -0.006931804
000030 d5 44 e2 ba e4 90 50 bb f0 5e e2 bb bb dc 85 3b
       -0.0017262945 -0.0031824643 -0.00690829 0.004085151
000040 be c3 c0 3b e7 4c 75 bb a6 b6 c1 b9 68 26 a1 3b
       0.0058827093 -0.003742987 -0.00036947912 0.0049179085
000050 c7 b7 79 3a ce 87 f8 3a bf 94 60 3b 41 c2 d7 b9
       0.0009525981 0.0018961371 0.0034268347 -0.00041152726
000060 38 2b c0 bb e0 87 61 3b d5 a2 da ba 62 3d 8d ba
       -0.005864527 0.0034413263 -0.0016680608 -0.001077574
000070 89 4f 89 bb 79 cb 87 3b fe 4e d8 bb 9f b2 92 3b
       -0.0041903895 0.004144129 -0.0066012135 0.0044768597
000080 4f ce 91 3b 7e c2 0e 3b ef 2a fc 39 6b a4 b4 bb
       0.0044496427 0.0021783407 0.00048097174 -0.005512764
000090 87 e0 8d b9 c7 90 dc 3a 14 e5 16 bb 0f 1f 33 bb
       -0.00027060902 0.0016827815 -0.0023024725 -0.0027331745
0000a0 6a 3e ab 3b a3 5a 82 3b 7e fb d7 3b 80 99 25 39
       0.005225946 0.00397809 0.0065912595 0.0001579281
0000b0 c8 c4 d0 3a 61 0b 5b 3a 74 b5 4e 3b 73 a4 b0 3b
       0.0015927786 0.00083558826 0.003154126 0.0053906976
0000c0 77 87 54 3b bc a4 6c 3b f8 c9 81 bb bc 2f b5 3b
       0.0032429376 0.0036108932 -0.003960844 0.005529372
0000d0 80 a0 6b bb c3 6b 98 3b 27 6b 1f 3b 58 84 81 b8
       -0.003595382 0.004651518 0.0024325342 -6.17585e-05
0000e0 cd e4 35 bb aa 69 a8 3a bc 75 99 3a af fe be 3b
       -0.0027754784 0.0012848873 0.0011708061 0.0058287005
0000f0 32 e9 47 3a 7a 48 a6 ba 03 09 98 3b e4 2d 60 bb
       0.00076259964 -0.0012686395 0.004639746 -0.003420704
000100 69 08 bd 3b d8 a1 e3 bb d1 4a 32 3b c2 e8 26 bc
       0.005768825 -0.0069467835 0.0027205239 -0.01018733
000110 56 8e 99 39 3a cb d2 39 32 f4 92 bb 67 60 f2 3b
       0.00029288483 0.00040205737 -0.0044846768 0.007396746
000120 2a f2 89 3b 46 74 5c bb b2 ce 15 3b 62 b7 2a b9
       0.0042097764 -0.003363864 0.0022858796 -0.00016280779
000130 5c 60 9a 3b ca ac 58 3b e0 5e 63 b9 62 67 b0 3a
       0.004711194 0.0033061975 -0.0002168375 0.0013458545
000140 3b ee 49 bb b9 96 d0 3a 3c 49 79 3b 96 d9 1a bc
       -0.0030812162 0.001591406 0.0038038036 -0.009451291
000150 02 6e 13 3b 69 cd d7 3b b6 4e 8b 3b 39 e8 07 bb
       0.002249599 0.006585766 0.0042513264 -0.002073778
000160 1e 4d 9f ba df 8d 91 3b a9 c3 e5 b9 16 c4 1a 39
       -0.001215372 0.004441961 -0.00043824062 0.00014759632
000170 5d 62 44 3b 52 8d 9c 3b 55 f5 06 3a f3 05 02 39
       0.0029965856 0.004777589 0.00051482517 0.00012399982
000180 21 58 31 3b 22 82 ef b9 65 b1 d9 3a 08 0c e6 ba
       0.0027060586 -0.0004568259 0.0016608654 -0.0017551193
000190 c1 cc e9 bb 3d f3 2a bc aa 9f 87 ba 37 06 b7 3b
       -0.0071350043 -0.010433969 -0.0010347266 0.0055854577
0001a0 ca 03 e4 ba 43 45 00 bc a4 c1 65 ba 12 07 6b 3b
       -0.0017396149 -0.007829013 -0.00087645114 0.0035862369
0001b0 2a 35 ce 3a 30 e6 00 3a 3b d6 11 bb 98 32 55 3b
       0.0015732397 0.0004917113 -0.0022252935 0.0032531377
0001c0 1e da 18 ba 0e 7a cd ba 84 31 f0 3a 15 42 d9 bb
       -0.0005830842 -0.0015676634 0.0018325304 -0.006630192
0001d0 63 18 3e 3b e9 41 a0 3b 83 50 2c 3a e9 f0 48 3b
       0.0029006235 0.0048906696 0.00065732765 0.0030661172
0001e0 84 be 29 bb 44 43 5b bb 56 e1 91 bb 20 3d ed 3a
       -0.002590091 -0.0033456841 -0.004451911 0.0018099882
0001f0 c5 49 b3 3b e3 8c 68 3b eb 53 08 bb 28 46 94 3b
       0.0054714405 0.0035484366 -0.0020801972 0.004524965
000200 b8 78 02 3b 5e eb 27 3b 00 00 00 00 e8 83 ae bb
       0.001990838 0.0025622468 0.0 -0.005325783
000210 60 b6 16 3b 69 d9 d4 3a eb 8d 4a 3b ab 06 d7 ba
       0.0022996888 0.001623911 0.0030907344 -0.0016405185
000220 0a 94 30 3b 93 34 30 3a 98 92 40 3b 42 38 0c bb
       0.0026943707 0.00067217014 0.0029384252 -0.0021395837
000230 0a 59 97 ba 44 35 09 3b 1f 22 85 3a a5 07 0c 3a
       -0.0011546921 0.002093629 0.0010157264 0.00053417153
000240 11 e4 60 bb 62 a9 b6 b9 28 a5 a1 b9 7a 96 87 bb
       -0.0034315626 -0.00034839945 -0.00030831364 -0.0041378113
000250 6f 4a 84 3b 69 b4 9e b9 cc b6 28 3a 13 ec b2 38
       0.0040371935 -0.00030270524 0.000643593 8.531674e-05
000260 60 cd c4 39 f8 7b 62 3b 31 ad f2 3a 71 25 ee 3a
       0.0003753705 0.0034558754 0.001851475 0.0018169117
000270 7a c4 82 bb 57 15 ec 3a 90 dd ff 39 e6 4e 09 ba
       -0.003990707 0.0018011731 0.00048802467 -0.0005237892
000280 21 7b 9d ba be 6c 40 3b 10 c8 01 3b fa 2a b3 b8
       -0.0012014845 0.002936169 0.0019803084 -8.54339e-05
000290 68 89 af bb ba 5f e3 3a e9 16 ba b8 a2 f3 69 3b
       -0.0053569563 0.0017347254 -8.8734385e-05 0.0035698195
0002a0 bb 52 0d 3b d9 6b 18 3b dc a8 2f ba a3 9b 42 3b
       0.0021564204 0.0023257642 -0.0006700882 0.0029694817
0002b0 6d a7 1a 3b 25 4a d6 3b 80 d9 4f bb 64 87 05 bb
       0.0023598329 0.0065396004 -0.0031715333 -0.0020374889
0002c0 c6 ae 85 3a dd 8d 9f 39 a0 9e 88 3b ce 2a 23 3a
       0.0010199181 0.0003043254 0.0041693 0.0006224335
0002d0 67 53 16 bb 49 79 56 3b 30 fc ca 3a fa a6 57 b9
       -0.0022937895 0.00327261 0.0015486535 -0.00020566201
0002e0 57 ec 9a bb 0e 81 3e 3b 2e f0 67 ba 8a 6e 92 b9
       -0.004727881 0.0029068622 -0.000884774 -0.00027929648
0002f0 fa b4 29 3b a1 1e 11 3b 1c d2 70 bb c7 ae 3d bb
       0.0025895224 0.00221435 -0.0036746329 -0.0028943287
000300 50 d0 06 bb be 3c 0f 3b 8a b5 2d 39 f4 11 ff bb
       -0.0020570941 0.0021856274 0.00016566194 -0.0077841226
000310 82 0e e4 3a bc 5a cf b7 fa b5 b3 3b 57 43 f9 3a
       0.0017399343 -2.4718574e-05 0.00548434 0.0019017261
000320 8d 51 f4 3a 55 e8 65 3b 03 f9 ae ba df a2 19 3b
       0.0018640027 0.0035081108 -0.0013349358 0.0023443026
000330 bf a3 20 3b a1 f9 77 3b da 11 9d 3b 90 61 23 3b
       0.0024511663 0.0037838 0.004793388 0.0024929978
000340 98 e0 57 3b c7 ab 79 3b a6 c8 72 3b d4 55 ae ba
       0.0032940265 0.0038096772 0.0037045865 -0.0013300725
000350 7b 73 aa 3a b9 34 d4 39 34 d4 e6 ba d0 1d b7 39
       0.0013004387 0.00040475072 -0.0017610849 0.00034926692
000360 52 68 1a 3b 5c 56 08 38 1f e7 ed 3a 57 cc 2a ba
       0.0023560715 3.2505355e-05 0.0018150544 -0.00065154344
000370 7a 8f 27 3b 41 82 95 3a 9a 31 90 3b 9a b6 3d 3b
       0.0025567696 0.0011406617 0.004400444 0.002894795
000380 e2 7b b3 3a 2e 3b 43 3b 9a 72 f8 3a e2 05 d3 ba
       0.0013693536 0.0029789913 0.0018955052 -0.0016099776
000390 3f d4 96 bb 43 4b 76 3b d3 5d 01 3c 6a c7 f6 3a
       -0.0046029384 0.003758148 0.007895905 0.001882774
0003a0 8d b0 9f bb cd 82 db 3a d5 4e 4a 38 35 9f f5 38
       -0.0048733414 0.0016747356 4.823397e-05 0.00011712165
0003b0 cd 87 47 3b 5e bc 8f 3a a8 2a d8 3a 98 0f 10 bb
       0.0030445934 0.0010966172 0.0016492205 -0.002198195
0003c0 95 7e e5 39 f4 52 53 3b 8e a4 03 bb 0c 14 e8 b9
       0.00043772595 0.003224549 -0.0020087096 -0.00044265424
0003d0 fd c2 20 3b 6d ab e9 3a c5 cf a1 3a 73 e4 92 3a
       0.0024530285 0.0017827578 0.0012345245 0.0011206999
0003e0 81 19 40 3a b5 60 36 bb 8a 65 4b 3a c3 7d 1f 3b
       0.0007328019 -0.0027828638 0.0007758966 0.0024336434
0003f0 9c 03 10 3b 46 ce f0 3a f8 b7 2f 3b aa 1c 1d b9
       0.0021974808 0.0018372021 0.0026812535 -0.00014983365

actor_head.bias f4 [2]
000000 07 be 90 3a d4 1d b3 3a
       0.0011042961 0.0013665506

critic_encoder.0.weight f4 [128, 11]
000000 a3 9d 2a be cf c4 87 3e 85 2e b9 3d 7c 83 22 3e
       -0.16661696 0.2651734 0.09042076 0.1587047
000010 42 b1 df bb df 86 93 be f8 fa 14 3b a1 79 2c be
       -0.0068265507 -0.28813836 0.0022732597 -0.16843273
000020 c5 3c 61 3e de 26 fa bc bf 82 ef bd 66 12 c5 bd
       0.21995838 -0.030536111 -0.1169486 -0.0962265
000030 23 a8 6a 3e c8 90 79 bd e7 04 7e 3b 42 79 6c be
       0.22915702 -0.06092909 0.0038760246 -0.23093131
000040 2d 0c 89 3e 65 e1 2b be 2a c0 96 bd 5d 0d ca bd
       0.26767102 -0.167852 -0.07360871 -0.0986583
000050 e2 6b 7e be a9 fe 0f bd 76 11 65 be 60 ed 00 bb
       -0.24845842 -0.035154972 -0.22369942 -0.0019672737
000060 dd f4 93 be 14 c6 95 3e bd 5b 67 be 3c 8f 95 3e
       -0.28897753 0.29252684 -0.22593589 0.29210842
000070 ec 74 68 be de 75 47 be f8 fc ed bd 7c b8 ae bd
       -0.22700852 -0.19478557 -0.116205156 -0.08531281
000080 fa cd 97 3e 81 ec 79 be 77 98 bd bc 25 de 29 3e
       0.29649335 -0.24406625 -0.02314399 0.16588648
000090 32 0a bb bc 13 32 8f be d9 98 53 be 74 75 0f bc
       -0.02283201 -0.2796789 -0.20663776 -0.00875603
0000a0 4c 20 87 3e 86 66 96 3e 6b 3e 61 3e 0a 5a 1a 3e
       0.26391828 0.29375094 0.21996467 0.1507341
0000b0 2d 1a 77 be 6e 8e f4 bd f5 b7 25 bd a1 9a 96 3d
       -0.24131079 -0.11941229 -0.04045864 0.07353712
0000c0 13 a1 7b bd 9b f0 52 3e 49 7c 9f 3d 6b 6a a5 3d
       -0.06143291 0.20599596 0.077873774 0.08076938
0000d0 37 46 53 3c f8 32 b9 3d f7 8c 1f 3b 15 08 43 bd
       0.0128951585 0.09042925 0.0024345496 -0.04761513
0000e0 25 11 72 3d 69 44 0c 3e 3c 0e 7f 3e 84 a0 00 3e
       0.05909838 0.13697971 0.24907774 0.12561232
0000f0 b9 44 0c 3e 1d bd 6f be 11 51 87 3e 8c 32 c4 3d
       0.1369809 -0.23411985 0.26429036 0.095799536
000100 b6 9c f8 3d 6c 31 81 3e 54 9b e3 bd 9c 94 eb bd
       0.12139265 0.25233018 -0.11113611 -0.11502954
000110 14 e5 b5 3d 85 f1 37 be e3 85 93 bd c4 e7 7d be
       0.08881584 -0.17963226 -0.07203271 -0.24795443
000120 1f fe 63 bd 8a 8a 86 be 47 51 99 3e 10 1e 14 be
       -0.05566227 -0.26277572 0.29944822 -0.14464593
000130 98 33 2b be a2 d9 98 3e 4a dd 86 be a2 04 88 3e
       -0.167189 0.2985354 -0.26340705 0.26566035
000140 2f bc 9c bc d9 79 50 be 51 53 aa 3d 22 91 5e bc
       -0.019132702 -0.20358981 0.083166726 -0.013584407
000150 96 bc 0c bb 79 9e 60 be 9c 76 62 3e 89 db f3 bd
       -0.002147471 -0.21935453 0.22115558 -0.119071074
000160 40 44 79 be 9a 87 80 be 5c fc 2a be a8 39 bb 3c
       -0.24342442 -0.25103456 -0.1669783 0.022854641
000170 75 0a db bd 8f 65 96 3e 76 35 4d bc f1 26 69 3e
       -0.10695354 0.29374358 -0.012524953 0.22768761
000180 14 08 85 3e 30 44 17 3e 19 14 3d be 98 70 84 3d
       0.25982726 0.14772105 -0.18464698 0.06466788
000190 97 f6 56 3e 9f 43 b5 3d 9f 6a d3 3b c5 a5 6c be
       0.20992504 0.08850788 0.006451919 -0.23110111
0001a0 56 8b 6c 3e 6d fd 35 be 18 d9 a0 3d d3 b4 39 3e
       0.23100027 -0.17772456 0.07853907 0.18135385
0001b0 91 51 e6 3d e1 1b 4e 3e 08 f4 a3 bd 75 b1 59 3e
       0.11246026 0.20127822 -0.0800553 0.212591
0001c0 8a 53 52 3e 97 77 b3 bd 5e e9 4a be b1 93 c6 3c
       0.2053968 -0.08763044 -0.19815585 0.024240347
0001d0 40 db 4c be 22 74 8c bb 1f 43 17 3d 8c 81 1f be
       -0.20005512 -0.004286305 0.036929246 -0.15576762
0001e0 0f 0e 93 3d e3 1c 53 3c 43 ff 8b 3d fe 88 9c bc
       0.07180416 0.012885305 0.06835797 -0.019108292
0001f0 c0 8d 14 3e 35 0c 5b 3e 26 a0 18 be fa ae 69 be
       0.14507198 0.21391375 -0.14904842 -0.22820655
000200 38 c0 5b bd 8f 44 94 be eb 10 81 be ca db a5 3b
       -0.05365011 -0.28958556 -0.2520822 0.0050616013
000210 bd be 20 be 0e 3d 77 be d1 fa 81 bb 2b 5e dc 3d
       -0.15697761 -0.24144384 -0.003966667 0.107601486
000220 ee cf 81 be 42 19 53 be 20 16 c5 bd f2 33 16 3d
       -0.2535395 -0.20615104 -0.09623361 0.036670633
000230 24 6c 83 3e 20 fc 4c be 80 78 b8 3c 9a ec cb bd
       0.25668442 -0.20018053 0.022518396 -0.099572375
000240 79 3b 99 3d 29 01 51 bd 9d ab 9d 3d c8 fd 77 be
       0.07482047 -0.051026497 0.07698748 -0.24217904
000250 f4 5f ee 3c e5 59 32 3e 92 33 45 bd c5 7e 5c be
       0.029098488 0.17417105 -0.048144884 -0.21532734
000260 3c 73 51 3e e2 4b 85 3e 5c 86 99 be 4a 33 9c 3b
       0.20454115 0.26034456 -0.2998532 0.0047668563
000270 19 bc 8d be 44 e2 35 3e 15 47 f7 bd 7b 1b 87 be
       -0.2768257 0.17762095 -0.12074105 -0.26388153
000280 b7 ea 7d 3e 2e 8e 58 be be fe 97 3d 65 22 b3 bc
       0.24796568 -0.21147987 0.07421635 -0.021866987
000290 30 5d 92 be af e0 52 bd 05 bd a9 bd 83 b1 a9 bc
       -0.2858672 -0.051483806 -0.08288006 -0.020714527
0002a0 26 3d 88 be 09 b9 04 be c3 b8 25 bd 3a f1 81 3d
       -0.26609153 -0.1296121 -0.040459406 0.063448384
0002b0 29 c2 11 bc 1b 67 c5 3d 95 4b fc bc bc 6a 04 3e
       -0.008896389 0.096388064 -0.03079776 0.12931341
0002c0 6d 74 d9 3d 88 66 06 3d 05 d6 53 be 76 b0 58 3e
       0.106179096 0.032812625 -0.2068711 0.21161065
0002d0 1d fa 47 3e 9a a0 86 be 9c 02 34 3e bd b1 68 3e
       0.19529004 -0.26294404 0.1757912 0.22724052
0002e0 9d 88 f7 bc 1b d5 94 be 2a 6e 79 3e 84 2d 5c be
       -0.03021651 -0.29068837 0.2435843 -0.21501738
0002f0 14 66 00 3a 74 77 8d be 63 d3 8d be 70 e8 5b 3d
       0.00048980233 -0.27630198 -0.27700338 0.053688467
000300 fd 9b 4e be 15 ae 2e 3e c0 c5 df 3b ed 1e 61 be
       -0.20176692 0.17058595 0.0068289936 -0.21984453
000310 f8 c7 31 3c 0b 64 11 bd 1b 79 ec 3d c8 b1 5c bb
       0.010850899 -0.0354958 0.115465365 -0.0033675302
000320 9f f8 8d be 80 40 3c be 73 ef 2e 3e bd f9 2f 3e
       -0.27728745 -0.1838398 0.1708353 0.17185111
000330 f1 da 98 3e 76 15 d6 3d 1c 13 77 3e 9b 67 35 be
       0.2985454 0.10453312 0.24128383 -0.17715304
000340 69 45 62 3e 4c ea 85 be ae b2 2a 3e dc 9a 5a 3e
       0.2209679 -0.26155317 0.16669723 0.21348137
000350 14 39 ef bd a4 d8 8d 3d a3 ea 01 3e 5b 74 e1 bd
       -0.11680809 0.069260865 0.12687163 -0.11008521
000360 62 5d f9 bd 50 14 5e 3b 4c cd 18 be 97 ef 5d 3e
       -0.121760145 0.003388662 -0.14922065 0.21673428
000370 c7 ef 99 be e5 c5 99 be 95 cb 00 3e 77 a9 ab 3d
       -0.30065748 -0.30033794 0.1257766 0.08381932
000380 36 90 22 be e0 d7 5e 3e de 66 ff bd 81 80 80 3d
       -0.15875325 0.21762037 -0.12470792 0.0627451
000390 8f 76 63 3e 66 51 84 be f1 e0 36 bd 3f a6 6e 3e
       0.22213195 -0.25843352 -0.044648115 0.23305605
0003a0 08 0c f9 3d d0 cd 1a 3e 5a 49 50 be d9 94 c8 bd
       0.12160498 0.15117574 -0.20340481 -0.097940154
0003b0 2a 18 92 3e e2 93 d2 bd 7f 32 8c 3e 36 dc 03 bd
       0.2853406 -0.10282113 0.27382275 -0.03219243
0003c0 06 20 5f bd 5e 36 8d 3e 68 b0 39 be 33 8f 66 be
       -0.0544739 0.2758054 -0.181337 -0.22515564
0003d0 80 15 b4 3d f5 8f 3d be b7 b0 6a 3e 35 41 86 3e
       0.08793163 -0.18511946 0.22918974 0.26221624
0003e0 a4 a8 4f be 84 75 bb bd 1b c0 61 be a7 a1 46 3d
       -0.20279175 -0.09153274 -0.22045939 0.048494007
0003f0 89 2b 80 3e 75 d2 3e 3d 08 2c 14 be 42 26 33 3e
       0.25033215 0.046587426 -0.14469922 0.17495063

critic_encoder.0.bias f4 [128]
000000 6e a1 35 3e d0 3f 3f bd f1 93 41 be ae 7a 73 bd
       0.17737362 -0.046691716 -0.18904091 -0.05944317
000010 34 6b 26 be 0f 19 84 be 05 af 71 3e 48 a2 ec 3d
       -0.16251832 -0.25800368 0.23601921 0.1155439
000020 65 5c ad bd be 4e 82 be 26 0e f9 bd 43 ad 8a be
       -0.084648885 -0.254507 -0.12160902 -0.27085313
000030 17 e1 7f bd bd 76 6e 3e 09 53 83 3e 9f 5c f1 3d
       -0.06247052 0.23287483 0.25649288 0.11785244
000040 88 cc 3b 3e 02 cf 4c be 52 a1 4d be d2 60 8e 3e
       0.18339741 -0.20000842 -0.2008107 0.27808243
000050 d2 21 62 3e 5d 49 0a 3e 0f fb 2a 3e 5d 1c 20 3e
       0.22083214 0.13504548 0.16697334 0.1563582
000060 83 80 d3 3d 09 53 29 3e 39 c0 ea 3d f0 19 40 3e
       0.10327246 0.16535582 0.11462445 0.18759894
000070 72 a5 ca bd 9c ae 43 bd ae c9 16 be 27 f5 81 be
       -0.098948374 -0.047773942 -0.14725372 -0.2538235
000080 b7 6b d8 bd 03 97 87 be 9d 42 bf 3c ef de 1d 3e
       -0.1056742 -0.264824 0.023347193 0.15417074
000090 3d 82 8a be bd af 25 be 77 f3 44 3e 58 0e 60 3e
       -0.2705249 -0.1618032 0.192335 0.21880472
0000a0 0e d1 a0 3b 96 d6 cc 3d 69 99 90 3e 43 c2 0b be
       0.0049077338 0.100018665 0.28242043 -0.13648324
0000b0 48 5f bd bd 31 dd 81 be 89 25 75 be 77 51 89 3d
       -0.09246689 -0.25364068 -0.239401 0.06704991
0000c0 40 a1 11 be 2d 3f 76 3d 66 44 2d be e5 05 91 bc
       -0.14221668 0.060118843 -0.16920623 -0.017703006
0000d0 40 10 e2 bc cb 90 99 bc c7 07 8c 3d c1 ee 66 bd
       -0.02759564 -0.0187458 0.06837421 -0.056380037
0000e0 42 28 c6 3d ad 6d 20 be 5c a2 8f 3e 20 10 9a be
       0.09675647 -0.15666838 0.28053558 -0.30090427
0000f0 4e fb 81 bd fe b0 07 3c ad 6f ef 3d 3e 1d d9 bd
       -0.06346761 0.008281944 0.11691222 -0.10601281
000100 1b 88 3a be cb 3a 0f 3e 67 5b 8a 3e 87 5c 63 3d
       -0.18215983 0.13987271 0.2702286 0.055508163
000110 66 7e 9c 3e 3a f9 11 3e 59 85 2a 3e d8 13 77 bd
       0.30565184 0.14255229 0.1665243 -0.06032166
000120 55 2a 46 3e fa 6c 01 bd 96 46 1e 3e 35 82 18 3e
       0.19352086 -0.03159807 0.15456614 0.1489342
000130 14 16 e4 3d 7d ce 86 3e f6 18 82 ba db 31 4c be
       0.111370236 0.26329413 -0.0009925652 -0.19940893
000140 ba b0 01 be 9d 38 0a 3e 0d b1 d9 bc a9 3e 12 bd
       -0.12665072 0.13498159 -0.026573682 -0.03570429
000150 64 c6 47 bd 1b 72 6a be fd 11 96 3e 0c 36 93 be
       -0.048773184 -0.2289509 0.293106 -0.28752172
000160 ee 61 8f 3e 90 94 13 bd fe 8c 99 bd c5 6e 21 3e
       0.28004402 -0.036030352 -0.07497595 0.15764911
000170 e6 00 a9 bd 31 e0 1a 3e 5d 2c 7b be 5b 83 1a bd
       -0.082521245 0.15124585 -0.24528642 -0.037722927
000180 94 3e 4e bd 02 13 7d 3d 79 3b e0 bd fe 6e a9 bd
       -0.050352648 0.061785705 -0.109488435 -0.08273123
000190 ba 7e 62 3e a3 40 ce 3d ae 27 6c be 6f 6f 84 be
       0.22118655 0.10070922 -0.23062012 -0.25866267
0001a0 46 85 13 be b5 a3 1e be 86 11 d6 3d c3 8a 5f be
       -0.14406309 -0.15492137 0.10452561 -0.21830277
0001b0 bd 9e 93 3e be b8 ca bd 7d e4 4c be 0b 2b ff 3d
       0.28832045 -0.09898518 -0.20009036 0.12459382
0001c0 65 4c 33 be 60 76 80 3e fb 02 91 3e 17 dc 75 be
       -0.17509611 0.25090313 0.28322586 -0.24009739
0001d0 19 ab 74 be 91 11 0f be 29 5a 56 3e b8 78 92 be
       -0.23893394 -0.13971545 0.20932831 -0.28607726
0001e0 f0 ef 6a be e8 63 91 be 32 e0 10 be 64 8c c2 bd
       -0.22943091 -0.28396535 -0.14148024 -0.09499434
0001f0 72 04 76 3e c5 4b 09 3e 22 be 8e 3e 21 db d1 3d
       0.24025133 0.1340781 0.27879435 0.10246874

critic_encoder.2.weight f4 [128, 128]
000000 1f 5a 94 bd c0 c1 bd bc 82 c7 8b bc 30 64 9f bd
       -0.07243752 -0.023163676 -0.017062906 -0.07782781
000010 49 7a 8d 3d b9 5d fe 3c 7e f2 34 bc 76 ae ac 3d
       0.0690809 0.03105055 -0.011044143 0.08431713
000020 e3 88 36 bd 9f 7e 7d bd f4 2a 61 3b 0f e1 b8 bd
       -0.04456414 -0.061888333 0.0034357877 -0.090273015
000030 b1 73 83 3c 74 34 a7 bd ae 13 e5 bc 5f e1 fd bb
       0.016046377 -0.081643015 -0.027963486 -0.0077478136
000040 cd ec 3c 3d cb 25 cd 3b 91 81 34 3c f8 c7 67 bc
       0.04612427 0.006260609 0.011017219 -0.014146797
000050 7c c8 02 3d 98 9c 4b 3d 6e ea b1 3c 2b 76 5d 3d
       0.031929478 0.049709886 0.02171823 0.054067772
000060 80 1c 8e 3b e2 ca 70 bd 81 a1 2f 3d b8 fd 23 3d
       0.0043368936 -0.058787234 0.04287863 0.040036887
000070 c7 75 25 bd 71 0b 21 3d 01 d9 d5 bc 0e b9 62 bd
       -0.040395524 0.039317552 -0.026104452 -0.055352263
000080 17 3d aa 3d a6 a7 a8 bb 6f 3d 10 3d aa 91 39 3b
       0.08312433 -0.0051469384 0.035214838 0.0028315582
000090 97 24 16 bc ef 69 96 3d be 05 8e 3d 08 d6 6a 3d
       -0.009163997 0.07344424 0.06934689 0.057333022
0000a0 90 64 05 3d c1 fd b6 bd 29 86 cd 3b f2 a3 9a 38
       0.032566607 -0.089351185 0.0062720967 7.3738294e-05
0000b0 a4 f7 a6 bd 44 56 35 3d 9d ee f4 39 29 2b 4d 3d
       -0.081527025 0.044271722 0.00046717087 0.05008999
0000c0 1c 95 4a 3d 28 15 8d 3d a7 0b 29 bc bb b7 77 3d
       0.049458608 0.06888801 -0.01031772 0.060477953
0000d0 74 54 72 3d 56 54 a1 3c 72 ff ec bb 71 7e 12 bc
       0.059162572 0.019693535 -0.0072326 -0.008941279
0000e0 e2 13 fe bc f6 12 9f bd 6e 0c af bd ff 49 17 bd
       -0.03101534 -0.077672884 -0.08547293 -0.036935803
0000f0 96 c3 a1 3d 29 d7 29 bc 40 46 b2 bd d7 af 27 3d
       0.07898633 -0.01036624 -0.087048054 0.04093918
000100 84 e3 4f 3d fb d1 41 3d 9c 0a b6 3c 83 f3 83 bd
       0.050754085 0.047319394 0.022221856 -0.064429305
000110 e2 b3 99 3d cb 47 3a bc bb a4 82 3d cd fe 4f 3d
       0.07505013 -0.011369656 0.06379076 0.050780106
000120 b7 60 ba bd bc 28 64 3d 62 ec 61 3d b5 68 6d bd
       -0.09100478 0.05570291 0.055157073 -0.057961185
000130 a1 bf 6f bd fd 66 11 bc fd 5f 1a bd 70 d9 96 3d
       -0.05853236 -0.008874652 -0.037689198 0.07365692
000140 1c 8c a2 bd 75 8e 93 3d 81 25 a6 bd 5c 4d 35 bc
       -0.0793688 0.07204906 -0.08112622 -0.011065807
000150 db 21 46 3d 28 33 0c 3d c8 11 ab bd d3 c5 1d bd
       0.04837213 0.034228474 -0.08353001 -0.038518738
000160 7b a7 86 bd 0a 53 46 bd 28 d0 96 3d 9e 05 92 bd
       -0.06574913 -0.048419036 0.073639214 -0.07129978
000170 85 7c 0b bd c7 80 7b 3d cf ce 8a 3c 93 88 bf 3c
       -0.034054298 0.06140211 0.016944317 0.023380553
000180 7a 1d 5c 3d cf 48 46 3d dc 5e 8d bc eb b6 1a 3d
       0.05373905 0.04840928 -0.017257147 0.0377721
000190 04 f9 fd bb 57 ff 65 bd 6f 28 04 3d 2b 8c 31 bc
       -0.0077506322 -0.056151714 0.032265123 -0.010836641
0001a0 36 40 28 bc 12 7d a0 3d 37 bb 15 bd bc a8 cc bc
       -0.010269215 0.07836355 -0.036555495 -0.024982803
0001b0 72 1c 5b bd 6a 0a 49 bb 89 ca 5c bd 61 e1 2f bc
       -0.053493924 -0.0030676373 -0.05390409 -0.010734887
0001c0 df 14 b7 3c 55 23 6b bd e2 1d 2b 3c a8 57 04 3d
       0.02234882 -0.057406742 0.010444136 0.032310158
0001d0 91 a1 52 3b 96 51 36 bc d3 1b 6a bd 26 69 40 bd
       0.0032139758 -0.01112785 -0.05715544 -0.046975277
0001e0 0d cb 73 bd 5d 9c 38 3d b0 59 0e bd d9 f3 af bc
       -0.059519816 0.045070995 -0.0347535 -0.02147858
0001f0 c2 36 40 3d da cf 4f 3d 2c 98 6e bc a7 3f 8f 3d
       0.04692722 0.050735332 -0.014562648 0.069945626
000200 0a ff 94 bd 42 21 fa 3b 22 3b b1 bc 6a 57 ee bc
       -0.07275207 0.007633359 -0.021634642 -0.029094417
000210 d7 17 48 3d ee 39 87 3d 84 d0 69 bc d6 1b ea bb
       0.04885086 0.06602846 -0.014270905 -0.0071444316
000220 e6 0b a7 bb 13 3b 3d 3c 6b 5b 2b bd d4 40 12 bd
       -0.005097854 0.011549729 -0.04183523 -0.035706356
000230 6d 63 4d bd 02 17 8c bd 5b 63 b9 bd 22 92 9d 3b
       -0.050143648 -0.06840326 -0.09052154 0.00480868
000240 2f 05 7b bd 74 ef 4a 3d 9d a3 b7 bc 7f 1e 40 3d
       -0.06128424 0.049544767 -0.022416884 0.046904083
000250 d2 1b 08 bd 7f e3 8f bc 6a 09 bc bd 8f e5 01 bd
       -0.033229657 -0.017564533 -0.09181483 -0.031713065
000260 ef 45 e3 3c d8 a4 27 3d 9e d0 66 3c e5 24 99 3d
       0.027743308 0.04092869 0.014087824 0.0747774
000270 bc 70 e5 bc 49 04 0b bd ef af a0 3c d2 2d 0b bd
       -0.028007858 -0.033939634 0.019615142 -0.033979245
000280 c7 03 b2 3c b4 f0 ef bb 94 a7 f8 3b e1 a6 95 bd
       0.021730317 -0.007322395 0.0075883362 -0.0730722
000290 4d 5f aa bc 34 f0 4a bd 8f 59 c4 bc ce a3 9e 3d
       -0.020797396 -0.04954548 -0.023968486 0.07746087
0002a0 22 05 8f bc 22 d0 70 3d ba d7 72 bd ee 14 98 bd
       -0.017458502 0.05879224 -0.059287764 -0.07425867
0002b0 39 17 32 ba e9 15 9b bd 7c 97 93 3d 0d 84 78 3d
       -0.00067936216 -0.075725384 0.07206628 0.06067281
0002c0 c8 72 df 3b 21 96 87 3d 86 1f af bd c1 b9 ad 3d
       0.006819103 0.06620432 -0.085509345 0.08482695
0002d0 91 fe 15 3d 06 55 81 bd 55 2d 85 bd 7b 80 a1 3d
       0.036619727 -0.06315045 -0.06502787 0.07885834
0002e0 69 4c 8e 3d 86 66 a0 bd 70 68 77 bd 5b 8f f9 3c
       0.06948168 -0.07832055 -0.060402334 0.030463865
0002f0 b0 94 a2 3d 11 b7 41 bc e1 eb 9c 3b b4 8a 9c bd
       0.07938516 -0.011823432 0.004788861 -0.07643643
000300 3a 02 0c bd 42 8e 14 bc 2b c8 23 bd 20 7c a6 bb
       -0.03418181 -0.00906712 -0.039985817 -0.005080715
000310 5d a7 0f 3d a5 ee c8 3c e3 67 88 3d e3 d6 9f 3d
       0.03507172 0.024527857 0.0666044 0.07804658
000320 ce d0 ad 3d 45 63 ac 3d cc 5a 72 bd 08 d6 97 bd
       0.08487092 0.08417372 -0.059168622 -0.0741387
000330 86 5b 55 3d 89 1e 10 bd d7 9f 9c bd 85 0f 28 3c
       0.052089237 -0.03518537 -0.076476745 0.010257606
000340 a5 d6 01 bd fa bc 5b bd e3 17 1e bd e8 a3 b7 bd
       -0.03169884 -0.05364702 -0.038597 -0.089668095
000350 7c 68 7d bd 6b e8 3b bd 8b fc de 3c ee 57 34 3d
       -0.061867222 -0.045875948 0.027220031 0.04402917
000360 97 f0 a0 bd 5c 05 0a 3d e2 5c 0b 3d a5 86 28 bd
       -0.07858389 0.033696517 0.034024127 -0.041144032
000370 ab a0 46 bd d7 e9 81 3d 85 55 5f 3d cf c4 9e bd
       -0.04849307 0.063434295 0.054524917 -0.07752382
000380 12 b6 b5 3c d0 c4 34 3b 56 8d c3 bc b0 8c a9 bd
       0.022181544 0.002758313 -0.023871105 -0.08278787
000390 6b 61 6d bd cd e2 01 3d 02 55 6d 3d 30 43 4b bd
       -0.057954233 0.031710435 0.057942398 -0.049624622
0003a0 59 e5 57 3d 44 c7 8e 3d 56 ac 91 bd 4e f5 28 3d
       0.052708957 0.06971601 -0.071129486 0.041249566
0003b0 4f 37 92 3d b0 14 a8 3c 1a 7e ed 3c 8a 75 bb 3d
       0.071394555 0.020517677 0.028990794 0.09153278
0003c0 50 47 d9 bc 94 a2 e4 bc a1 1a bf 3d 85 2e 8f 3d
       -0.026523262 -0.027909555 0.09331251 0.06991295
0003d0 4d d1 42 3d e0 a1 f5 3c e3 e9 72 3d 90 a6 6b 3d
       0.047562886 0.029984415 0.059305083 0.057531893
0003e0 d8 56 74 3d 4e 39 83 3d 99 1c ae bd a5 61 42 bd
       0.059653133 0.064074144 -0.08501548 -0.047456402
0003f0 ac 00 3f bd 79 18 96 3b 0a a7 e0 bc b1 b0 a5 bd
       -0.0466315 0.004580554 -0.0274234 -0.08090342

critic_encoder.2.bias f4 [128]
000000 4d e5 ca bc 75 43 be 3b 99 b6 06 3d cd 6b a2 3d
       -0.024767542 0.0058063813 0.032888982 0.079307176
000010 a7 ff c0 3c 8c b3 2b 3d e1 d5 b4 bc 2b 68 18 3d
       0.023559405 0.041919276 -0.022074642 0.037208717
000020 74 b1 5f 3d fb d1 11 3d d9 d7 4c 3d a3 b5 65 3d
       0.054612592 0.035600644 0.050010536 0.056081425
000030 f2 15 b1 bd fd cb 03 3d 94 e3 48 3d 1c 3d aa 3c
       -0.08646764 0.03217696 0.04904516 0.020781092
000040 69 4c 9a 3d a6 be 2e bd 73 99 ce bc e5 d8 72 bd
       0.07534105 -0.042662285 -0.025219655 -0.059288878
000050 1a 3d 68 3d 6d fa ad bd 91 d8 04 bd 1c 94 08 3c
       0.056698896 -0.084950306 -0.032433096 0.008336093
000060 9a 9c 6a bc 4d c1 b8 bb 3f a1 ce bc f9 b5 00 bc
       -0.014319563 -0.0056382776 -0.025223373 -0.007855886
000070 81 c4 75 3c f1 7d 77 bc ee 48 bf bd 92 32 4d 3d
       0.015000463 -0.01510571 -0.09340082 0.050097056
000080 d6 2b 52 3d a7 6b 77 3d 7b 9c a1 3d 04 b1 89 bd
       0.051311336 0.0604054 0.078911744 -0.06723216
000090 e4 3c 1c bd 46 44 55 3d cb 10 40 bd 2e cb c1 3c
       -0.038144007 0.052067064 -0.046891015 0.023656454
0000a0 35 15 04 bd 0e 10 ff 3c aa b3 74 3d 9f 82 51 bd
       -0.032246787 0.031135585 0.059741654 -0.05114996
0000b0 62 74 3c bd 42 6a 3b bd 18 4c b5 3d 45 f1 6d bd
       -0.04600943 -0.045755632 0.08852404 -0.05809142
0000c0 50 a1 da bc fd 5e 3e 3d b1 fb e9 bc 23 e6 80 3d
       -0.026688248 0.046477307 -0.028562399 0.06293895
0000d0 72 32 3b bc 8f e4 ba bc 6c ab 8b 3c e5 c8 3d bd
       -0.011425601 -0.022814063 0.017049514 -0.046334166
0000e0 f5 5a ef 3c 02 f0 78 3d e4 5c 6c 3d a3 93 c6 bb
       0.029218176 0.060775764 0.057705775 -0.00606008
0000f0 fe 30 d6 bb fc d8 72 bd 34 9d 39 bd 3f 24 29 3d
       -0.006536602 -0.059288964 -0.045315936 0.041294333
000100 06 ce 03 3d 17 aa 97 ba ae 25 db 3a 94 e0 71 3d
       0.0321789 -0.0011571076 0.0016719603 0.059052065
000110 54 dd 35 3d cb 93 b9 3c ba a3 2f 3c bf 20 6b bd
       0.044400528 0.022653481 0.010720188 -0.057404276
000120 d9 73 bb 3d b9 8b ac 3c fe c8 34 bd 7d 6d 99 bd
       0.091529556 0.021062719 -0.044136994 -0.07491586
000130 ea c2 88 3d 92 8f 66 bd 62 ca a6 bc 78 d8 c8 3c
       0.06677802 -0.056289263 -0.020360176 0.024517283
000140 a8 66 22 bd f4 a8 8a 3d c7 9c a9 3d 9b 45 1a bd
       -0.039648682 0.067705065 0.08281856 -0.037664037
000150 67 8c 64 bc b1 79 46 3d f4 15 da 3c 83 4e 0b bd
       -0.01394949 0.048455898 0.026621796 -0.03401042
000160 85 7f 8a bd f2 86 dd bb d3 46 10 bd dd 9b a7 bd
       -0.06762604 -0.0067604715 -0.035223793 -0.081840254
000170 be ca e9 3a b6 eb a1 3d 40 78 b6 3d 1e 18 10 3d
       0.0017836911 0.079062864 0.089096546 0.03517925
000180 89 ee 23 bd e3 78 52 bd 0f 59 56 bd e5 00 67 bd
       -0.040022407 -0.051384818 -0.052331027 -0.056397337
000190 a1 d7 63 bd 2e 87 6d 3d 7c 13 62 ba 39 92 e1 bc
       -0.05562556 0.057990246 -0.0008624119 -0.027535545
0001a0 c6 dd a2 3d 8a fd bd bd 32 46 8e bd af 48 39 bd
       0.07952456 -0.09276874 -0.069469824 -0.045235332
0001b0 4a 3a 29 3c 77 33 86 bd 3f cf bb 3d eb 7c 0b bc
       0.010328839 -0.06552785 0.091703884 -0.0085136695
0001c0 41 99 99 bd d4 14 92 bd f5 88 32 3c 15 04 26 bd
       -0.07499934 -0.07132879 0.010896911 -0.040531237
0001d0 11 e2 85 3d ff 64 f6 3c dc 8e 47 bc 57 05 2c bd
       0.06537259 0.030077456 -0.012180056 -0.04199728
0001e0 05 c6 16 3d a2 60 44 bd 94 3c c2 3d 05 5d 7a bd
       0.03680994 -0.04794372 0.094842106 -0.061123867
0001f0 1f aa 81 bd d6 14 6f bd ae ca 37 bc 0b 11 86 3d
       -0.06331276 -0.05836948 -0.011217756 0.065462194
