proly/ml/model_battle.pt (torch, 150530 bytes, 11 tensors)

actor_encoder.0.weight f4 [128, 11]
-0.17906466 -0.2180534 -0.10549486 0.0758796 0.0844967 -0.18964325 0.31379738 -0.13324405
0.006723897 0.268953 -0.1801971 -0.2888754 0.13018249 -0.021226447 -0.12480394 -0.025926061
0.0011951758 -0.05637353 0.20353447 -0.17241473 0.15186183 -0.080963865 0.12120493 0.3612453
-0.13524537 -0.26714513 0.025497196 0.27985165 -0.33798963 0.045765046 0.06043591 -0.10820498
-0.024220949 0.18360515 0.37569436 -0.037587993 -0.13994291 0.018688677 -0.039635647 -0.03916303
-0.1142889 0.008663099 0.007369308 0.15747076 0.2693262 0.021218996 0.092155434 -0.040063918
0.15767229 -0.08140934 0.04399584 -0.14931597 -0.17709665 -0.19004242 0.06318336 0.21445726
0.20542304 -0.272075 0.008080455 -0.028193846 0.11774745 0.05693767 0.2908556 -0.16903846
-0.27771837 -0.16268855 0.12056744 -0.30745023 -0.19927476 -0.05982012 -0.31151384 -0.15387918
-0.217056 0.13195796 -0.21855594 -0.05363969 -0.2434194 0.11834618 -0.21960054 0.07166678
0.26631668 0.17314069 -0.106211826 0.09659041 -0.20671877 0.12524176 0.11156556 -0.24213615
-0.1682385 0.11025179 0.17785348 0.023919165 -0.24306393 0.28078306 0.15571585 0.22517386
-0.23615873 -0.044673745 0.082759306 -0.17858168 0.18338917 -0.22832875 0.02259723 -0.26179817
0.0013843683 -0.22093016 -0.17055602 -0.103609905 -0.14754686 0.18117769 0.030271832 0.37460494
0.27609485 -0.32118613 0.14724344 -0.3144897 0.22615822 0.20824787 -0.016159078 -0.24343131
-0.25747466 0.2245733 -0.01595846 -0.18749584 -0.27055302 0.25558734 0.1958175 -0.23788728
-0.05200585 -0.13907723 0.05480451 0.040141452 -0.089943916 0.30048966 0.0118216025 0.07790086
0.053630292 -0.11309744 -0.077661015 0.11923149 0.031014256 0.12196808 -0.070131525 -0.30157724
-0.14045039 0.16420281 0.21233405 -0.12713158 0.13983645 -0.32439023 -0.110832505 0.048301794
0.14279877 -0.16860455 0.047476072 -0.23556326 -0.06763804 0.25286356 -0.17569873 0.1596653
0.0958286 -0.2168506 0.10346753 -0.21229263 -0.08486014 -0.18151133 0.27590507 0.3292029
-0.2551836 -0.22296695 -0.31240225 0.056631897 0.3207649 -0.11908335 -0.065070406 0.194044
0.058292385 0.034896128 -0.2161892 0.08745522 0.22364654 -0.27004048 -0.09950594 0.20509838
0.10680957 0.028579297 -0.030551005 0.18181354 0.1260635 0.104720645 -0.18155044 -0.22941847
-0.30752593 0.050278004 -0.1309937 -0.22471309 -0.08997612 0.21341893 0.2693511 -0.28085572
0.32266733 -0.06423314 -0.23816016 -0.15973912 0.039398544 0.15306373 0.014377691 -0.040654723
0.02556403 -0.09223121 0.18929684 0.13884826 0.10738933 -0.25243405 -0.11199659 0.069969736
-0.007621448 -0.13236274 -0.1668153 -0.05424616 0.22170335 0.24623346 0.31054807 0.18769003
-0.0010206936 0.2730619 -0.016923716 -0.06513339 -0.20393497 -0.15344867 -0.20646052 -0.07504395
-0.061874952 -0.046378706 -0.0133220265 0.11204735 -0.11289005 -0.26802936 -0.07869376 -0.07944328
0.008858494 -0.021542678 0.15183929 0.19358547 -0.13500577 -0.32851365 0.122258246 -0.16922133
0.13768294 0.17813246 -0.18748304 -0.22764044 -0.15939188 -0.1232391 0.26936808 -0.094311
00000000: ba5c 37be 6449 5fbe b00d d8bd c466 9b3d
00000010: 9b0c ad3d d731 42be 0daa a03e 2171 08be
00000020: 2354 dc3b 35b4 893e 9785 38be 7ae7 93be
00000030: 8f4e 053e 16e3 adbc 3599 ffbd e462 d4bc
00000040: 72a7 9c3a eee7 66bd 576b 503e 7d8d 30be
00000050: ab81 1b3e 62d0 a5bd 4a3a f83d 25f5 b83e
00000060: c37d 0abe 3fc7 88be 7fdf d03c b748 8f3e
00000070: fa0c adbe 2174 3b3d a58b 773d 939a ddbd
00000080: 036b c6bc fd02 3c3e 035b c03e def5 19bd
00000090: 324d 0fbe ff18 993c fd58 22bd 6a69 20bd
000000a0: 4c10 eabd acef 0d3c 3c7a f13b 0440 213e
000000b0: 20e5 893e 76d3 ad3c fdbb bc3d 101a 24bd
000000c0: d874 213e f1b9 a6bd fb34 343d 49e6 18be
000000d0: d358 35be 7b9a 42be 4766 813d af9a 5b3e
000000e0: 6b5a 523e 6a4d 8bbe e263 043c c8f6 e6bc
000000f0: 9325 f13d 7937 693d 06eb 943e 6b18 2dbe
00000100: 1a31 8ebe d497 26be 10ec f63d 1e6a 9dbe
00000110: af0e 4cbe f105 75bd be7e 9fbe 8192 1dbe
00000120: ee43 5ebe fd1f 073e 21cd 5fbe 4bb5 5bbd
00000130: ef42 79be 7b5f f23d f7de 60be 08c6 923d
00000140: a95a 883e cb4b 313e 9685 d9bd 31d1 c53d
00000150: 16ae 53be 603f 003e 7c7c e43d 8af2 77be
00000160: b746 2cbe b1cb e13d 391f 363e 20f2 c33c
00000170: c0e5 78be ccc2 8f3e fa73 1f3e fa93 663e
00000180: 98d3 71be d1fb 36bd b67d a93d 1ede 36be
00000190: 5fca 3b3e 03cf 69be d31d b93c 690a 86be
000001a0: b173 b53a 843b 62be 3da6 2ebe 6e31 d4bd
000001b0: 8616 17be a586 393e a2fc f73c 38cc bf3e
000001c0: 4e5c 8d3e 8272 a4be fcc6 163e cb04 a1be
000001d0: 0596 673e ee3e 553e 0b60 84bc 0f46 79be
000001e0: b8d3 83be 8bf6 653e 51bb 82bc e9fe 3fbe
000001f0: ed85 8abe 58dc 823e 6284 483e b998 73be
00000200: 1604 55bd 436a 0ebe b27a 603d 5d6b 243d
00000210: 8434 b8bd c8d9 993e 65af 413c 7c8a 9f3d
00000220: 70ab 5b3d a19f e7bd bd0c 9fbd a42f f43d
00000230: 9c11 fe3c 67ca f93d 1ea1 8fbd 5568 9abe
00000240: 3ad2 0fbe c824 283e 196e 593e c82e 02be
00000250: 4931 0f3e 7a16 a6be 27fc e2bd 1ad8 453d
00000260: d739 123e aca6 2cbe 4576 423d 7f37 71be
00000270: d085 8abd 5577 813e 5eea 33be 4d7f 233e
00000280: c941 c43d 150e 5ebe c9e6 d33d 3d63 59be
00000290: 27cb adbd 1bde 39be 6e43 8d3e 488d a83e
000002a0: 6da7 82be 7351 64be 30f3 9fbe d9f6 673d
000002b0: 4c3b a43e f9e1 f3bd a243 85bd 78b3 463e
000002c0: ffc3 6e3d 3eef 0e3d b460 5dbe b91b b33d
000002d0: 9903 653e bf42 8abe c5c9 cbbd 4f05 523e
000002e0: fabe da3d 211f ea3c 1a46 fabc 542d 3a3e
000002f0: ca16 013e c777 d63d 5ce8 39be adec 6abe
00000300: 0a74 9dbe 4ff0 4d3d 3623 06be 301b 66be
00000310: 6645 b8bd 7e8a 5a3e 63e8 893e 52cc 8fbe
00000320: a734 a53e aa8c 83bd 42e0 73be a792 23be
00000330: 5e60 213d bdbc 1c3e 6890 6b3c 9185 26bd
00000340: a86b d13c b7e3 bcbd 08d7 413e 3d2e 0e3e
00000350: f0ee db3d 093f 81be 785e e5bd 4b4c 8f3d
00000360: 57bd f9bb 198a 07be a1d1 2abe 3931 5ebd
00000370: 3406 633e a024 7c3e 2800 9f3e d131 403e
00000380: cbc8 85ba c5ce 8b3e 9ba3 8abc a864 85bd
00000390: 54d4 50be a621 1dbe 636a 53be a4b0 99bd
000003a0: 9770 7dbd 99f7 3dbd a144 5abc 1579 e53d
000003b0: e632 e7bd 253b 89be 322a a1bd 29b3 a2bd
000003c0: 3823 113c 457a b0bc c27b 1b3e 453b 463e
000003d0: f43e 0abe f132 a8be 8862 fa3d 5b48 2dbe
000003e0: c2fc 0c3e 5b68 363e 8efb 3fbe 931a 69be
000003f0: a037 23be c864 fcbd 9dea 893e 2026 c1bd

actor_encoder.0.bias f4 [128]
0.06955947 0.097085364 -0.08961479 0.22816241 0.23179181 -0.04392715 0.27757087 -0.2798115
-0.013648692 -0.008255527 0.055570878 -0.10243466 0.11644896 -0.12169255 0.17282298 -0.0068771103
-0.30012223 -0.0616894 0.014239984 -0.118069835 -0.070621 -0.07968959 -0.08668185 -0.22719519
-0.090567276 -0.26695576 -0.104313135 0.21004397 -0.0143912295 0.091843404 0.13630725 0.21780764
0.11978562 -0.11374132 -0.2809797 -0.04584362 0.059717588 0.002863571 -0.22751787 -0.18741052
0.013822667 -0.23746106 -0.05157168 0.27628934 0.18270005 0.31144136 -0.008876155 -0.15836063
-0.15167323 0.062576026 0.0037444942 -0.23528528 -0.14173378 -0.00049202365 0.30806273 0.06847942
0.26252192 0.10115594 -0.11247209 0.0483842 0.21397725 0.10448671 -0.16726704 -0.026260713
-0.18799773 -0.0013142457 0.076843634 0.33378243 0.1701317 -0.1192971 0.18436944 0.21117187
0.27520683 -0.0063446537 -0.07404037 0.04206557 -0.26515126 0.023015274 0.0016729804 -0.12097591
-0.051599935 0.2968535 -0.10939167 -0.29977372 -0.2574625 -0.16445592 0.025665108 0.2198508
-0.21345341 0.28537157 0.014101474 -0.29703334 0.004195237 0.2899415 0.013018549 0.27781048
-0.07047255 -0.14273375 0.04893567 0.13368002 -0.21079156 -0.28755268 -0.23196618 0.13175043
0.20528655 0.07611343 0.17202859 0.24863529 -0.27444082 -0.14405662 0.14715663 -0.113409504
0.11333377 0.06960077 0.07771277 0.2640514 0.26553708 -0.15087156 -0.030982196 0.035378285
0.1921784 -0.29356822 0.043419126 0.1735634 0.20935947 0.14286643 -0.053906184 0.27498725
00000000: 3275 8e3d b1d4 c63d f687 b7bd 68a3 693e
00000010: d55a 6d3e f5ec 33bd c51d 8e3e 7443 8fbe
00000020: c39e 5fbc 3142 07bc 4a9e 633d 43c9 d1bd
00000030: cb7c ee3d f239 f9bd 82f8 303e 6259 e1bb
00000040: 9fa9 99be 06ae 7cbd d24e 693c 99ce f1bd
00000050: bea1 90bd 4c34 a3bd 4186 b1bd dba5 68be
00000060: 567b b9bd 6dae 88be 20a2 d5bd c415 573e
00000070: 31c9 6bbc 6518 bc3d 2194 0b3e f708 5f3e
00000080: 2a52 f53d 36f1 e8bd 92dc 8fbe 85c6 3bbd
00000090: 6e9a 743d c0aa 3b3b 72fa 68be 8be8 3fbe
000000a0: 7878 623c fe28 73be d33c 53bd cc75 8d3e
000000b0: b915 3b3e 3e75 9f3e 4b6d 11bc 4a29 22be
000000c0: 3a50 1bbe dc27 803d 3066 753b a0ee 70be
000000d0: a922 11be 26fb 00ba 66ba 9d3e f03e 8c3d
000000e0: 4669 863e d82a cf3d c457 e6bd 832e 463d
000000f0: da1c 5b3e 21fd d53d 0d48 2bbe b520 d7bc
00000100: 7a82 40be c542 acba 3260 9d3d 88e5 aa3e
00000110: 0137 2e3e 0a52 f4bd 58cb 3c3e 703d 583e
00000120: e9e7 8c3e d0e6 cfbb 7aa2 97bd f24c 2c3d
00000130: e8c1 87be 878a bc3c e847 db3a 38c2 f7bd
00000140: 745a 53bd 2ffd 973e bd08 e0bd f17b 99be
00000150: 20d2 83be 2267 28be a23f d23c 9120 613e
00000160: 8893 5abe 391c 923e de09 673c c114 98be
00000170: 3378 893b 3673 943e c14b 553c 2d3d 8e3e
00000180: ea53 90bd cc28 12be c570 483d 6ae3 083e
00000190: bed9 57be 1b3a 93be 8b88 6dbe 96e9 063e
000001a0: a336 523e 5ce1 9b3d 4328 303e 409a 7e3e
000001b0: 8283 8cbe 9483 13be 3ab0 163e 3e43 e8bd
000001c0: 891b e83d d98a 8e3d df27 9f3d bf31 873e
000001d0: 7af4 873e 137e 1abe 60ce fdbc d2e8 103d
000001e0: 6aca 443e 934e 96be 41d8 313d 9bba 313e
000001f0: 5462 563e 944b 123e bbcc 5cbd 21cb 8c3e

actor_encoder.2.weight f4 [128, 128]
-0.003930932 -0.014964567 -0.0772693 0.037339177 -0.068359256 0.05588923 0.08938421 -0.008408824
0.027396783 -0.011452809 0.06830906 0.028963903 0.0468713 0.00034516794 -0.016872074 -0.07843411
-0.027239658 0.101361305 0.03359431 -0.004017817 0.015500328 0.06581843 0.04232975 -0.011325755
0.0850036 -0.011923685 -0.05775272 0.007159499 0.05610552 0.08348026 0.0066273785 0.025277067
0.10745457 -0.028873725 0.019322902 -0.022284722 -0.03931162 0.08564241 -0.015453281 -0.04344126
0.05386965 0.032078117 -0.04393055 0.045995917 -0.09782354 0.024278067 -0.023079349 0.02403812
0.03771005 -0.051583715 0.09857313 -0.028199174 -0.062462498 -0.0785552 0.06773696 -0.06850835
-0.04205004 0.06693018 -0.08176254 0.08558428 0.023527386 -0.061525922 -0.038966205 0.062117416
0.09556273 0.060421918 -0.060086235 -0.060860205 0.03374799 -0.07223915 0.09722125 0.061524756
-0.02548647 -0.08083581 -0.08281899 0.0051423563 0.0759965 0.0012366564 -0.043483045 0.019375844
-0.086120054 -0.05005456 0.07694257 -0.033988815 -0.023504902 -0.055385478 -0.073586494 0.04262013
-0.083422154 0.027457159 -0.07494998 -0.063331135 -0.07418067 -0.022887757 0.085781656 0.01911175
-0.065571986 -0.103127725 0.0410762 -0.043910876 0.008649785 -0.022439413 -0.072611146 0.021651432
0.011285679 -0.03951447 0.04837119 -0.0015753803 0.042161297 0.09911037 -0.007480389 -0.04391156
0.033535704 -0.082081296 -0.040657103 0.03792505 0.012688826 -0.04511061 0.03997443 -0.005016977
-0.05557245 0.005383179 0.0054659317 0.041839007 -0.041046135 0.0068763196 0.024593769 -0.028731458
0.032107275 0.1135694 0.12740184 0.07895649 -0.09665954 -0.0052391076 -0.13160005 -0.03928704
0.006465635 -0.014898414 0.07736271 0.048753142 0.13244592 -0.022422314 -0.04065919 0.07427763
-0.08922703 0.01154076 -0.014729394 -0.03062192 0.016342418 0.00023369056 0.09344997 0.07976033
0.0010148194 0.034187786 0.04045821 -0.017043542 0.0928942 0.036285207 -0.028796162 -0.094286956
-0.10191485 0.02941784 0.08284127 -0.01096155 0.060027067 -0.14172846 0.08078778 0.05569227
-0.06001776 0.011630805 -0.03259037 -0.028023437 0.06403091 0.08778883 0.006148227 -0.021104338
0.027822712 -0.12459329 -0.14265434 -0.040355053 0.051358514 0.039919633 0.066975795 0.0034478272
0.06000174 0.019552715 -0.029075252 0.08881622 -0.06467751 -0.012754729 0.07995484 -0.028045474
-0.012388147 0.012492103 0.025238615 -0.10138007 0.005977281 -0.043124225 -0.120634496 -0.04449677
0.050703052 -0.06715971 0.069229715 -0.036534496 0.021641029 0.036170196 -0.037146244 0.018804556
-0.061481636 -0.056341697 -0.0870471 0.019857608 0.086163096 -0.013141587 -0.018641645 -0.013030428
0.08867004 0.041157883 -0.016670864 0.020962976 0.042956542 0.026154181 -0.08412015 -0.06512548
-0.03494817 0.07546119 -0.01896321 0.06378385 -0.0046523237 0.04106325 0.028768305 -0.022224173
-0.11162315 -0.03870402 0.019155832 -0.066428944 -0.04122669 -0.008352337 0.07414545 -0.057055444
-0.035593048 -0.007255182 0.0028803346 -0.009513027 -0.038295828 -0.014324457 0.040055495 -0.017282568
-0.11353329 -0.03411196 -0.017300865 0.04833691 -0.0696111 0.105189785 0.045899156 -0.1100118
00000000: 0ccf 80bb f12d 75bc 5e3f 9ebd f7f0 183d
00000010: f0ff 8bbd 1bec 643d 120f b73d 2ac5 09bc
00000020: 386f e03c 90a4 3bbc 9fe5 8b3d b545 ed3c
00000030: 1ffc 3f3d a8f7 b439 4e37 8abc 10a2 a0bd
00000040: b425 dfbc 8496 cf3d 309a 093d e4a7 83bb
00000050: 16f5 7d3c d0cb 863d f661 2d3d a98f 39bc
00000060: 5e16 ae3d 8f5b 43bc 1e8e 6cbd 3b9a ea3b
00000070: e7ce 653d b3f7 aa3d 7b2a d93b da11 cf3c
00000080: 2411 dc3d 9788 ecbc 104b 9e3c 738e b6bc
00000090: 3905 21bd 4a65 af3d c22f 7dbc 76ef 31bd
000000a0: 6ca6 5c3d 5864 033d 85f0 33bd 3766 3c3d
000000b0: b557 c8bd cce2 c63c e710 bdbc 97eb c43c
000000c0: da75 1a3d 7249 53bd b6e0 c93d f401 e7bc
000000d0: add8 7fbd 8ce1 a0bd adb9 8a3d 1b4e 8cbd
000000e0: aa3c 2cbd b112 893d 1e73 a7bd d046 af3d
000000f0: 81bc c03c 9b02 7cbd 079b 1fbd d56e 7e3d
00000100: 65b6 c33d f97c 773d fc1c 76bd 8d48 79bd
00000110: 553b 0a3d 1ff2 93bd ef1b c73d 6201 7c3d
00000120: 00c9 d0bc 3f8d a5bd 019d a9bd 3681 a83b
00000130: 0ea4 9b3d 4e17 a23a 471b 32bd 17ba 9e3c
00000140: b65f b0bd 0306 4dbd 1194 9d3d db37 0bbd
00000150: 5a8d c0bc e2db 62bd 84b4 96bd 7292 2e3d
00000160: 3cd9 aabd d6ed e03c 607f 99bd c1b3 81bd
00000170: 09ec 97bd 1b7f bbbc 4bae af3d 3f90 9c3c
00000180: 9b4a 86bd a134 d3bd 843f 283d e4db 33bd
00000190: d4b7 0d3c dcd2 b7bc 27b5 94bd 585e b13c
000001a0: 92e7 383c edd9 21bd de20 463d fe7c ceba
000001b0: 53b1 2c3d 61fa ca3d 0d1e f5bb 9cdc 33bd
000001c0: bc5c 093d 3d1a a8bd 1088 26bd 4c57 1b3d
000001d0: cbe4 4f3c e7c5 38bd 3abc 233d 7465 a4bb
000001e0: f09f 63bd 6165 b03b 8f1b b33b 615f 2b3d
000001f0: fe1f 28bd c052 e13b df78 c93c 3c5e ebbc
00000200: eb82 033d 1397 e83d a175 023e f1b3 a13d
00000210: 70f5 c5bd d2ac abbb 2ac2 06be 72eb 20bd
00000220: addd d33b 7a18 74bc 5770 9e3d 60b1 473d
00000230: e79f 073e 00af b7bc 408a 26bd df1e 983d
00000240: a9bc b6bd 7515 3d3c 8e53 71bc d2da fabc
00000250: 89e0 853c d50a 7539 b362 bf3d 6259 a33d
00000260: b003 853a 7e08 0c3d 82b7 253d e69e 8bbc
00000270: 503f be3d cc9f 143d eee5 ebbc 8519 c1bd
00000280: bcb8 d0bd affd f03c afa8 a93d 1398 33bc
00000290: f1de 753d 4421 11be 1074 a53d 941d 643d
000002a0: 2fd5 75bd 228f 3e3c 7b7d 05bd 6891 e5bc
000002b0: a322 833d a1ca b33d 1177 c93b 01e3 acbc
000002c0: 75ec e33c c42a ffbd fb13 12be 574b 25bd
000002d0: 4e5d 523d c582 233d 9b2a 893d f1f4 613b
000002e0: 62c4 753d 042d a03c 392f eebc 47e5 b53d
000002f0: a475 84bd 36f9 50bc 5dbf a33d 9fbf e5bc
00000300: a8f7 4abc adab 4c3c 36c1 ce3c 5ba0 cfbd
00000310: 11dd c33b 07a3 30bd 380f f7bd 3f42 36bd
00000320: 01ae 4f3d 088b 89bd 4fc8 8d3d 32a5 15bd
00000330: 8748 b13c 3327 143d a926 18bd 030c 9a3c
00000340: 2bd4 7bbd 8dc6 66bd c045 b2bd 6cac a23c
00000350: 4776 b03d d04f 57bc 5db6 98bc 947d 55bc
00000360: a398 b53d 2b95 283d 5691 88bc 8cba ab3c
00000370: 33f3 2f3d 4b41 d63c 2f47 acbd 8260 85bd
00000380: d025 0fbd 658b 9a3d bc58 9bbc 1ba1 823d
00000390: 8572 98bb f031 283d 82ab eb3c 780f b6bc
000003a0: ae9a e4bd 1b88 1ebd b1ec 9c3c e60b 88bd
000003b0: 51dd 28bd 3ed8 08bc 92d9 973d f8b2 69bd
000003c0: 04ca 11bd e1bc edbb ffc3 3c3b 87dc 1bbc
000003d0: 16dc 1cbd 21b1 6abc 3b11 243d 2c94 8dbc
000003e0: 2484 e8bd fcb8 0bbd 8bba 8dbc ecfc 453d
000003f0: 4490 8ebd be6d d73d c100 3c3d de4d e1bd

actor_encoder.2.bias f4 [128]
0.025853641 0.0010040717 -0.002037877 0.017233457 0.09868925 -0.013140616 -0.065710925 0.021506472
-0.07645222 0.046234116 0.07772565 0.03574846 -0.025950026 0.022194725 0.051440533 0.017046178
-0.06418681 0.015889619 0.053340703 -0.013773015 0.0685048 0.08720595 -0.024313087 0.0008212587
0.07130821 0.020935407 0.063960314 -0.05073607 -0.08572405 0.071495324 -0.012217963 -0.013952599
-0.041425526 -0.05112603 -0.028973188 0.018234579 0.027851788 0.076620355 -0.055314627 0.022355365
0.09926817 -0.050841026 0.06996805 0.017799892 0.057105143 0.023822522 -0.035983954 -0.0031572946
0.057969246 0.070672095 -0.061979678 0.05860021 -0.05096014 -0.0409042 -0.05658772 -0.058523115
-0.044847 0.027126225 0.041472834 -0.058090072 -0.044951864 -0.00055887806 -0.042727172 0.032502595
0.04884525 0.048715085 -0.03172468 -0.045789894 -0.07096349 -0.06041892 0.040273886 -0.059478555
-0.010006867 0.027550457 0.01654848 0.07567642 -0.03893012 -0.017442223 0.012090782 0.06759841
-0.035372887 0.0074684625 0.03300224 0.08069731 0.047821824 0.01066825 0.027826408 0.06700064
-0.025921805 -0.06234511 -0.037556335 0.038800944 0.0805311 -0.0076244227 0.07834625 -0.051650137
-0.05318225 0.08460073 -0.00022472285 0.05014892 0.008318323 0.019219827 -0.03641025 0.033405844
0.105744876 0.091703855 0.09493685 0.072980635 0.020984074 0.026844656 -0.044771932 0.025260333
-0.022147756 0.028387357 -0.009745316 -0.026924763 -0.05254203 0.038669277 -0.0011351171 -0.087336935
0.016953569 0.015154558 0.0057544587 0.020969534 -0.047706828 0.026840515 0.0025502916 0.012002964
00000000: 04cb d33c 0e9b 833a e78d 05bb 2e2d 8d3c
00000010: 971d ca3d bd4b 57bc 7393 86bd 572e b03c
00000020: fb92 9cbd fc5f 3d3d a02e 9f3d fa6c 123d
00000030: 2695 d4bc b6d1 b53c 4fb3 523d 6da4 8b3c
00000040: 6074 83bd f22a 823c c87b 5a3d 36a8 61bc
00000050: 3f4c 8c3d 0899 b23d 3d2c c7bc bd49 573a
00000060: 0a0a 923d bb80 ab3c a0fd 823d a0d0 4fbd
00000070: 1790 afbd 246c 923d da2d 48bc 7199 64bc
00000080: d0ad 29bd 8769 51bd 2e59 edbc af60 953c
00000090: 6f29 e43c 22eb 9c3d 9791 62bd 9922 b73c
000000a0: 1c4d cb3d ae3e 50bd 694b 8f3d 14d1 913c
000000b0: 15e7 693d 7327 c33c e963 13bd 9dea 4ebb
000000c0: 2971 6d3d 88bc 903d 67de 7dbd c606 703d
000000d0: 94bb 50bd 2a8b 27bd 86c8 67bd efb5 6fbd
000000e0: 7db1 37bd d137 de3c 6bdf 293d dbef 6dbd
000000f0: 721f 38bd ac81 12ba b002 2fbd 7121 053d
00000100: f511 483d 7889 473d bdf1 01bd 2f8e 3bbd
00000110: 4e55 91bd d479 77bd 3bf6 243d c99f 73bd
00000120: d8f3 23bc 7fb1 e13c ae90 873c 3dfc 9a3d
00000130: 3175 1fbd fee2 8ebc 6a18 463c 0971 8a3d
00000140: 29e3 10bd 01ba f43b 5b2d 073d a244 a53d
00000150: d1e0 433d e2c9 2e3c 35f4 e33c a237 893d
00000160: f759 d4bc 965d 7fbd acd4 19bd bded 1e3d
00000170: 7ded a43d 4bd6 f9bb 0074 a03d 188f 53bd
00000180: a2d5 59bd 2643 ad3d 95a3 6bb9 f468 4d3d
00000190: 9349 083c e672 9d3c ea22 15bd 91d4 083d
000001a0: c590 d83d 3bcf bb3d 406e c23d df76 953d
000001b0: cbe6 ab3c 53e9 db3c c662 37bd c2ee ce3c
000001c0: 366f b5bc 9a8c e83c d1aa 1fbc 5291 dcbc
000001d0: 5036 57bd ad63 1e3d 36c8 94ba b5dd b2bd
000001e0: 36e2 8a3c d34a 783c e68f bc3b 4dc8 ab3c
000001f0: 3c68 43bd a4e0 db3c cb22 273b 14a8 443c

actor_head.weight f4 [2, 128]
0.009081054 -0.0031118037 -0.0040942566 -0.009357819 -0.045623224 0.04392948 -0.004798452 0.02687937
0.017570237 0.030745002 0.047985334 -0.052229885 -0.055604875 -0.039701194 -0.037726555 0.010709786
0.0059591443 -0.02397787 -0.01964365 -0.006095108 -0.005502819 0.025386008 0.029094096 0.04235206
-0.043493748 0.035928078 -0.04139207 -0.0015802789 -0.016119929 0.044799313 -0.05186431 0.04660882
0.00056148623 0.0008343496 0.024418434 -0.0029991255 0.0030311998 0.018506724 -0.039652053 -0.057479262
0.041522518 0.0067509455 0.03993977 -0.028304253 0.0011490248 -0.00015479437 0.048596207 0.008213062
0.031294797 0.031701647 -0.02350216 0.033810176 -0.067039795 0.034320787 0.034678195 -0.008204389
-0.029822588 0.002854038 -0.014558479 0.0304373 -0.001867484 0.019686019 0.009813003 -0.047578435
0.01651511 -0.057678387 -0.010643921 -0.03587027 0.0017584945 -0.0035180063 -0.022874903 0.026241971
0.043374225 -0.024754835 -0.0042592664 -0.024073748 0.011244357 0.03106504 0.011421639 0.014211003
-0.03345476 0.028837617 0.04194185 -0.049888458 0.033608854 0.042020366 0.015154505 0.0143793365
-0.029641856 0.026075222 -0.0058677793 -0.02504126 0.03613799 0.039893847 -0.030199585 -0.019203253
-0.012493257 -0.03170116 0.028270686 -0.014361242 -0.061705515 -0.043128572 -0.016821688 0.038664304
0.007024395 -0.047831614 -0.005313255 0.03170326 0.027543105 0.0155704385 -0.047827713 0.018645952
-0.0402743 -0.004049852 0.05856839 -0.055939887 0.0022222567 0.03571054 0.0388436 0.0036761293
-0.0397432 -0.06239703 -0.043868337 -0.0033675174 0.019868946 0.029143736 -0.01873767 0.028833633
-0.003802793 0.062248502 0.0049382197 -0.034682974 0.0055615506 0.02675385 0.0396783 -0.01283142
-0.010739632 0.006255596 0.037220974 -0.029222375 0.02587609 0.023789857 -0.032209165 0.0026866957
0.010410752 -0.028999278 -0.027471216 -0.024284935 0.051780704 -0.016865477 0.017851908 0.023229636
0.0037317234 0.003458669 0.0068687247 0.0014433159 -0.013190892 0.031004937 -0.01749023 -0.010276912
-0.010418214 0.003346311 0.014429778 -0.021811899 -0.04308252 -0.008704622 -0.0058058253 0.03117922
0.03562143 -0.003718927 0.015387391 0.0034794123 0.00198344 0.0012202907 -0.02048676 -0.029681183
-0.0036127667 -0.0012085272 0.04270525 0.024956578 -0.033825915 0.038182586 0.010013731 0.014759422
-0.043177653 0.0001584512 -0.011827842 -0.0017972125 -0.0004711274 0.030424286 -0.023962092 -0.02305483
-0.017703384 -0.00025737524 0.014259296 -0.0068480372 0.004141845 -0.0036834865 0.044808913 0.008771806
0.0162699 0.024154281 -0.0030571325 0.019019267 0.025634123 0.024309378 0.020185431 0.038286023
0.024911836 0.014027594 0.036744367 0.008451964 0.02793126 0.017098414 -0.022246065 -0.0054079513
0.0080476515 0.033604737 0.0392201 -0.02122778 0.00970803 0.0073927655 0.023254663 0.032383144
0.050858323 0.05072192 0.008131054 -0.03534171 0.017051596 0.026739331 0.07045863 0.032505907
-0.045764618 -0.000716495 -0.030171374 -0.010535678 0.017314933 -0.0076375543 0.004739927 -0.023092644
-0.0028570213 -0.0018506078 -0.007758931 -0.01679403 0.009629333 0.0048725563 -0.01230075 -0.0024543186
0.015386618 -0.038051445 -0.0154514825 0.03309148 0.052014608 0.0280011 0.065891795 -0.00038749585
00000000: b3c8 143c 67ef 4bbb 1d29 86bb 8a51 19bc
00000010: 6bdf 3abd 66ef 333d 553c 9dbb 2032 dc3c
00000020: 75ef 8f3c f1dc fb3c 458c 443d 01ef 55bd
00000030: f0c1 63bd b89d 22bd 2987 1abd 1978 2f3c
00000040: ed44 c33b 3d6d c4bc b8eb a0bc 79b9 c7bb
00000050: fe50 b4bb 51f6 cf3c be56 ee3c 5b79 2d3d
00000060: 8026 32bd 5229 133d bb8a 29bd 5c21 cfba
00000070: f10d 84bc 7c7f 373d ac6f 54bd e4e8 3e3d
00000080: b430 133a 41b8 5a3a 2b09 c83c fa8c 44bb
00000090: 18a7 463b 6a9b 973c 316a 22bd 606f 6bbd
000000a0: 8413 2a3d 0937 dd3b e297 233d 52de e7bc
000000b0: e09a 963a 4c50 22b9 d10c 473d 1490 063c
000000c0: f92e 003d 96d9 013d 9a87 c0bc 8a7c 0a3d
000000d0: 294c 89bd f493 0c3d b90a 0e3d b46b 06bc
000000e0: 804e f4bc d00a 3b3b b086 6ebc a557 f93c
000000f0: 5dc6 f4ba 9344 a13c b8c6 203c 9be1 42bd
00000100: b24a 873c 2c40 6cbd d763 2ebc b4ec 12bd
00000110: 497d e63a 5a8e 66bb 2664 bbbc 67f9 d63c
00000120: 2ca9 313d a7ca cabc 5191 8bbb 4f36 c5bc
00000130: 403a 383c 1c7c fe3c d321 3b3c 44d5 683c
00000140: dc07 09bd de3c ec3c 38cb 2b3d d757 4cbd
00000150: 70a9 093d 8c1d 2c3d 9a4a 783c 4f97 6b3c
00000160: 7ad3 f2bc b49b d53c 8046 c0bb 5423 cdbc
00000170: 6e05 143d bb67 233d 1f65 f7bc 2450 9dbc
00000180: 85b0 4cbc 13d9 01bd ed97 e73c 6a4b 6bbc
00000190: ecbe 7cbd 96a7 30bd a3cd 89bc 765e 1e3d
000001a0: e52c e63b 15eb 43bd d01a aebb 47db 013d
000001b0: 14a2 e13c 271b 7f3c fee6 43bd 65bf 983c
000001c0: aaf6 24bd 9fb4 84bb 68e5 6f3d 3921 65bd
000001d0: 48a3 113b 3745 123d 771a 1f3d 37eb 703b
000001e0: c4c9 22bd 0794 7fbd 49af 33bd 91b1 5cbb
000001f0: 33c4 a23c d8be ee3c be7f 99bc 8334 ec3c
00000200: 4838 79bb 49f8 7e3d cad0 a13b bc0f 0ebd
00000210: ab3d b63b e42a db3c b785 223d e03a 52bc
00000220: 48f5 2fbc befb cc3b 0575 183d c363 efbc
00000230: 18fa d33c f2e2 c23c c2ed 03bd 4613 303b
00000240: dc91 2a3c e58f edbc 510b e1bc 33f1 c6bc
00000250: 0118 543d 7829 8abc 2a3e 923c 144c be3c
00000260: ee8f 743b d6aa 623b 0a13 e13b a52d bd3a
00000270: 9c1e 58bc 11fe fd3c ac47 8fbc 7e60 28bc
00000280: 28b1 2abc c84d 5b3b e06a 6c3c deae b2bc
00000290: 4c77 30bd d59d 0ebc cb3e bebb 906b ff3c
000002a0: c7e7 113d 3eb9 73bb 651b 7c3c da06 643b
000002b0: 9afc 013b 29f2 9f3a dad3 a7bc f425 f3bc
000002c0: 2bc4 6cbb 7267 9eba b3eb 2e3d bd71 cc3c
000002d0: 0b8d 0abd 5865 1c3d a210 243c 81d1 713c
000002e0: 0ddb 30bd ec25 2639 91c9 41bc 7290 ebba
000002f0: a601 f7b9 5a3c f93c 264c c4bc 7cdd bcbc
00000300: b006 91bc 52f0 86b9 d29f 693c 8065 e0bb
00000310: 50b8 873b a666 71bb 8d89 373d 9fb7 0f3c
00000320: 7448 853c 33df c53c 2c5a 48bb 4bce 9b3c
00000330: a7fe d13c 7624 c73c eb5b a53c ced1 1c3d
00000340: e813 cc3c fed3 653c 4381 163d 1b7a 0a3c
00000350: 19d0 e43c f911 8c3c 613d b6bc 2f35 b1bb
00000360: 4cda 033c 1fa5 093d 41a5 203d e2e5 adbc
00000370: 6e0e 1f3c 033f f23b 9080 be3c 30a4 043d
00000380: d150 503d cac1 4f3d 1d38 053c 78c2 10bd
00000390: caaf 8b3c 710c db3c 9d4c 903d ea24 053d
000003a0: ae73 3bbd 2ad3 3bba f529 f7bc d69d 2cbc
000003b0: 0cd8 8d3c 7344 fabb 6451 9b3b c92c bdbc
000003c0: dd3c 3bbb 1890 f2ba a13e febb a293 89bc
000003d0: 5ac4 1d3c f7a9 9f3b 1689 49bc a2d8 20bb
000003e0: 2718 7c3c d5db 1bbd 3728 7dbc ef8a 073d
000003f0: 450d 553d 9062 e53c 47f2 863d d028 cbb9

actor_head.bias f4 [2]
-0.0049280073 0.00086098094
00000000: 1f7b a1bb 74b3 613a

critic_encoder.0.weight f4 [128, 11]
-0.18415411 0.26067573 0.5594482 0.20873715 -0.05610162 -0.31071565 -0.006761525 -0.12559105
0.33140525 -0.0040402054 -0.13766818 -0.060114797 0.26711193 0.38487282 0.015503206 -0.26865605
0.35657695 -0.12766925 -0.007860731 0.05456924 -0.32982785 -0.12265815 -0.43992302 -0.053995408
0.10827382 0.3271122 -0.21177274 0.36988983 -0.25092888 -0.394529 -0.02106072 -0.03337806
0.32088095 -0.26278976 -0.029363377 0.6282901 0.017005142 -0.316761 -0.21679671 -0.019329054
0.35140955 0.40219775 0.29226556 0.1780383 -0.3291019 -0.18080394 0.4163983 0.10174232
-0.09790125 0.22786862 0.046917945 0.21956617 0.13790154 0.14131133 -0.026278032 -0.10208558
0.033632055 0.6289671 0.29663852 0.08469422 0.12666543 -0.26954582 0.45253375 0.2521313
0.1849401 0.2872433 -0.11400376 -0.11089516 0.54034466 -0.14150997 -0.115372166 -0.2512904
-0.05667919 -0.21165341 0.40264753 -0.12213936 -0.19309004 0.41208246 -0.27017322 0.7484474
-0.018123258 -0.25889054 0.13216715 -0.00031942624 0.08198835 -0.06990623 0.31946933 -0.2000241
-0.31376594 -0.29755637 0.293137 0.0584947 -0.15784103 0.356193 0.006113169 0.37946895
0.3790118 0.17315221 -0.21649173 0.120823205 0.24011144 0.5719716 0.043788776 -0.2676389
0.28559646 -0.15748696 0.19183932 0.34335566 0.21989721 0.25063914 -0.08819873 0.24075584
0.699302 -0.05024313 -0.24332595 0.030179592 -0.23309028 0.100274645 0.1942927 -0.16504657
0.057674184 0.006871771 0.0524005 -0.03989705 0.14483827 0.2375222 -0.1191964 -0.20967437
-0.039561972 -0.2981656 -0.23467298 -0.02728193 -0.21684487 -0.24246722 0.44650266 0.14364818
-0.29081893 -0.2649434 -0.15131791 0.0766999 0.37583217 -0.18499309 -0.0012154785 -0.08251579
0.081901245 0.40379572 0.10978485 -0.27647406 0.044505864 0.18272878 0.02175451 -0.10190663
0.31222028 0.3373506 -0.36653155 -0.019988252 0.15738513 0.22352643 -0.12145038 -0.33705398
0.17235681 -0.19710226 0.17478445 -0.015956547 -0.30392498 -0.031175984 -0.08821221 0.4567745
-0.21878749 -0.18262382 -0.045277443 0.07855678 0.08170556 0.23024346 0.01109902 0.11186607
0.15953389 0.06639383 0.25539327 0.26859292 0.14028504 -0.31657854 0.23080963 0.34795678
0.09701759 -0.30122697 0.27112094 -0.33463788 -0.022755144 0.07785592 -0.23649724 0.053309258
-0.29101974 0.09091002 0.17585544 -0.13311705 0.011489891 0.021737447 0.20867154 0.065268055
0.1374018 -0.15518422 0.11703963 0.28088576 0.48142287 0.18507133 0.33476654 -0.20956506
0.24879032 -0.2640381 0.18340917 0.69046235 -0.08182981 0.027655013 0.1172316 -0.1244262
-0.056865145 0.12013942 -0.121109664 0.21445529 -0.31781816 -0.3164897 0.57850593 0.12437755
-0.20573743 0.24700165 -0.12806308 0.14699121 0.33276632 -0.24451171 -0.070252724 0.25378793
0.13378768 0.64805555 -0.15339151 -0.14889869 0.28825593 -0.08754889 0.4246756 0.13895495
-0.021174759 0.30661428 -0.30554911 -0.24360202 0.52526355 -0.14957218 0.21017146 0.26747113
-0.2772868 0.0036500362 -0.09121454 0.12514585 0.27563506 0.055991013 -0.1423881 0.65163565
00000000: e592 3cbe 4a77 853e ff37 0f3f 31bf 553e
00000010: d0ca 65bd 1f16 9fbe c88f ddbb f19a 00be
00000020: f3ad a93e b363 84bb e3f8 0cbe ef3a 76bd
00000030: e5c2 883e 0d0e c53e 2901 7e3c 498d 89be
00000040: 4191 b63e babb 02be 4cca 00bc ff83 5f3d
00000050: 32df a8be 3234 fbbd 973d e1be 4a2a 5dbd
00000060: aabe dd3d 407b a73e f4da 58be 3362 bd3e
00000070: c079 80be b5ff c9be 8887 acbc 6fb7 08bd
00000080: 824a a43e 618c 86be 778b f0bc 9fd7 203f
00000090: 5e4e 8b3c 7f2e a2be f5ff 5dbe f757 9ebc
000000a0: f4eb b33e ddec cd3e d5a3 953e ac4f 363e
000000b0: 0b80 a8be ab24 39be 2832 d53e 475e d03d
000000c0: 7380 c8bd 6456 693e 082d 403d f4d5 603e
000000d0: 1036 0d3e ebb3 103e 0745 d7bc 3f12 d1bd
000000e0: c4c1 093d fd03 213f 01e1 973e 2a74 ad3d
000000f0: 95b4 013e e901 8abe 81b2 e73e 5b17 813e
00000100: f060 3d3e 8e11 933e ce7a e9bd 001d e3bd
00000110: 0754 0a3f fde7 10be 3e48 ecbd 23a9 80be
00000120: 7028 68bd acbb 58be d127 ce3e 3324 fabd
00000130: 65b9 45be 79fc d23e 2554 8abe 409a 3f3f
00000140: 3a77 94bc 4d8d 84be d356 073e aa78 a7b9
00000150: 82e9 a73d ff2a 8fbd 7c91 a33e 1ed3 4cbe
00000160: eea5 a0be 4f59 98be 0e16 963e 2398 6f3d
00000170: 14a1 21be ee5e b63e fa50 c83b c149 c23e
00000180: d60d c23e d04e 313e 02b0 5dbe 2872 f73d
00000190: c6df 753e bb6c 123f dc5b 333d f707 89be
000001a0: b339 923e 4344 21be 8771 443e 50cc af3e
000001b0: bc2c 613e c653 803e 89a1 b4bd b388 763e
000001c0: 7505 333f becb 4dbd 702a 79be 313b f73c
000001d0: 38af 6ebe cb5c cd3d aaf4 463e f801 29be
000001e0: c43b 6c3d 982c e13b e8a1 563d 176b 23bd
000001f0: 7c50 143e 0539 733e 3e1d f4bd e1b4 56be
00000200: bc0b 22bd 29a9 98be 1d4e 70be 5b7e dfbc
00000210: 950c 5ebe 5449 78be ff9b e43e 8218 133e
00000220: 38e6 94be a9a6 87be 15f3 1abe d614 9d3d
00000230: 136d c03e d46e 3dbe b150 9fba 0afe a8bd
00000240: d7bb a73d 50be ce3e e1d6 e03d 028e 8dbe
00000250: c84b 363d 411d 3b3e 8436 b23c 6cb4 d0bd
00000260: 56db 9f3e 38b9 ac3e 06aa bbbe 67be a3bc
00000270: 9129 213e 1de4 643e faba f8bd 5792 acbe
00000280: 4e7e 303e 2dd5 49be b2fa 323e 4eb7 82bc
00000290: 0e9c 9bbe c764 ffbc 9aa8 b4bd 59de e93e
000002a0: d409 60be bd01 3bbe d774 39bd 61e2 a03d
000002b0: 3f55 a73d f1c4 6b3e aad8 353c 0a1a e53d
000002c0: da5c 233e 7df9 873d e8c2 823e 0385 893e
000002d0: e2a6 0f3e 9516 a2be 5c59 6c3e 6427 b23e
000002e0: 29b1 c63d 6c3a 9abe 5dd0 8a3e a855 abbe
000002f0: ff68 babc ed72 9f3d 552c 72be cf5a 5a3d
00000300: 8a00 95be 082f ba3d 7313 343e d64f 08be
00000310: 1940 3c3c bb12 b23c fead 553e 42ab 853d
00000320: 0fb3 0c3e 9de8 1ebe 79b2 ef3d 42d0 8f3e
00000330: 0f7d f63e 5783 3d3e 8566 ab3e 3998 56be
00000340: e4c2 7e3e 0030 87be 9dcf 3b3e 24c2 303f
00000350: 6396 a7bd c48c e23c 1f17 f03d 2ad3 febd
00000360: 6deb 68bd a80b f63d 5808 f8bd 2b9a 5b3e
00000370: 10b9 a2be f00a a2be f718 143f a8b9 fe3d
00000380: d5ac 52be 00ee 7c3e f822 03be dd84 163e
00000390: 5960 aa3e 4761 7abe a9e0 8fbd 7ef0 813e
000003a0: a3ff 083e f8e6 253f aa12 1dbe e678 18be
000003b0: 4896 933e d54c b3bd 156f d93e 354a 0e3e
000003c0: b076 adbc 8cfc 9c3e ef70 9cbe cf72 79be
000003d0: ac77 063f 7329 19be 3037 573e faf1 883e
000003e0: 89f8 8dbe 7235 6f3b b0ce babd 3c26 003e
000003f0: 0a20 8d3e d556 653d 30ce 11be 98d1 263f

critic_encoder.0.bias f4 [128]
0.28857896 0.10577564 -0.095969275 0.048675504 -0.038631547 -0.10271068 0.3392822 0.2637245
0.031013189 -0.093853965 0.035719603 -0.29190773 0.05671577 0.34578326 0.35689127 0.25102413
0.31022218 -0.121392764 -0.10868007 0.39500442 0.33160406 0.3049523 0.29358336 0.2946008
0.27472404 0.25526178 0.24634065 0.3303033 -0.030728474 0.0830168 -0.028856596 -0.07171874
0.00039626422 -0.15067169 0.124325514 0.27876225 -0.09187286 -0.06350701 0.31308463 0.34322575
0.14716041 0.21023862 0.40957284 -0.018054318 0.0355611 -0.103757605 -0.10513814 0.21372622
-0.01287493 0.18320774 -0.031317994 0.10340867 0.08064773 0.14614229 0.16505304 0.06392915
0.2233137 -0.032064237 0.39151207 -0.1529203 0.05942778 0.12471597 0.25563276 0.038990136
-0.010539625 0.28018376 0.35682857 0.15322319 0.41792953 0.2671191 0.30144164 0.03385124
0.29606354 0.103534 0.27911854 0.26988405 0.24374822 0.39426193 0.15161307 -0.04586558
0.01848643 0.2654535 0.08251674 0.04410315 0.1133958 -0.08265602 0.4287916 -0.14202729
0.41761833 0.07927668 0.08813114 0.2728932 0.07566543 0.29054925 -0.17036179 0.083677284
0.09219324 0.18805523 0.022173177 0.036720492 0.34461787 0.22483855 -0.12426779 -0.15114835
-0.009287314 -0.01877712 0.2478176 -0.07465926 0.45196146 -0.0014058502 -0.040290546 0.2606717
-0.08002747 0.30875722 0.4005388 -0.07878972 -0.16836405 0.0008892791 0.341264 -0.16977614
-0.10481362 -0.2766237 0.0093221925 0.012619534 0.3658358 0.24311173 0.40051982 0.2136242
00000000: 9fc0 933e e6a0 d83d 8a8b c4bd f75f 473d
00000010: 1d3c 1ebd fa59 d2bd 66b6 ad3e e606 873e
00000020: 5f0f fe3c 8236 c0bd b84e 123d ee74 95be
00000030: cc4e 683d 810a b13e 74ba b63e 3c86 803e
00000040: 71d5 9e3e c59c f8bd a893 debd 053e ca3e
00000050: 02c8 a93e b522 9c3e 8f50 963e ebd5 963e
00000060: a1a8 8c3e acb1 823e b940 7c3e 841d a93e
00000070: 48ba fbbc b604 aa3d ab64 ecbc 46e1 92bd
00000080: afc1 cf39 ae49 1abe 609e fe3d edb9 8e3e
00000090: d727 bcbd f70f 82bd a14c a03e 49bb af3e
000000a0: 38b1 163e cb48 573e 88b3 d13e a6e6 93bc
000000b0: 84a8 113d de7e d4bd aa52 d7bd 0cdb 5a3e
000000c0: 5ff1 52bc cf9a 3b3e 4c47 00bd edc7 d33d
000000d0: a32a a53d 53a6 153e aa03 293e 49ed 823d
000000e0: 59ac 643e ca55 03bd 4574 c83e 2497 1cbe
000000f0: 8b6a 733d 166b ff3d 4ce2 823e 1fb4 1f3d
00000100: 64ae 2cbc 3f74 8f3e 3cb2 b63e 8ae6 1c3e
00000110: dcfa d53e d6c3 883e 8f56 9a3e 99a7 0a3d
00000120: a495 973e a209 d43d a0e8 8e3e 3e2e 8a3e
00000130: 2299 793e b3dc c93e 7540 1b3e 8cdd 3bbd
00000140: db70 973c 85e9 873e 89fe a83d 81a5 343d
00000150: 0f3c e83d 8f47 a9bd 938a db3e 9a6f 11be
00000160: 12d2 d53e d05b a23d 197e b43d a8b8 8b3e
00000170: 7af6 9a3d dfc2 943e 5273 2ebe ff5e ab3d
00000180: cfcf bc3d 8d91 403e 86a4 b53c 3a68 163d
00000190: c171 b03e 143c 663e 1c80 febd a2c6 1abe
000001a0: d129 18bc 7ad2 99bc e6c3 7d3e f4e6 98bd
000001b0: 7e67 e73e 8144 b8ba b307 25bd c376 853e
000001c0: 71e5 a3bd 6d15 9e3e 6c13 cd3e 815c a1bd
000001d0: a067 2cbe 831e 693a 28ba ae3e ccd9 2dbe
000001e0: 86a8 d6bd 9fa1 8dbe 1cbc 183c 29c2 4e3c
000001f0: d44e bb3e 48f2 783e ef10 cd3e 4dc0 5a3e

critic_encoder.2.weight f4 [128, 128]
0.084899135 0.10008888 0.14013422 0.074143514 0.24155521 0.21985014 0.13284153 0.2669202
0.08687248 0.10258993 0.19924872 -0.08378456 0.13784038 0.06938624 0.08360832 0.14092267
0.16656889 0.10262919 0.12544209 0.1503107 0.16073872 0.19817129 0.16177809 0.20559004
0.15856376 0.052392423 0.16188589 0.17347601 -0.123940974 0.19492295 0.13635707 0.10894454
0.21632719 0.12371599 0.21572304 0.12173126 0.18770128 0.22091904 0.21872953 0.21979985
0.20548126 0.07611452 0.1677057 0.15072894 0.08219755 0.21938324 0.14670476 0.18901166
0.19909245 0.23906747 0.14126466 0.21457519 0.18189955 0.14513785 0.10586657 0.12677684
0.067502044 0.08666695 0.025083052 0.1367086 0.22690691 0.1030402 0.08532369 0.12759143
0.21580732 0.18275069 0.15181589 0.08819902 0.214626 0.13174713 0.21480785 0.19452752
0.03794294 0.22032543 0.24520934 0.057211712 0.12461231 0.14100496 0.122202866 0.2286527
0.11233034 0.2286706 0.064915605 0.12386892 0.1971022 0.21771508 0.056381162 0.124579795
0.051037945 0.1272261 0.19937274 0.07141455 0.16974147 0.21463941 0.098242834 0.19470938
0.2380239 0.22938311 0.1166014 0.19048166 0.17490587 0.09438205 0.20659213 0.16892098
0.16500871 0.21724947 0.12105253 0.10283649 0.08896871 0.14630148 0.10817072 0.12701964
0.1548627 0.0703477 0.140999 0.1998197 0.12398193 0.1323214 0.10452409 0.07356729
0.06566789 0.034939 0.09254274 0.16319664 0.18963403 0.21565951 0.11585761 0.19367826
0.093735814 0.1389702 0.1448602 0.1266461 0.24046677 0.25258282 0.14078757 0.17157583
0.12851767 0.17602597 0.15523277 -0.022841003 0.084955305 0.09305297 0.032129817 0.16529323
0.06675621 0.16533248 0.097841315 0.22405753 0.10610129 0.12703003 0.061275348 0.12944882
0.19653694 0.1599191 0.13250712 0.21728629 -0.09792246 0.12743087 0.19562627 0.1404991
0.15209113 0.12686703 0.1965868 0.052034885 0.18705785 0.109133124 0.131226 0.24122189
0.16523136 0.23342948 0.11230668 0.07103599 0.1570397 0.097708635 0.21650057 0.20709866
0.16585413 0.23982818 0.069808014 0.24844696 0.15445307 0.06961812 0.048694942 0.21909362
0.18169115 0.100856185 0.049755767 0.20358382 0.23772402 0.108656615 0.1845907 0.018448332
0.15014541 0.13463818 0.105792604 0.16225165 0.18877763 0.17403361 0.22456512 0.22791791
0.22182663 0.24665584 0.15408725 0.048453715 0.24423586 0.11318729 0.083312266 0.16648793
0.1698008 0.123427734 0.10548723 0.043537933 0.090336286 0.13930732 0.16309915 0.20373932
0.05708554 0.21016051 0.17423977 0.10730343 0.17080384 0.22713389 0.13622046 0.095290855
0.20832503 0.18395787 0.116283484 0.06917454 0.1328753 0.18688495 0.24166812 0.13414933
0.24539159 0.21477656 0.092258714 0.16478059 0.21772136 0.1642225 0.18492387 0.22740036
0.11442097 0.11500262 0.23179397 0.24282168 0.18679044 0.17371948 0.22470848 0.17650872
0.180746 0.06100973 0.049844988 0.15417492 0.09770506 0.17981666 0.11059766 0.053926323
00000000: 99df ad3d 66fb cc3d 587f 0f3e 8ed8 973d
00000010: 405a 773e 6520 613e 9c07 083e c4a9 883e
00000020: 33ea b13d ab1a d23d db07 4c3e 3d97 abbd
00000030: 0726 0d3e 5f1a 8e3d d73a ab3d 084e 103e
00000040: 0991 2a3e 412f d23d e473 003e 0ceb 193e
00000050: b198 243e 6aed 4a3e 28a9 253e 3286 523e
00000060: 8a5e 223e 7099 563d 6ac5 253e b2a3 313e
00000070: c4d4 fdbd e299 473e 30a1 0b3e 511e df3d
00000080: e084 5d3e cf5e fd3d 80e6 5c3e 3d4e f93d
00000090: c434 403e 9a38 623e a2fa 5f3e 3613 613e
000000a0: ae69 523e eee1 9b3d 0bbb 2b3e b058 1a3e
000000b0: 3057 a83d 00a6 603e c639 163e 468c 413e
000000c0: e4de 4b3e 1ace 743e afa7 103e 99b9 5b3e
000000d0: e043 3a3e 049f 143e 92d0 d83d cad1 013e
000000e0: 833e 8a3d 717e b13d f97a cd3c 57fd 0b3e
000000f0: 495a 683e be06 d33d 30be ae3d 54a7 023e
00000100: 98fc 5c3e ff22 3b3e a075 1b3e b0a1 b43d
00000110: ebc6 5b3e b8e8 063e 97f6 5b3e 3932 473e
00000120: 0e6a 1b3d fd9c 613e 2818 7b3e d456 6a3d
00000130: bd34 ff3d 9b63 103e 7f45 fa3d ef23 6a3e
00000140: 730d e63d a028 6a3e 79f2 843d fdae fd3d
00000150: 29d5 493e b4f0 5e3e efef 663d b123 ff3d
00000160: 2a0d 513d 8f47 023e 5e28 4c3e cb41 923d
00000170: b5d0 2d3e 6fca 5b3e 8a33 c93d e561 473e
00000180: 8abc 733e 68e3 6a3e b7cc ee3d a00d 433e
00000190: 861a 333e 604b c13d e38c 533e 9ff9 2c3e
000001a0: 0bf8 283e a576 5e3e 64ea f73d f09b d23d
000001b0: 3a35 b63d 0ed0 153e 9c88 dd3d 7011 023e
000001c0: 5494 1e3e 7412 903d 0b62 103e 899d 4c3e
000001d0: 3dea fd3d 437f 073e ba10 d63d 73aa 963d
000001e0: e37c 863d 321c 0f3d 0c87 bd3d 051d 273e
000001f0: 6c2f 423e d9d5 5c3e c146 ed3d 9853 463e
00000200: 90f8 bf3d 344e 0e3e 3b56 143e 84af 013e
00000210: ec3c 763e 8952 813e 9e2a 103e 93b1 2f3e
00000220: 239a 033e 2740 343e 57f5 1e3e 0e1d bbbc
00000230: 0cfd ad3d 8e92 be3d 8e9a 033d a142 293e
00000240: 7bb7 883d eb4c 293e 0761 c83d 566f 653e
00000250: a24b d93d 2914 023e dcfb 7a3d 3b8e 043e
00000260: fb40 493e d5c1 233e f2af 073e 4c80 5e3e
00000270: 928b c8bd 3d7d 023e 4152 483e ffde 0f3e
00000280: c7bd 1b3e 6ee9 013e 0d4e 493e 8822 553d
00000290: 188c 3f3e 3081 df3d 1c60 063e df02 773e
000002a0: 6932 293e 2308 6f3e 0b01 e63d 517b 913d
000002b0: 04cf 203e 771b c83d 53b2 5d3e ac11 543e
000002c0: aad5 293e 8595 753e 81f7 8e3d e168 7e3e
000002d0: f228 1e3e f293 8e3d 5974 473d 145a 603e
000002e0: 3f0d 3a3e b08d ce3d b4cc 4b3d 4778 503e
000002f0: ed6d 733e 5c87 de3d 5805 3d3e f520 973c
00000300: b8bf 193e 97de 093e cba9 d83d 4c25 263e
00000310: ec4e 413e de35 323e 66f4 653e 5063 693e
00000320: 8526 633e 5993 7c3e 0cc9 1d3e 6777 463d
00000330: f718 7a3e bdce e73d 9f9f aa3d d07b 2a3e
00000340: 43e0 2d3e aec7 fc3d b009 d83d d554 323d
00000350: 3b02 b93d 94a6 0e3e 7703 273e 0aa1 503e
00000360: 87d2 693d 5134 573e e96b 323e e7c1 db3d
00000370: 34e7 2e3e c995 683e 607d 0b3e da27 c33d
00000380: 2853 553e 745f 3c3e 0926 ee3d 62ab 8d3d
00000390: 7610 083e c55e 3f3e d977 773e 715e 093e
000003a0: ef47 7b3e 63ee 5b3e 23f2 bc3d 3ebc 283e
000003b0: 59f2 5e3e f129 283e af5c 3d3e a4db 683e
000003c0: 8b55 ea3d 7e86 eb3d 665b 6d3e 3fa6 783e
000003d0: fe45 3f3e 85e3 313e fb19 663e b4be 343e
000003e0: 7b15 393e 57e5 793d 422a 4c3d 08e0 1d3e
000003f0: 9719 c83d dc21 383e 0781 e23d d9e1 5c3d

critic_encoder.2.bias f4 [128]
0.08807591 0.12356806 0.028454868 0.16872329 0.0056814156 0.1669616 0.097458325 0.1572291
0.14488421 0.016020527 0.15035631 0.1498835 -0.028625203 0.1225258 0.03841134 0.1231398
0.19651897 0.08496151 0.068806104 -0.07288952 0.03993642 -0.09710894 -0.043514688 0.088622764
0.10200993 0.10032738 -0.0370527 0.11039613 0.13659288 -0.0030186328 0.009358232 0.044389732
0.16703925 0.18345536 0.18484803 -0.07841643 0.06722856 0.043457333 0.07509393 0.0064149885
-0.048883863 0.13368376 0.04331106 0.083906636 0.062127102 -0.045850486 0.08054009 0.06071584
-0.041536365 0.1629293 -0.033164855 0.06865899 0.08623067 -0.023891903 0.13518934 0.06227048
0.010812699 0.05960614 0.052855678 -0.02366723 -0.019527998 -0.076665275 -0.056817994 0.16550684
0.015155664 -0.024667352 -0.0002653748 0.05098036 0.043315463 0.1363086 0.013171837 0.04490511
0.067834154 0.11855163 -0.052314114 0.040507827 0.04824566 -0.06260592 -0.034353677 0.14503823
-0.05158091 0.05401117 0.06719898 -0.050713614 0.103979796 0.030698493 0.13806005 -0.037237536
-0.070332356 0.11027457 0.07132067 0.020587383 0.118297994 0.055131774 0.07383813 0.03317725
0.07655946 -0.06306235 0.05041914 -0.034729462 0.05350688 0.044815138 -0.026804188 0.07535802
0.18546142 0.009358908 -0.0740744 -0.045776602 0.020690689 0.062582985 0.07972083 -0.02211856
0.044256672 -0.09103909 0.11344914 -0.048174787 0.05357018 0.13996398 0.09063332 0.06875468
0.12516886 0.039696578 0.074725375 0.04137862 -0.07860719 -0.058449883 0.09534359 0.17710572
00000000: 2561 b43d 4011 fd3d 2f1a e93c ccc5 2c3e
00000010: 2b2b ba3b fbf7 2a3e 3b98 c73d aa00 213e
00000020: 875c 143e 7b3d 833c 01f7 193e 0f7b 193e
00000030: 677f eabc ceee fa3d 3655 1d3d b830 fc3d
00000040: 453c 493e 4d00 ae3d 37ea 8c3d 1a47 95bd
00000050: 5f94 233d 0de1 c6bd 753c 32bd da7f b53d
00000060: 95ea d03d 7178 cd3d 92c4 17bd 5e17 e23d
00000070: 01df 0b3e 41d4 45bb 4553 193c 02d2 353d
00000080: 560c 2b3e b9db 3b3e cd48 3d3e cb98 a0bd
00000090: 21af 893d 5100 323d d9ca 993d d334 d23b
000000a0: 723a 48bd 65e4 083e f066 313d 3ed7 ab3d
000000b0: fd78 7e3d b8cd 3bbd 34f2 a43d 2cb1 783d
000000c0: 0922 2abd f0d6 263e dfd7 07bd 169d 8c3d
000000d0: b599 b03d f4b8 c3bc 136f 0a3e 550f 7f3d
000000e0: bf27 313c 9125 743d 327f 583d c7e1 c1bc
000000f0: 2ef9 9fbc af02 9dbd fcb9 68bd a07a 293e
00000100: 764f 783c 3013 cabc 0122 8bb9 c8d0 503d
00000110: 8e6b 313d 7b94 0b3e b0ce 573c 6cee 373d
00000120: a2ec 8a3d 32cb f23d 5347 56bd 89eb 253d
00000130: 3e9d 453d 8837 80bd 71b6 0cbd e784 143e
00000140: 8146 53bd d13a 5d3d 9e9f 893d 14b9 4fbd
00000150: 5cf3 d43d 687b fb3c 9d5f 0d3e 6386 18bd
00000160: 690a 90bd a2d7 e13d 9210 923d dfa6 a83c
00000170: 3846 f23d dbd1 613d 7238 973d dee4 073d
00000180: 35cb 9c3d d526 81bd 4d84 4e3d 7b40 0ebd
00000190: 082a 5b3d 1490 373d 7594 dbbc 4e55 9a3d
000001a0: 99e9 3d3e 1b56 193c 52b4 97bd 3f80 3bbd
000001b0: 857f a93c 822b 803d ad44 a33d fb31 b5bc
000001c0: 7c46 353d b472 babd 0658 e83d ed52 45bd
000001d0: 686c 5b3d b852 0f3e f69d b93d 41cf 8c3d
000001e0: 442c 003e e198 223d 9e09 993d a17c 293d
000001f0: cefc a0bd 2569 6fbd 8043 c33d 345b 353e

critic_head.weight f4 [1, 128]
0.20858902 0.23329638 0.07576143 0.22214176 -0.046964325 0.1812035 0.17734332 0.22399384
0.13932794 -0.070849635 0.22905758 0.21974263 0.14389898 0.22587855 -0.07685553 0.22627328
0.19619307 0.19294365 0.2162967 -0.035103966 -0.043910634 -0.0553231 -0.030247593 0.21523084
0.21492763 0.2318399 -0.023297798 0.24225555 0.19528134 -0.1224681 0.21525627 -0.038950708
0.19535029 0.2694926 0.21586722 -0.045995694 0.27280393 -0.07615385 0.19988585 -0.054283455
-0.039761312 0.26804233 -0.010528633 0.19671518 0.19259356 0.020067586 -0.040017705 0.20838426
-0.062292166 0.18292503 -0.06293032 -0.03752744 0.15798156 0.056919508 0.18820709 0.20950983
-0.05708981 0.013210277 -0.07047786 -0.08014372 -0.0035279787 -0.0698847 -0.06987664 0.18605895
-0.06960298 -0.056753393 0.061728194 -0.061609235 0.016497603 0.24795677 -0.047944233 0.21006177
-0.07582042 0.26536533 -0.02943474 0.2709558 -0.053449783 -0.074493974 -0.08690828 0.2102126
-0.040954072 -0.018423997 -0.08800281 -0.055614453 0.23193702 -0.028170994 0.22023171 -0.07682943
-0.030721344 0.2509513 0.2552042 0.21536018 0.164731 -0.060917426 -0.07755534 0.051504552
0.19453284 -0.033179063 0.23961364 -0.10643434 0.26895544 -0.00843679 -0.0788722 0.21729775
0.18247971 0.20720734 -0.002963445 0.021101397 -0.095921285 0.19272923 -0.03651855 -0.017584689
0.17387159 -0.025464475 0.26717114 -0.020601446 -0.07441529 0.24759065 0.2513835 0.16540043
0.24020718 0.20220926 -0.053656626 0.14834107 -0.08364361 0.073664606 0.23886435 0.18989235
00000000: 5c98 553e 3fe5 6e3e cf28 9b3d 2179 633e
00000010: aa5d 40bd 698d 393e 7d99 353e a45e 653e
00000020: fcab 0e3e 9d19 91bd 128e 6a3e 3604 613e
00000030: 415a 133e b54c 673e 6f66 9dbd 2fb4 673e
00000040: d6e6 483e 0593 453e e27c 5d3e 2dc9 0fbd
00000050: a3db 33bd 7a9a 62bd cdc9 f7bc 7965 5c3e
00000060: fd15 5c3e 7067 6d3e 06db bebc d711 783e
00000070: d5f7 473e 8ed0 fabd 246c 5c3e c78a 1fbd
00000080: e809 483e effa 893e 4c0c 5d3e fb65 3cbd
00000090: f5ac 8b3e 8df6 9bbd e0ae 4c3e 5458 5ebd
000000a0: c2dc 22bd d83c 893e 4a80 2cbc b46f 493e
000000b0: 3f37 453e c764 a43c 9be9 23bd af62 553e
000000c0: 1226 7fbd b350 3b3e 9de1 80bd 5fb6 19bd
000000d0: ebc5 213e 6e24 693d 5cb9 403e bf89 563e
000000e0: 01d7 69bd eb6f 583c b256 90bd 6422 a4bd
000000f0: a935 67bb b61f 8fbd 7c1b 8fbd 3d86 3e3e
00000100: 028c 8ebd 3f76 68bd b4d6 7c3d f759 7cbd
00000110: fb25 873c 61e8 7d3e 2c61 44bd 6f1a 573e
00000120: bd47 9bbd f7dd 873e 2021 f1bc b8ba 8a3e
00000130: 29ee 5abd 4c90 98bd f8fc b1bd f941 573e
00000140: 75bf 27bd eced 96bc d13a b4bd fbcb 63bd
00000150: e680 6d3e dbc6 e6bc 6c84 613e c058 9dbd
00000160: 54ab fbbc b07c 803e 20aa 823e 6187 5c3e
00000170: 3eaf 283e 8d84 79bd 56d5 9ebd 70f6 523d
00000180: 9e33 473e c5e6 07bd 475d 753e 3ffa d9bd
00000190: 87b4 893e 763a 0abc bf87 a1bd 4d83 5e3e
000001a0: f6db 3a3e 292e 543e 5b36 42bb d6dc ac3c
000001b0: 6172 c4bd d05a 453e 7a94 15bd c40d 90bc
000001c0: 650b 323e e09a d0bc a8ca 883e 5dc4 a8bc
000001d0: 0b67 98bd 6788 7d3e 57b5 803e bb5e 293e
000001e0: dff8 753e f20f 4f3e 0dc7 5bbd b9e6 173e
000001f0: 574d abbd 78dd 963d db98 743e 2473 423e
