proly/supervised_model.pth (torch, 42466 bytes, 6 tensors)

net.0.weight f4 [128, 11]
000000 1e 89 d1 bc 98 20 42 bd c3 48 47 bd 39 ec ea 3d
       -0.025578078 -0.047394365 -0.048653375 0.11470837
000010 82 76 81 bd d6 79 a1 bd e3 99 30 3c d6 2a b5 bd
       -0.06321432 -0.078845665 0.010778877 -0.08846061
000020 66 2f 26 3e 61 e8 a9 bb 77 3d 42 3a a5 61 82 bd
       0.16229019 -0.0051851724 0.00074096717 -0.063662805
000030 0e d6 ed bc 7f 93 73 be f1 89 f6 3b 29 74 34 3c
       -0.029032733 -0.23786734 0.007523768 0.011014023
000040 22 f8 cb 38 90 3e d0 bb 7b 28 81 bb 09 28 3e be
       9.726013e-05 -0.0063551143 -0.003941593 -0.1856996
000050 55 86 2c bd b1 f0 e7 3c 9e 58 7d bd 62 79 f4 be
       -0.042120297 0.028313013 -0.06185209 -0.47748858
000060 9d ab 1c be 72 c1 5e 3d f5 10 ea 3d a7 88 94 bc
       -0.1529984 0.054383703 0.114290155 -0.018131567
000070 a5 43 51 ba 48 5a 10 3e 8f c2 cc 3d ca f9 8b bb
       -0.0007982797 0.1409694 0.099980466 -0.0042717205
000080 df 8f 0e 3b a9 cc 50 3e 60 2f ea 3e a7 c6 bf bc
       0.0021753234 0.20390572 0.4573927 -0.023410155
000090 3f 14 59 bd 6e 57 1b 3d 0e 30 0f 3c b4 ed 8c bb
       -0.052997824 0.037925176 0.0087394845 -0.0043007974
0000a0 9f d8 a1 3b 9f f0 45 be 49 e2 ba ba a5 f4 63 3a
       0.0049391533 -0.19330071 -0.0014258112 0.00086958177
0000b0 38 ff 9a 3e 7c 33 5c 3e 81 99 e6 bc df 37 d8 3d
       0.3027284 0.21504015 -0.028149368 0.105575316
0000c0 4d 78 a9 3c bc f9 24 bd 88 af b9 3d a3 cd e9 bd
       0.020687247 -0.040277228 0.09066683 -0.11416175
0000d0 20 af 21 3e 31 21 29 bb 3e 25 03 bb 1b bf 15 bf
       0.15789461 -0.0025807137 -0.0020011212 -0.5849473
0000e0 c9 39 95 3e c0 a2 6c 3c 05 cb 19 be e1 27 c7 3d
       0.2914565 0.0144430995 -0.15018852 0.09724403
0000f0 99 93 0b be f4 19 a2 bd 1e 3e b8 bd 87 77 1b be
       -0.13630523 -0.079151064 -0.08996223 -0.15182315
000100 71 7a 0f bb ce af 85 3a 9d df ec 3e 98 29 11 3e
       -0.002189305 0.0010199489 0.46264353 0.14176023
000110 f2 15 a9 bd e5 ca 62 bd 17 15 96 3d c2 53 44 bc
       -0.08256139 -0.055369277 0.07328241 -0.01198286
000120 be f1 97 bd 49 b5 1a 3c 80 04 26 3e fe 47 dc 39
       -0.074191555 0.009442636 0.16212654 0.00042015308
000130 20 63 27 3b 33 7f 0c 3f 04 e6 31 3e 5c c2 9b 3c
       0.002554126 0.5488159 0.173729 0.019013576
000140 a8 24 60 be cf f5 1d 3e 86 6f c6 3d 12 34 5f bd
       -0.21888983 0.154258 0.0968924 -0.054493017
000150 c0 b9 5d bc 52 cf 17 3e 0b b6 46 3b 3b c1 fa ba
       -0.013533056 0.1482518 0.0030320908 -0.0019131073
000160 75 7d 06 bf e6 99 07 3e b1 fe 6b bc 74 b4 34 bd
       -0.5253518 0.13242301 -0.014403985 -0.044117406
000170 e6 76 50 3d 78 e8 3e 3d 4d f5 ee bd 59 5b 02 bd
       0.05089464 0.04660842 -0.11667881 -0.031825397
000180 6d 91 87 bd 48 c9 ae ba ba 6f 05 3a e4 63 e9 bd
       -0.06619535 -0.0013335133 0.0005090196 -0.11396006
000190 c0 11 a2 39 f6 02 cd bd af 97 5c 3e f6 1f 15 be
       0.00030912273 -0.100103304 0.21542238 -0.14562973
0001a0 ab 58 80 3d 1a ec d5 bd d0 ae 42 3e 82 30 c8 be
       0.06266912 -0.104454234 0.19011998 -0.3909951
0001b0 48 a6 19 bd ec cf 9b 3c 4a 27 92 be 3c df c8 be
       -0.037512094 0.019020043 -0.285456 -0.39232814
0001c0 80 f6 eb 3c 27 a2 d7 3d 60 6b 01 bd b7 9d 13 3d
       0.028804064 0.10528975 -0.03159654 0.03603908
0001d0 6d 13 f9 3d b7 27 cf bb a4 49 8f 3e 3d 22 c4 3a
       0.12161908 -0.006321873 0.2798587 0.0014963817
0001e0 a0 78 2d 39 85 bd aa be 8f 7a a7 bd a3 2e d4 bc
       0.00016543502 -0.33347717 -0.08177673 -0.025901144
0001f0 d1 cf 23 bd b0 d7 0f bd 28 3f 6d 3d 36 b3 df 3d
       -0.03999311 -0.035117805 0.05792156 0.10922854
000200 3d 66 69 3d 3c cc d4 3d c5 3e 7a 39 a4 5d 88 3b
       0.056982268 0.10390517 0.00023865241 0.0041615535
000210 e9 39 ac 3d 0e a4 c0 be 82 ff b1 3c fd 98 5b 3d
       0.08409483 -0.37625164 0.021728281 0.053612698
000220 62 b7 7f bc 36 8b af b9 d1 10 0d be 21 c0 dc bd
       -0.015607687 -0.0003348232 -0.13775946 -0.10778833
000230 b5 dc 2b 3d 05 92 20 3b 34 21 0c 39 31 69 c3 3e
       0.04195853 0.0024501097 0.0001336381 0.38166192
000240 19 cf 6e be b9 18 1e bd c0 8c ff bd 0d d6 5d bd
       -0.23321189 -0.038597796 -0.12478018 -0.054159213
000250 13 26 2f 3e cd f4 37 bd 52 c1 c9 bd 00 3d 44 be
       0.17104368 -0.044911195 -0.09851326 -0.19163895
000260 25 82 c8 3a 9e 8b e6 39 c2 ef 8f 3e 46 f3 86 3e
       0.0015297575 0.00043973041 0.28112608 0.26357478
000270 73 fd 4a bd 45 5e 0d bc b8 e9 70 bd e0 3b 32 3d
       -0.049558114 -0.008628433 -0.05881664 0.043514132
000280 ee 54 db bc 75 d5 1c 3d b6 51 03 3d fe ff 02 3b
       -0.026773896 0.038289506 0.032060347 0.001998901
000290 fc 6a 46 bb 59 a0 e6 3c 82 3c 25 be d4 a8 64 bd
       -0.003027617 0.028152632 -0.16136363 -0.05582507
0002a0 eb 6f 6e 3d ca de c9 bc e6 85 de 3b 61 25 06 be
       0.058212202 -0.024642367 0.0067908643 -0.13100196
0002b0 90 3e b2 bd 6a 34 63 be 39 29 d7 3b cb 7b fa 3c
       -0.08703339 -0.22187963 0.0065661934 0.030576607
0002c0 65 d8 6d bc 58 8d 5c 3d eb 28 a4 bd 9e 63 f0 3d
       -0.0145169245 0.053845733 -0.08015617 0.117377505
0002d0 c5 23 c3 bd 14 09 53 bd 83 16 7f bd ec c9 bc bd
       -0.09528307 -0.05152233 -0.06227733 -0.09218201
0002e0 33 41 7c bd ac 80 0a bd a6 45 2a bd ad ed 0a 3f
       -0.061585616 -0.033814117 -0.04157033 0.54268914
0002f0 2d 0d f5 3e c8 be 42 bd 13 08 1c 3e d2 58 03 be
       0.47861615 -0.047545224 0.15237455 -0.12826851
000300 dd a7 7b bc 53 84 ad 3d 4c c1 64 bd dc c9 85 bd
       -0.015359846 0.084725045 -0.055848405 -0.06532642
000310 47 dd c4 ba 18 0b 12 3b 05 3d f2 be 1b e7 aa be
       -0.0015019559 0.0022284444 -0.4731218 -0.33379444
000320 34 86 a7 3d ae 91 94 3d d6 cb a5 bc aa 95 17 3d
       0.08179894 0.07254349 -0.020238798 0.037007965
000330 e4 6d 20 bd 38 0d 0a be d0 6c 95 be b5 fd 8c bb
       -0.0391673 -0.13481605 -0.2918458 -0.004302705
000340 0d 49 76 3b ea 96 58 3e 08 23 bb 3d 12 4d 39 bc
       0.0037580163 0.21151319 0.09137541 -0.011309879
000350 ef 2f 2e bd a1 61 62 3c b1 fb 18 be 8f 7c 23 bc
       -0.04252618 0.013817222 -0.14939763 -0.009978428
000360 01 c9 98 bd 32 58 45 3e fb 37 ba bb bc d3 be ba
       -0.074602135 0.19271925 -0.005682943 -0.0014558951
000370 85 13 84 3f ea 43 41 bc 21 7c 4d bb 27 4e 7a 3d
       1.0318457 -0.011795977 -0.0031354504 0.061109688
000380 1e e5 13 bc 1e aa 58 b9 6f 31 17 3c 29 4b ef bb
       -0.009026794 -0.00020662739 0.0092280945 -0.007302661
000390 e1 7e 2c bc d8 45 b1 38 f8 49 6c ba 93 86 82 be
       -0.010528297 8.453027e-05 -0.0009013708 -0.25493297
0003a0 1e f2 89 bd 2c 51 11 3e 48 26 86 bd 9b 08 49 3d
       -0.06735633 0.14191121 -0.0655027 0.049080472
0003b0 e6 be 82 bc 5e b9 3d 3d fd 7b 11 3d 6a cb 60 3e
       -0.015960168 0.046319358 0.035518635 0.21952596
0003c0 2a 57 6c ba 25 5f 87 bb 8c 22 f4 bc 3d a8 24 bd
       -0.0009015674 -0.004131215 -0.02980163 -0.040199507
0003d0 fd 6f 2b be 47 34 63 bc 7c f6 5d ba d0 51 ee bc
       -0.16741939 -0.013867444 -0.000846721 -0.029091746
0003e0 ac 2c a7 bc d9 a3 0e bc 5e 92 0a be 7d ce 33 3c
       -0.020407043 -0.0087060565 -0.13532397 0.010974524
0003f0 32 c8 0a 3b 03 e2 e0 3e 90 31 8d bd e8 b1 89 bc
       0.0021176455 0.43922433 -0.06894219 -0.016808465

net.0.bias f4 [128]
000000 f6 bb 68 be 53 0c 34 3c 3e 10 82 3e 4d 88 7e 3b
       -0.22727951 0.010989266 0.25403017 0.0038838566
000010 e5 71 5a bd e8 99 1f be 48 f0 17 3e 9d a1 94 bd
       -0.053331275 -0.15586054 0.14837754 -0.07257388
000020 d4 09 d6 bd 40 7b bd be 27 23 e2 bd 56 6e 2b 3d
       -0.10451093 -0.37008095 -0.11041861 0.04185327
000030 cb 1a 12 be b2 0d d5 3d 35 3b 4b 3e 14 28 07 bd
       -0.14268033 0.10403003 0.19846804 -0.032997206
000040 82 c9 89 be 13 be 7c be 08 e8 8d be cd 91 f0 bd
       -0.2691155 -0.24681883 -0.27716088 -0.11746559
000050 92 8c 7b 3c 86 d5 be bd 62 c5 8d bd 89 ce 31 3e
       0.015353339 -0.0931807 -0.069224134 0.17363943
000060 9f 8c 74 3e 91 12 2a be 89 dc ea be 6b d5 67 be
       0.23881768 -0.16608645 -0.4587138 -0.22640006
000070 4d 3f cd 3d 61 58 fa be 77 74 90 be c8 5e 2d be
       0.10021839 -0.48895553 -0.28213856 -0.16930687
000080 2c 87 c0 be 6d 9f cc bd a0 62 de 3d ca dc 3e 3e
       -0.37603128 -0.099913456 0.10858655 0.18638912
000090 ad 49 ef 3d ed 70 9c 3c cb f3 58 3e 19 3c 75 be
       0.116839744 0.019096816 0.2118675 -0.23948707
0000a0 f6 cf e9 bd 10 18 7c be 0c 11 93 3e 21 fe 47 bc
       -0.114166185 -0.24618554 0.28723943 -0.012206585
0000b0 f8 01 7f 3d e3 d6 90 be cb 6b f0 bd fe 67 61 3e
       0.062257737 -0.28288946 -0.1173931 0.22012326
0000c0 6f a2 7e be 86 5b d6 bd 7a 65 0c 3d 53 c2 27 3e
       -0.24866651 -0.104666755 0.034276463 0.16382723
0000d0 1b d1 d4 3d b9 25 50 3e 66 41 b6 be 96 b0 65 be
       0.10391446 0.2032689 -0.3559677 -0.22430643
0000e0 3c 7f 32 be 3e c0 f4 bc 2a ff c6 3c 7d 29 a1 be
       -0.17431349 -0.029876824 0.024291594 -0.31476966
0000f0 2f 87 30 3e 96 e0 55 be e6 32 38 3e 11 2e b2 bc
       0.17239068 -0.20886454 0.17988166 -0.021750482
000100 a2 c7 31 3e 05 a0 bb be 05 34 11 be b6 c9 17 be
       0.1736131 -0.36645523 -0.1418 -0.1482304
000110 b8 60 f0 bd bc 77 5a be 6f 99 df be bd 58 bd 3d
       -0.11737198 -0.21334738 -0.43671748 0.09245441
000120 12 0b eb bc 89 2f 06 3c e3 4f 61 be c2 c5 0d 3d
       -0.028691802 0.008190044 -0.2200313 0.034612425
000130 1a 9a 84 be df 95 6e 3e 8c 04 bd 3d 3c c5 b0 3d
       -0.2589882 0.23299359 0.09229383 0.086313695
000140 12 71 1d bd ab 2c b6 3b 70 f4 98 bd 0a 65 3e 3e
       -0.03843791 0.005559524 -0.07468498 0.18593231
000150 70 3c 4a be 62 6c 8d 3e 90 3d 8a 3e 14 ed 7a 3e
       -0.19749618 0.27621752 0.27000093 0.245045
000160 fc 87 d8 bd f0 1a 97 3e 0e 30 ae 3d 9d b1 c7 3d
       -0.10572812 0.2951274 0.085052595 0.09750674
000170 8c 31 36 be 7c d3 d5 be 48 40 64 3e d3 f6 05 bf
       -0.17792338 -0.41762912 0.22290146 -0.5232975
000180 eb 70 8b be dc 6f 5b be 14 74 33 3e c8 51 e1 be
       -0.27234587 -0.2142939 0.17524749 -0.44007707
000190 c0 97 a9 3d 4b 4a 61 3d 6e eb 15 3e 02 cc a6 3d
       0.08280897 0.055002492 0.1464059 0.0814438
0001a0 8c 03 6b be 46 4b bb 3c ad e5 6f 3d f5 3c cc bd
       -0.22950572 0.022863042 0.058568645 -0.09972564
0001b0 fe 32 d6 3a b2 70 c9 bd a7 50 2d be 2c 52 97 bd
       0.0016342101 -0.09835948 -0.16925298 -0.0738872
0001c0 e4 7a 41 3e 79 34 31 be 72 49 16 be 7a 47 aa be
       0.18894535 -0.17305173 -0.14676455 -0.33257657
0001d0 86 ba 74 be 5d 3d be be b8 f2 db 3d 27 e7 75 be
       -0.23899278 -0.3715619 0.10739654 -0.24013959
0001e0 e3 69 47 3e f0 0a 8b 3e 61 0c 25 3e 31 44 1e be
       0.19473986 0.27156782 0.16118003 -0.154557
0001f0 df e8 6d bd 95 5f 2e be 12 79 10 be dc eb 81 be
       -0.05808341 -0.17028649 -0.14108685 -0.2537526

net.2.weight f4 [64, 128]
000000 24 62 09 3d 81 d7 6a bc 60 6c 53 3d 41 f9 d6 3d
       0.03354086 -0.014333607 0.051617026 0.1049676
000010 4d 67 ec bc a4 46 83 3e 80 7d 9e bc b1 97 21 3c
       -0.028857851 0.25639832 -0.019346952 0.009862826
000020 46 34 24 3e 43 6b 14 be fb eb f8 3d b0 73 3d 3d
       0.16035566 -0.14494042 0.12154385 0.046252906
000030 8c 8b ba be 7b 6c bd bc 27 9a 54 3d f9 19 5e be
       -0.3643459 -0.023123017 0.051904824 -0.21689595
000040 41 3c ad 3d 6e db b2 3d 76 6d 9c bd b1 86 dc 3c
       0.08458758 0.08733259 -0.076380655 0.026919695
000050 2a 13 cc 3c 58 08 bb 3d 0f e4 20 bd 48 9b d5 bd
       0.024911482 0.09132451 -0.039279994 -0.10430008
000060 85 17 ed 3d 35 b6 88 bd 1c 94 0b bd c6 28 38 3b
       0.115767516 -0.06675378 -0.034076795 0.0028100475
000070 13 ce ea 3d 1c ae 74 bb 29 2f 50 3d 31 fe 60 3e
       0.11465087 -0.0037335223 0.050826225 0.21971966
000080 d3 16 c6 bb d7 a7 3d 3d 12 1d 63 3d e6 2f 4a 3c
       -0.0060452013 0.046302643 0.055447645 0.012340521
000090 36 d2 c2 3b d3 1c 17 3d a7 5a 38 be 7d 34 99 3d
       0.0059454693 0.036892723 -0.18003331 0.074807145
0000a0 49 73 72 3a 43 a4 31 bd 93 1b 04 be b6 5b 44 3d
       0.0009248746 -0.043369543 -0.12901144 0.047939025
0000b0 0b 84 7a be e0 89 08 3e 3b 1e a1 bd 09 ac 4c bc
       -0.24464433 0.13333845 -0.07867094 -0.012492188
0000c0 b8 d5 93 3e 97 36 60 3d b7 b7 2a 3d e8 af 42 3d
       0.28873992 0.05473956 0.04167911 0.04753104
0000d0 01 b8 aa 3d 5e 82 4d be 93 fa 0a bc 4e ce d3 3d
       0.08335877 -0.20069262 -0.008482593 0.10342084
0000e0 9e 3d f1 bc 54 c3 4a be a2 5c 18 3e b3 d4 f7 bd
       -0.029448327 -0.19801074 0.14879087 -0.12101116
0000f0 81 6e 87 bc d1 96 13 3d 2b 9c fc 3d 07 2d 08 3e
       -0.016532185 0.0360325 0.12334474 0.13298427
000100 a3 1e 98 bd f3 b2 64 bd 9f 3f e6 3d f5 55 21 3e
       -0.074277185 -0.05583472 0.112426035 0.15755446
000110 ba 0d 35 3d c6 ba 8f be d1 e4 a6 3e 36 a8 ca bd
       0.044202544 -0.28072184 0.32596448 -0.09895365
000120 b9 5c 0c bd 73 59 73 3d 65 29 02 3d 01 5f d9 bb
       -0.034268115 0.059411477 0.03177776 -0.00663364
000130 57 91 85 bd 05 64 bc bd 61 e3 6c bd 03 f8 be bc
       -0.06521862 -0.09198765 -0.057834033 -0.02331162
000140 3c 56 9b be e5 78 ed 3c 28 80 06 3e 42 68 2e 3c
       -0.3033923 0.028988311 0.13134825 0.010644974
000150 1d 48 ee 3d 11 2a a7 3c 04 64 c9 3c 8b f8 6e 3a
       0.11634848 0.020405801 0.024583824 0.0009116015
000160 2c 62 f4 3b 5e 67 12 3d b1 35 0a 3d e6 80 dc 3d
       0.007457992 0.03574311 0.03374261 0.10766773
000170 5e 8a 55 3d c7 0a 64 be ff 5b 9d bd b2 1d 9a 3f
       0.05213391 -0.22269736 -0.076835625 1.2040312
000180 38 de 19 be b8 7c eb 3c b9 b1 d9 3c 72 71 e9 bc
       -0.15026176 0.028745994 0.026574003 -0.028496478
000190 da ef b5 3d 02 21 a0 3c 4b bf ba 3c fa 85 07 3e
       0.08883639 0.01954699 0.022796294 0.13234702
0001a0 bb ac 2a 3e 3f fd 98 3d 99 24 d6 3d b4 89 08 3e
       0.16667454 0.07470178 0.10456199 0.1333378
0001b0 69 e2 f4 3a 5b db c6 3d b5 cb 79 3d 21 03 c5 3d
       0.0018683198 0.097098075 0.060985286 0.096197374
0001c0 52 34 19 3e 45 e0 63 3d 21 be 15 3e 17 d2 10 bd
       0.14961365 0.055633802 0.1462331 -0.035356607
0001d0 79 89 85 bc 1d d2 1d 3d 48 58 0e bd 46 b1 cd 3d
       -0.016300904 0.038530458 -0.03475216 0.10043578
0001e0 32 2f c5 bd 4b 8b c4 3d 70 78 91 3d c4 5a aa be
       -0.096281424 0.095968805 0.0710305 -0.33272374
0001f0 13 be 9b bd 43 ac e9 bc f8 14 0a 3e 31 81 a6 be
       -0.07604613 -0.028524524 0.13484561 -0.3252044
000200 bf 25 f4 3b b0 92 63 bd 41 9c 19 bb aa 0b 44 3d
       0.0074507887 -0.055559814 -0.0023439082 0.047862686
000210 96 b6 ee 3b f9 e5 dc 3d 96 6c c4 3d 1b 5f 08 3e
       0.0072849495 0.10786051 0.095910236 0.1331753
000220 18 91 04 3e 2f f0 b7 bc 7a 1c d1 3c 91 4b 8b 3d
       0.12945974 -0.022453396 0.025526274 0.068015225
000230 78 5e 3a be 62 c1 c2 3c f1 e8 b0 3d e9 d1 9b bc
       -0.182001 0.023773853 0.0863818 -0.019020991
000240 7d 75 55 bd 7c e6 b9 3d 2a 0f 9c bf 1f d4 7a 3d
       -0.052114 0.090771645 -1.2192128 0.06123745
000250 2b ff 0a 3e 91 f3 00 bd 64 0c ad 3d e6 12 29 3d
       0.13573901 -0.031482283 0.08449629 0.04127779
000260 57 2a 4c 3d 8b 75 98 bd 32 4c 3f 3f cb ac e5 3c
       0.049845066 -0.074442945 0.7472564 0.028036496
000270 03 40 bb 3d 37 e8 2a 3d f9 18 6d bf 93 bc 37 3e
       0.09143069 0.041725364 -0.9261623 0.17943029
000280 9d bf 56 3c 74 ff 97 bc a1 74 c3 3d d3 28 b0 3d
       0.013107208 -0.018554427 0.095437296 0.086015366
000290 6a 60 e4 3c f9 10 91 3d ef 3a ba 3c 8d f9 90 3d
       0.027878005 0.070833154 0.02273318 0.07078848
0002a0 f8 13 c8 3d eb ac 7c 3c 44 a4 9b 3d 58 b0 13 bc
       0.09769434 0.015422086 0.075996906 -0.009014212
0002b0 e7 40 81 3d 4c cb 9c 3d 29 cb 04 3e 11 d3 70 bd
       0.06311207 0.07655963 0.12968124 -0.05879504
0002c0 64 dd 21 3e c3 a1 2b 3d 73 35 ed 3d 18 5e 4b bf
       0.1580711 0.041902315 0.1158246 -0.7944045
0002d0 9b 3e 3a be a5 21 ba 3e e4 ed d5 3d ae 28 82 bd
       -0.18187945 0.36353794 0.10445765 -0.06355415
0002e0 7f ed 1a 3d 64 22 39 3e dd ef 14 3e 8d 15 76 3d
       0.03782415 0.18079525 0.14544626 0.060079146
0002f0 cc 06 94 3b 99 ec af 3b 55 7d 47 bd 95 81 ac bd
       0.004517412 0.005368781 -0.04870351 -0.08423153
000300 42 b9 fc be b6 97 de bc 23 d8 09 c0 9d 84 df 3d
       -0.4936009 -0.02717195 -2.153817 0.10913966
000310 dd bb b1 3b d6 85 b4 3e 33 37 24 3d 96 f0 02 3e
       0.0054240064 0.3525836 0.040091705 0.12787089
000320 2e 4b 95 3d 64 01 bb 3c 45 30 87 3e 7f c2 8e 3d
       0.0728973 0.022827812 0.26404014 0.06970691
000330 53 79 5c bd 78 d9 95 3d 4e 41 7b bd 5f 4a c4 3d
       -0.05382664 0.073168695 -0.061341576 0.09584498
000340 a7 c4 42 bf da 91 19 be e9 b8 83 bc 5c db 0e 3e
       -0.7608132 -0.14997044 -0.016079383 0.13950866
000350 2f f1 71 3d 19 ac 88 3d dd 9c d2 3d 59 fa c4 bd
       0.0590679 0.0667345 0.102838255 -0.096180625
000360 b1 ee 48 3d 5b 67 d6 bd f7 c0 05 3d 1b 59 16 3e
       0.04905576 -0.10468932 0.03265473 0.14682429
000370 c2 13 e8 3d e1 59 0d 3e 66 77 df 3c 15 ff 12 c0
       0.113318935 0.13803817 0.027278613 -2.296819
000380 48 de c1 3c 92 6a d6 3c c4 d1 96 3d fa f5 ca 3d
       0.023665562 0.026173864 0.07364228 0.099101976
000390 ef 3b fd 3d 93 bf 5d bd b8 0d 5e 3c 69 40 cf 3d
       0.12364947 -0.054137778 0.0135530755 0.10119707
0003a0 2f b0 d4 3d c9 d0 2e bd f0 84 ea ba d6 4e b1 3d
       0.10385167 -0.04267958 -0.0017892402 0.08657615
0003b0 98 93 08 3e 4c 6e ed 3c f0 73 68 bd 21 8c 9f 3d
       0.13337553 0.028983258 -0.05675119 0.07790399
0003c0 24 59 8a bc 5a 47 ad bd 1a 9a 19 3d a9 4d 63 3d
       -0.016888209 -0.08460875 0.03750048 0.055493984
0003d0 43 e2 48 bd e6 46 fb 3b 04 12 4a 3c b4 54 cc 3c
       -0.049043905 0.007668364 0.012333397 0.024942733
0003e0 0e 7e 81 bd ee 64 1e 3d 4c 7a ea 3c e8 27 61 be
       -0.06322871 0.038670473 0.028622769 -0.2198788
0003f0 43 df c8 3d 26 67 4e 3d 9a d7 89 3d 6d e3 2a be
       0.09808209 0.05039134 0.06730576 -0.16688319

net.2.bias f4 [64]
000000 65 e5 5a b7 ce 36 9b 3d 06 8a 90 3d 5c a0 11 3d
       -1.3047223e-05 0.075788125 0.07057576 0.03555332
000010 47 98 4b bc 8b 3b 54 bd b8 65 0e bd ac 50 b5 bd
       -0.0124264425 -0.051814597 -0.034764975 -0.088532776
000020 84 09 86 bd 07 1d f4 3c 31 d7 95 bd 09 e9 a3 3d
       -0.06544784 0.029798998 -0.07316435 0.08003432
000030 b6 f5 bb 3c f6 47 aa 3c 36 bd 38 3d 97 92 8c bc
       0.022944313 0.020786267 0.04510232 -0.017159743
000040 e6 01 75 bd bc 29 d7 3c ae e5 b6 3d ce 2f a0 3b
       -0.059816264 0.026265018 0.08930527 0.0048885113
000050 78 2d 04 3d 07 b9 3a bc 89 c2 41 bd 83 66 99 3d
       0.032269925 -0.011396653 -0.047304664 0.07490256
000060 64 5a c7 3d 8a 61 9c 3d 86 02 52 3d 88 71 74 3b
       0.097340375 0.076357916 0.051271938 0.0037299115
000070 72 2c 36 bc 76 c6 fd 3a b1 b9 ac 3d f1 6c ed bd
       -0.011118995 0.0019361514 0.08433855 -0.115930445
000080 44 8f 88 3d a3 fa cb 3d e6 68 c4 3d c3 cc 56 3b
       0.06667951 0.099599145 0.0959032 0.0032775856
000090 11 94 3d bc ef 50 a9 3c 58 2f 16 3e 5e da 9e 3d
       -0.011570946 0.020668475 0.14666498 0.07756494
0000a0 13 e5 76 bd 12 23 81 ba 7c d6 cf bc 5d 5d ba bd
       -0.060277056 -0.0009852371 -0.025370829 -0.09099839
0000b0 7c f7 78 bd eb c2 46 3d 3f cc 8a 3c 7e 7c 9a bd
       -0.060782894 0.048525732 0.016943095 -0.07543276
0000c0 c9 3e 0f 3d 86 7d d2 3b 32 a6 96 3d b3 67 33 bc
       0.034971986 0.006423655 0.07355918 -0.010950017
0000d0 b0 65 5d bc 85 d9 03 3d 15 64 00 3b a5 bc 50 3d
       -0.013513014 0.032189865 0.0019590904 0.050961155
0000e0 87 62 1e 3e bc d1 ab 3d 30 4d 7f 3d c8 48 9f 3d
       0.15467273 0.08389613 0.06232947 0.07777554
0000f0 dc 9c cd 3d af 2d b4 3c 7d 69 2b 3d ec 39 ce 3d
       0.10039684 0.02199444 0.04184865 0.100696415

net.4.weight f4 [2, 64]
000000 2a b4 f6 bd c3 63 06 3e 63 ef b4 3d c0 f6 8b 3d
       -0.12046082 0.13123994 0.08834722 0.06834173
000010 1e f3 d7 bb 4a bb c7 bb 77 02 bc 3d f1 95 64 3d
       -0.006590261 -0.0060953246 0.09180158 0.055807058
000020 b0 c2 25 3b 5d 85 27 40 cf 9a f3 bb 69 61 a1 3e
       0.0025293045 2.6175148 -0.007434226 0.3151963
000030 0a 09 d2 3c 29 df c6 3d 67 7a 70 3e 70 a1 3d b9
       0.025639076 0.09710533 0.23484193 -0.00018084585
000040 27 54 bb b8 4d 61 22 be 7d 4e 30 3d 65 22 8a 3d
       -8.9325295e-05 -0.1585743 0.043043602 0.067448415
000050 2b 86 a1 be 44 7c 95 ba 6d f1 da bd fb c5 98 bd
       -0.31547675 -0.0011404832 -0.106905796 -0.07459637
000060 63 e2 65 3d 20 b0 66 bb fe 30 bd bd b7 c7 2f 3d
       0.056124102 -0.0035200194 -0.0923786 0.042915072
000070 7c 8a 16 bd 18 4b 13 3e 7a 4f 8f bd 60 00 4d 3d
       -0.036753163 0.14384115 -0.06997581 0.050049186
000080 ee d7 1a 3d 7c b4 b5 3d eb 8c 02 bd d7 01 12 bc
       0.037803583 0.08872315 -0.03187267 -0.008911571
000090 1f 84 45 bc 09 f8 18 3d 7a 15 b7 3e 3f e0 a8 bc
       -0.012055426 0.03734592 0.35758573 -0.020614741
0000a0 00 d8 6b 3e e2 e4 4a 3d 1a ef 40 bc 34 d7 df ba
       0.23031616 0.049534686 -0.011775756 -0.0017077685
0000b0 af 51 ff bc 4e 0d 08 3e 36 3e b5 bc 43 65 ef 3c
       -0.03116688 0.13286325 -0.022124391 0.02922309
0000c0 67 e6 0c be 51 03 3a 3d c8 7c f5 bd c3 54 61 3b
       -0.13759767 0.04541332 -0.11986691 0.0034382797
0000d0 04 cb e6 bb f7 62 f5 bd b6 86 18 3d b4 f4 f7 3a
       -0.0070432443 -0.11981767 0.037237845 0.0018917532
0000e0 7c 1b 09 be 81 72 a5 bc 03 de b7 bd 77 5e 2f bd
       -0.1338939 -0.020196201 -0.08977892 -0.042814698
0000f0 c3 d6 0a 3e 08 0b fd bd dc df 12 be 7e ff 18 3d
       0.13558488 -0.1235562 -0.14343208 0.03735303
000100 a4 f1 86 3c 94 83 b2 39 ea a0 62 bc bb 39 89 3d
       0.016472645 0.0003404884 -0.01383231 0.06700464
000110 46 87 3f 3d d4 ff 7a 3e 1e fa 82 3d d9 41 48 3d
       0.046759866 0.24511653 0.06395362 0.048890922
000120 e5 c5 2a bc 90 eb 35 bb 00 a8 71 3b 91 69 57 3d
       -0.010423158 -0.0027758814 0.0036873817 0.05259091
000130 a7 a3 6b be 2e 02 68 3d d6 43 3d bc 07 c9 da 3b
       -0.23011647 0.056642704 -0.011551818 0.0066767964
000140 23 89 a8 3c ff e7 cd bd 8b 88 bb 3c 7b 2e fe bd
       0.020573204 -0.10054015 0.022892257 -0.12411209
000150 81 43 ff 3b ff 9c a5 bc 77 50 b9 bc 72 f1 6f 3c
       0.0077900295 -0.020216463 -0.022621376 0.014644967
000160 94 01 81 bd dd 4d 5b 3e 22 0b 07 3e 41 73 ea 3a
       -0.06299129 0.21416421 0.1318784 0.0017887132
000170 94 7e 28 bd 25 5a 3f 3d b8 83 b9 3c 6f 88 2f bc
       -0.04113634 0.046716828 0.022645816 -0.010713681
000180 24 c5 fb ba 73 a5 cd bd b7 8c 5e be 69 56 62 3c
       -0.0019208533 -0.100413226 -0.21733366 0.013814547
000190 f0 b4 01 be 44 d6 14 be 8f 68 d6 3a 0c fd 52 be
       -0.12666678 -0.14534861 0.0016358065 -0.20604342
0001a0 24 7e c8 bb 88 5f 15 3b 38 a6 6d 3e e7 92 b7 3c
       -0.0061185528 0.0022792537 0.23207939 0.022408916
0001b0 c2 9e 27 3d 85 7b 68 3c a3 f2 13 bc bd 62 40 be
       0.040922888 0.014189606 -0.009030017 -0.18787666
0001c0 de 0f d8 3d 43 20 28 bd 8a d7 da 3d eb 5f 13 bc
       0.105499014 -0.041046392 0.10685642 -0.008995037
0001d0 09 0a bf 3c 3a 9d 1a be 62 ec 61 3e 20 46 2f 3e
       0.023320215 -0.1509904 0.22062829 0.17116594
0001e0 61 f9 a2 bd 2b be d5 3d b1 7f 11 3b fe fb 10 be
       -0.079577215 0.10436662 0.0022201354 -0.14158627
0001f0 9f c8 75 bc 87 53 d9 3d 45 f9 10 be e3 82 35 be
       -0.015001445 0.10611635 -0.14157589 -0.1772571

net.4.bias f4 [2]
000000 e1 f5 81 bd ec ff b5 3d
       -0.06345726 0.08886704
