proly/models/player1/model_ep0.pt (torch, 150482 bytes, 11 tensors)

actor_encoder.0.weight f4 [128, 11]
0	0xbdbf4996	-0.09340207
1	0x3e4a52c4	0.19758135
2	0xbe4fde75	-0.20299704
3	0x3c81c12c	0.015839182
4	0x3e7ce7bd	0.24697776
5	0x3dc45838	0.09587139
6	0x3e4445bd	0.19167228
7	0xbe2e071a	-0.16994897
8	0x3e89df52	0.26928192
9	0x3d894b9f	0.06703877
10	0xbe04db02	-0.1297417
11	0x3e53c138	0.20679176
12	0xbc0539c3	-0.008131447
13	0xbe097558	-0.1342367
14	0x3e7da2fb	0.24769203
15	0xbe2d0450	-0.16896176
16	0xbd58a11a	-0.052888013
17	0x3b95b460	0.0045686215
18	0x3e3e5c2b	0.18589847
19	0x3e440e0a	0.1914598
20	0x3a096559	0.0005241237
21	0xbe054a33	-0.13016586
22	0xbdbe2a4f	-0.092854135
23	0x3e5edc6d	0.21763773
24	0xbc25d5aa	-0.010121742
25	0xbe8a3c6f	-0.26999232
26	0xbc7ca806	-0.015420919
27	0x3e043288	0.12909901
28	0xbe8791b5	-0.26478353
29	0x3e78eaeb	0.24308364
30	0x3e4e3fd3	0.20141535
31	0xbd6a5e35	-0.05721875
32	0x3d9a2306	0.075262114
33	0xbe4a4304	-0.19752127
34	0xbceb3a7a	-0.028714407
35	0x3d99f246	0.07516913
36	0xbe118ef2	-0.14214686
37	0xbdfd5bb9	-0.1237101
38	0x3d244a8b	0.040110152
39	0x3e307d55	0.1723531
40	0xbc4af918	-0.01238849
41	0xbe2ac5e0	-0.16677046
42	0xbe81d03b	-0.2535418
43	0x3db4444d	0.0880209
44	0xbe3e5598	-0.18587339
45	0xbe8fc515	-0.2808005
46	0xbe4cd3bf	-0.2000265
47	0xbe7d7051	-0.24749877
48	0xbdcf5269	-0.1012314
49	0xbe873229	-0.26405457
50	0x3e54daba	0.20786563
51	0xbb0fc239	-0.0021935834
52	0xbe8945b0	-0.2681098
53	0x3e157af2	0.14597681
54	0x3d568998	0.052377313
55	0x3d5c26c4	0.053747907
56	0x3e808d6d	0.251079
57	0xbe453709	-0.19259275
58	0x3e81d081	0.25354388
59	0x3e97193c	0.2951144
60	0xbe4dceb0	-0.20098376
61	0xbe5a5df8	-0.21324909
62	0xbe453bd7	-0.19261108
63	0xbe17505c	-0.14776748
64	0x3d8af8c7	0.06785732
65	0x3e989cb7	0.29807064
66	0x3db4169a	0.087933734
67	0x3e374186	0.17896089
68	0x3de3b0c7	0.11117702
69	0x3c811087	0.015754951
70	0x3e95964d	0.29216233
71	0xbb2bc2c3	-0.0026208616
72	0x3e961fc3	0.29321107
73	0x3dcddaab	0.10051473
74	0x3e45eb5c	0.19328064
75	0x3e5bca17	0.2146381
76	0x3e52625a	0.2054533
77	0x3d94419e	0.07239078
78	0x3db1b55a	0.08677168
79	0x3d89a7cf	0.0672146
80	0xbe0f0ad3	-0.13968973
81	0xbe5d44cb	-0.21608274
82	0x3d0dc538	0.03461191
83	0xbe0f75b4	-0.14009744
84	0xbe0b2c06	-0.13591012
85	0x3e142375	0.14466651
86	0xbe6dc63d	-0.23220153
87	0x3e90b779	0.2826498
88	0xbe327453	-0.17427187
89	0x3ccb3e69	0.024810033
90	0x3c3149fc	0.010820862
91	0x3e3312e5	0.17487676
92	0xbe1b35b2	-0.15157202
93	0x3dd58a1c	0.10426733
94	0xbdd486b4	-0.10377255
95	0xbb6164f1	-0.003439244
96	0x3d9a6e42	0.07540561
97	0xbe53c21e	-0.20679519
98	0xbe05b920	-0.13058901
99	0xbd82b396	-0.063819095
100	0x3e50e116	0.20398363
101	0xbe5cb53f	-0.21553515
102	0xbda475f7	-0.080303125
103	0xbe617297	-0.22016369
104	0x3cd9fe63	0.026610559
105	0xbc5b93c8	-0.013401933
106	0x3e48059b	0.19533388
107	0xbd4d0a49	-0.050058637
108	0x3dd900f3	0.10595884
109	0x3e5f4445	0.21803387
110	0xbe05a075	-0.13049491
111	0x3da76b95	0.081748165
112	0xbe93b2c0	-0.28847313
113	0x3e3ec4db	0.18629782
114	0xbe2ab02f	-0.16668771
115	0xbd584a1d	-0.052805055
116	0x3e282aa4	0.16422516
117	0xbe28a19e	-0.16467902
118	0xbe5eec63	-0.21769862
119	0xbe34fbe9	-0.17674221
120	0x3e7c6616	0.24648318
121	0x3dadad07	0.08480268
122	0x3e8f1080	0.27942276
123	0x3caf99f3	0.021435713
124	0x3dd4a285	0.10382561
125	0x3ddadc31	0.106865294
126	0x3e3ba45d	0.18324418
127	0x3e440f07	0.19146357
128	0xbe11ceab	-0.14238994
129	0xbd741ab4	-0.05959578
130	0xbe17341a	-0.14765969
131	0x3e5e80fb	0.2172889
132	0x3e313ffe	0.17309567
133	0xbdb73058	-0.08944768
134	0xbdc5ad38	-0.096521795
135	0xbe92305c	-0.2855252
136	0x3d079c03	0.03310777
137	0xbe366f22	-0.17815831
138	0xbcd3190a	-0.025768775
139	0xbccfebea	-0.025381047
140	0x3e64beb9	0.2233838
141	0x3e4023f5	0.18763717
142	0xbe001a9b	-0.12510149
143	0xbe8a7421	-0.27041724
144	0x3e01a13f	0.12659167
145	0xbe66f42d	-0.22554083
146	0x3e221460	0.15828085
147	0x3e5c5375	0.21516211
148	0xbe2fafd4	-0.17156917
149	0xbdf276f2	-0.11839093
150	0xbe8983f8	-0.26858497
151	0x3e0619b4	0.13095742
152	0x3d9e3585	0.07725052
153	0xbe254733	-0.16140442
154	0x3e56c5e4	0.20973927
155	0x3e96e72e	0.2947325
156	0x3c86615e	0.01640385
157	0xbe8da7d3	-0.27667102
158	0x3dd47a80	0.103749275
159	0x3de9ba37	0.11412471
160	0xbd395788	-0.045249492
161	0x3ddeb0eb	0.10873588
162	0x3e85991c	0.26093376
163	0xbe992583	-0.29911432
164	0x3e8bc0e0	0.2729559
165	0x3d94d8d7	0.072679214
166	0x3e62050e	0.2207224
167	0xbe162339	-0.14661874
168	0xbd19d7f0	-0.03755945
169	0xbdcb464e	-0.09925519
170	0x3e1fc7c5	0.1560355
171	0xbd321f5d	-0.04348694
172	0xbd2f5177	-0.0428023
173	0xbe757149	-0.23968996
174	0xbe74a283	-0.23890118
175	0x3e41e722	0.18935826
176	0xbdd45459	-0.103676505
177	0x39a6b657	0.0003179784
178	0xbe6a8d2e	-0.22905418
179	0xbd1603d8	-0.03662476
180	0xbd815ca9	-0.06316502
181	0xbe2a6a12	-0.16642025
182	0x3e5d7dc3	0.21630006
183	0xbe0df384	-0.13862425
184	0x3d980ded	0.07424531
185	0xbe09fd06	-0.13475427
186	0x3e8998ec	0.26874483
187	0xbba69944	-0.0050841887
188	0x3e411f77	0.18859659
189	0xbde8b2df	-0.11362242
190	0xbb31c73f	-0.0027126817
191	0xbe560e2d	-0.20903845
192	0x3db7834d	0.089605905
193	0x3dd16156	0.102236435
194	0xbe5a1e25	-0.21300562
195	0xbe406ff8	-0.18792713
196	0xbdb5e95a	-0.08882399
197	0xbe656ad1	-0.22404028
198	0x3d67266c	0.056433126
199	0xbe577abb	-0.21042912
200	0x3e7101e0	0.23535872
201	0x3e1db6c2	0.15401748
202	0x3d381787	0.044944312
203	0x3dd413ae	0.10355316
204	0x3e0053cb	0.12531964
205	0x3d897433	0.06711616
206	0x3e2de320	0.16981173
207	0x3d46cb0a	0.048533477
208	0xbdd82fa9	-0.105559655
209	0x3e7f9cb3	0.2496212
210	0xb985a1cb	-0.00025488282
211	0x3e7d9faa	0.24767938
212	0x3e75d9f3	0.24008922
213	0xbe702ab5	-0.23453791
214	0x3e6d34cf	0.23164676
215	0x3e830c9c	0.25595558
216	0x3e0de3a4	0.1385637
217	0xbcabb0d4	-0.020958342
218	0x3dd3dbba	0.10344644
219	0x3dfa5a36	0.122242376
220	0x3cb93414	0.02260784
221	0x3e150712	0.14553478
222	0xbe6e3945	-0.23264034
223	0xbe92c600	-0.28666687
224	0xbe855ff0	-0.26049757
225	0x3e988380	0.29787827
226	0x3d8f2cea	0.069909886
227	0x3da2112f	0.07913434
228	0x3d770e3d	0.060316313
229	0xbe5e93c6	-0.21736059
230	0xbdfd6dc4	-0.12374452
231	0x3dc92a11	0.09822477
232	0xbe59b851	-0.21261717
233	0xbe462edf	-0.19353817
234	0x3d44b049	0.04801968
235	0x3c8025bb	0.015642991
236	0x3e62bd57	0.2214254
237	0xbdfbb4f4	-0.122903734
238	0x3e4aaa28	0.19791472
239	0x3e17f034	0.14837724
240	0x3e9aa196	0.30201405
241	0x3e59f4f4	0.21284848
242	0x3e263c14	0.16233855
243	0x3e9b9c95	0.303929
244	0x3b6798c6	0.0035338863
245	0x3d5bf2c1	0.053698305
246	0x3dec1f16	0.11529367
247	0x3e478227	0.19483243
248	0xbe8bdce2	-0.27316958
249	0xbe993f28	-0.29930997
250	0x3e70d72a	0.23519579
251	0xbd204f6f	-0.039138254
252	0xbcf91683	-0.030406242
253	0xbe4218ad	-0.18954726
254	0xbe3cf9c6	-0.18454656
255	0x3b3dc94b	0.0028959091

actor_encoder.0.bias f4 [128]
0	0xbe6ee428	-0.23329222
1	0xbdc8741e	-0.097877726
2	0x3d9e80fb	0.07739445
3	0xbe6379f4	-0.2221449
4	0xbe9238f8	-0.2855909
5	0xbe394fe1	-0.18096878
6	0xbe7f0d07	-0.24907313
7	0x3e3ce1e1	0.18445541
8	0x3e90a6fe	0.28252405
9	0xbdf9781b	-0.121811114
10	0xbe024deb	-0.12725036
11	0x3e875848	0.2643454
12	0x3dfe769a	0.12424965
13	0xbdf0c8ba	-0.117570356
14	0x3de211d8	0.1103856
15	0xbe66ea95	-0.22550423
16	0xb75b7a00	-1.30818225e-05
17	0x3e5c6ca4	0.21525818
18	0x3b2538e9	0.0025210923
19	0x3dadfd5a	0.084955886
20	0xbdb55684	-0.08854392
21	0x3e726915	0.23672898
22	0xbe5a5c4a	-0.21324268
23	0x3d87ebb9	0.066367574
24	0x3e5ec84a	0.21756092
25	0x3e4f7c33	0.20262222
26	0x3d70fcc3	0.058834802
27	0xbd9a801a	-0.07543965
28	0xbe94efaf	-0.29089114
29	0x3df616fa	0.12016101
30	0xbe0a66ae	-0.13515732
31	0xbd7d1667	-0.061788943
32	0x3e60f862	0.2196975
33	0x3e8d9711	0.27654317
34	0x3e95bb6a	0.29244548
35	0x3c7e7da0	0.015532881
36	0x3e8eeeea	0.27916652
37	0xbe9183d3	-0.28420886
38	0x3b893202	0.0041868696
39	0xbdfb7e83	-0.122799896
40	0x3e365827	0.17807065
41	0xbde57374	-0.112036616
42	0x3e0f74bc	0.14009374
43	0xbde53403	-0.11191561
44	0xbce41255	-0.027840773
45	0xbe7029d8	-0.23453462
46	0xbe98da0a	-0.2985385
47	0xbe84049e	-0.25784773
48	0x3e7ea959	0.24869289
49	0x3e953d9c	0.29148567
50	0xbda83875	-0.08213893
51	0xbe662d0d	-0.22478123
52	0x3e2af7bb	0.16696064
53	0x3d5e1db8	0.05422756
54	0xbe065a87	-0.13120471
55	0x3e801ac3	0.25020418
56	0xbd8ecd29	-0.06972725
57	0x3d614a37	0.055002417
58	0x3e298724	0.16555458
59	0x3de30ef2	0.11086835
60	0x3d4596d1	0.048239533
61	0x3e8f2ec6	0.27965373
62	0xbe8db877	-0.27679798
63	0x3e62277e	0.22085378
64	0xbd8bc64f	-0.06824934
65	0xbd83cc0d	-0.06435404
66	0xbe591c84	-0.21202284
67	0x3d77a56e	0.0604605
68	0xbe071a99	-0.1319374
69	0x3dbb87d7	0.09156769
70	0xbe5161c4	-0.20447451
71	0xbe53bff3	-0.20678692
72	0x3e57e962	0.21085122
73	0xbe338294	-0.1753028
74	0x3df097e0	0.11747718
75	0x3d597e4a	0.053098954
76	0x3debdba4	0.115165025
77	0xbe56bb3d	-0.20969863
78	0x3d4e0dda	0.05030618
79	0xbda171e0	-0.07883048
80	0x3e2f7fd3	0.17138605
81	0x3e8ac276	0.27101487
82	0x3de26fd5	0.110564865
83	0x3cf562f5	0.029954413
84	0x3c6c5bbb	0.014426167
85	0x3d307c02	0.043087013
86	0xbdac0571	-0.08399475
87	0x3e2f7cd2	0.17137459
88	0x3e5c74d1	0.21528937
89	0x3e609e71	0.2193544
90	0xbe87c152	-0.2651468
91	0xbe277628	-0.16353667
92	0xbe6a9c3d	-0.22911163
93	0x3e5d8a4c	0.21634787
94	0xbe93377f	-0.28753278
95	0xbe38eb93	-0.18058614
96	0xbe90056f	-0.28129146
97	0x3e2ba28e	0.16761228
98	0xbce44586	-0.027865183
99	0x3ddc719d	0.107638575
100	0x3d10cdb7	0.035352435
101	0xbda068ec	-0.07832512
102	0x3e1b5bcb	0.15171735
103	0xbd9d8f9f	-0.07693409
104	0x3da5d77d	0.08097742
105	0x3e381686	0.17977342
106	0xbe8f3fd0	-0.27978373
107	0xbe678101	-0.22607805
108	0xbe9033b6	-0.28164452
109	0xbe62b93d	-0.22140975
110	0x3e9b67b1	0.30352548
111	0xbe90cfc6	-0.2828352
112	0xbe89a5f0	-0.26884413
113	0xbe8e6735	-0.27813116
114	0x3dca055f	0.09864306
115	0x3de31201	0.11087418
116	0x3db0a98b	0.08626088
117	0x3d9d905c	0.0769355
118	0x3e795878	0.24350154
119	0x3e586698	0.21132886
120	0xbe891c6d	-0.267795
121	0xbe1a768e	-0.15084288
122	0xbe506fef	-0.203552
123	0xbe0bce66	-0.13652954
124	0x3e1c91bd	0.1528997
125	0x3db5402b	0.0885013
126	0x3cc77b8d	0.024350906
127	0x3e89bd47	0.2690222

actor_encoder.2.weight f4 [128, 128]
0	0x3d191bbb	0.03737996
1	0xbd9d4f7c	-0.07681176
2	0xbd4eb47c	-0.050465092
3	0xbd37591f	-0.044762727
4	0xbcf200fc	-0.029541485
5	0x3d3ef9f4	0.046625093
6	0xbd605abb	-0.054774027
7	0xbd26a7fc	-0.040687546
8	0x3c85b8f1	0.016323538
9	0x3cd44668	0.025912479
10	0x3c457469	0.01205168
11	0x3cf58b66	0.029973697
12	0x3c5cd31d	0.013478068
13	0xbd80f488	-0.06296641
14	0x3d85d907	0.06535535
15	0x3d63921c	0.055559263
16	0xbcffd7b2	-0.031230781
17	0xbcc292d6	-0.023751657
18	0xbd2f69d8	-0.04282555
19	0x3d9fd8be	0.07805012
20	0xbd082fe7	-0.03324881
21	0x3dae4786	0.08509736
22	0xbd93c72d	-0.07215724
23	0x3d017c01	0.0316124
24	0x3d7c7c27	0.06164184
25	0xbd9f0420	-0.07764459
26	0xbd69dc4e	-0.057094865
27	0x3cfffbd3	0.031248009
28	0x3cdee84a	0.027210373
29	0xbd9c8553	-0.07642617
30	0x3dba8a73	0.09108438
31	0xbd9fc55d	-0.07801316
32	0x3d80ed1f	0.06295227
33	0x3d5b3c2c	0.05352418
34	0xbdb082a7	-0.0861867
35	0xbda7711e	-0.08175872
36	0xbd0a6f9b	-0.03379784
37	0xbd5186d9	-0.05115399
38	0x3d05aac4	0.032633558
39	0xbda6b5ac	-0.0814012
40	0x3c1b5db3	0.009482789
41	0x3b77bc2b	0.0037801366
42	0x3d768796	0.0601879
43	0x3cec8046	0.02886976
44	0x3c8d05e7	0.017214729
45	0x3c545e2d	0.012961906
46	0xbd6f9caf	-0.058499034
47	0xbd99cd42	-0.07509853
48	0xbd6765e5	-0.05649366
49	0xbcd24eb0	-0.025672287
50	0x3a53e094	0.0008082476
51	0xbda64abf	-0.081197254
52	0xbcc9ad7a	-0.024618853
53	0xbd207ca3	-0.039181363
54	0x3a05da0e	0.000510604
55	0x3afec23b	0.0019436547
56	0x3d0b1362	0.03395403
57	0x3cf7ce5e	0.03024977
58	0x3d63bc0e	0.055599265
59	0x3da7d507	0.081949286
60	0xbc1b2089	-0.009468206
61	0xbd484312	-0.04889209
62	0x3ac20ab9	0.0014804221
63	0x3d9bccf6	0.076074526
64	0x3cf3a232	0.029740427
65	0x3d8ec1ba	0.06970544
66	0x3d9376e6	0.072004125
67	0x3d54309d	0.051804174
68	0x3d92730e	0.07150851
69	0x3d9509ae	0.07277237
70	0x3da4afa1	0.08041311
71	0x3b0183bd	0.001976236
72	0xbd12ddf7	-0.035856213
73	0x3d989f98	0.07452315
74	0xbd2b47c3	-0.041816484
75	0x3d2b292b	0.041787308
76	0x3d844711	0.06458867
77	0xbd220b68	-0.03956166
78	0x3b8052ce	0.003916121
79	0xbc885292	-0.016640935
80	0x3d8f6591	0.07001794
81	0x3d7f228e	0.062288813
82	0x3c862b07	0.016377939
83	0x3ca63807	0.020290388
84	0xbcefc1d8	-0.029267237
85	0xbd665cea	-0.056240954
86	0x3caf8024	0.021423407
87	0xbd520aa1	-0.051279668
88	0xbd98b8d4	-0.07457128
89	0x3d11b71e	0.035575025
90	0x3d9ac1de	0.075565085
91	0x3c60cdce	0.013720943
92	0x3d2372d9	0.03990445
93	0xbc9ef80b	-0.019405385
94	0x3d38ca4c	0.0451148
95	0xbd8e3397	-0.06943434
96	0x3d574bbf	0.05256247
97	0xbd8368b7	-0.06416457
98	0x3d8fdefa	0.07024951
99	0xbdae9998	-0.085253894
100	0x3d26ce27	0.040723946
101	0xbd9bffd8	-0.07617158
102	0x3da24e7c	0.07925126
103	0xbd706d18	-0.05869779
104	0x3d20f09d	0.039291967
105	0x3d517ccd	0.05114441
106	0x3d1f6ba2	0.038921006
107	0x3d0ef97c	0.034905896
108	0x3d19b58b	0.03752665
109	0xbd9d4961	-0.076800115
110	0x3cfa8bfd	0.03058433
111	0xbcd1b3e4	-0.025598474
112	0x3cb96a88	0.022633806
113	0xbdac64c2	-0.084176555
114	0xbd9d1d42	-0.07671596
115	0x3cf5e6c1	0.030017259
116	0xbce1ccfe	-0.027563568
117	0xbd2cb2ad	-0.042162586
118	0x3ca50fdd	0.020149166
119	0x3d89bec8	0.06725842
120	0x3d883dab	0.06652387
121	0xbcd0e769	-0.02550097
122	0x3d35f0f2	0.044419236
123	0xbd6b767a	-0.057486035
124	0x3d0591ea	0.032609858
125	0x3d366619	0.04453096
126	0x3d1676e8	0.03673449
127	0xbdaa3646	-0.08311133
128	0xbd83a3ee	-0.064277515
129	0x3be6ef38	0.00704756
130	0xbd7726a1	-0.060339574
131	0xbc4077fa	-0.011747355
132	0x3d80f964	0.062975675
133	0xbc83131f	-0.016000329
134	0x3d0ffd62	0.035153754
135	0xbb8f1ecd	-0.0043676854
136	0xbc877019	-0.016532945
137	0x3d83cd0a	0.064355925
138	0x3d8e5911	0.06950582
139	0xbd6868a7	-0.05674043
140	0x3d7f092a	0.0622646
141	0xbd4fe71c	-0.050757512
142	0x3c9d9468	0.019235805
143	0xbd8d021c	-0.06885168
144	0xbd727d7a	-0.059201695
145	0x3d58e278	0.052950352
146	0x3daad8aa	0.08342107
147	0x3d9c5b37	0.07634585
148	0xbc6909dd	-0.014223543
149	0x3d82e9da	0.0639226
150	0xbc819e7e	-0.015822645
151	0x3d84b58a	0.06479938
152	0xbcf7e6a8	-0.030261353
153	0xbda9edfa	-0.082973436
154	0xbc612356	-0.013741335
155	0x3d707180	0.058701992
156	0x3d89ed57	0.06734722
157	0x3d0c31b6	0.034227096
158	0xbccf4ada	-0.025304247
159	0x3cf050d9	0.029335426
160	0xbd5e0c6f	-0.054211076
161	0x3db52927	0.0884574
162	0xbbe107c3	-0.0068673803
163	0xbda367d7	-0.0797879
164	0x3d23713f	0.03990292
165	0xbd84702e	-0.06466709
166	0x3cc97cf9	0.024595724
167	0x3d9c7ef8	0.07641405
168	0xbc824fae	-0.015907135
169	0xbd363290	-0.044481814
170	0x3da9f35f	0.082983725
171	0xbda09aaa	-0.07842
172	0x3db4ad4b	0.088221155
173	0x3cb34579	0.021883713
174	0x3d468882	0.048470028
175	0x3ce8ac47	0.02840246
176	0xbd0a61c9	-0.03378466
177	0xbcd468e6	-0.025928926
178	0xbd33f584	-0.043935314
179	0x3d842ed4	0.06454244
180	0xbd3e7e96	-0.04650744
181	0x3d360ea5	0.04444756
182	0x3ca28e38	0.019843206
183	0x3da1f155	0.079073586
184	0xbccbea40	-0.024891973
185	0x3d78dafc	0.060755715
186	0x3d685f37	0.05673143
187	0x3c3021aa	0.010750214
188	0x3d342c74	0.043987706
189	0x3d94a2e2	0.0725763
190	0xbd866955	-0.06563059
191	0x3d61a343	0.05508734
192	0xbd9328f0	-0.071855426
193	0xbcb287df	-0.021793304
194	0xbd615dc5	-0.055021066
195	0xbc5d5fa3	-0.013511571
196	0x3d9381f6	0.072025225
197	0xbda21dff	-0.079158776
198	0x3d6128d9	0.054970596
199	0x3d2484cb	0.040165704
200	0xbd2e28df	-0.042519446
201	0xbd5d52f0	-0.054034173
202	0x3d5e65cb	0.054296296
203	0xbd773c9a	-0.06036053
204	0x3cb5cb76	0.022191744
205	0xbd00aa2b	-0.031412285
206	0xbd4c07f6	-0.04981228
207	0x3d55c791	0.052192274
208	0xbdae2907	-0.08503919
209	0x3d7d91b8	0.061906546
210	0xbd793314	-0.060839728
211	0x3b5c9dad	0.0033663318
212	0x3cdc701b	0.026908925
213	0x3d93549d	0.07193873
214	0xbd6426ff	-0.055701252
215	0xbbd66a3d	-0.0065434263
216	0xbd3d585b	-0.04622684
217	0xbda62a9e	-0.08113597
218	0x3d9b685d	0.07588265
219	0x3ce513ef	0.027963607
220	0xbd80353b	-0.06260153
221	0xbcc34101	-0.023834707
222	0xbd9bd04c	-0.07608089
223	0xbc278016	-0.010223409
224	0xbd613ae9	-0.05498782
225	0x3b86032f	0.004089735
226	0x3d80e3c6	0.06293444
227	0x3d3a4773	0.045478296
228	0xbd652fed	-0.05595391
229	0xbd84d198	-0.06485289
230	0x3d4c21b2	0.04983682
231	0xbd26e450	-0.04074508
232	0xbd882f26	-0.06649618
233	0xbd2f10f9	-0.042740796
234	0xbd9a85d2	-0.075450554
235	0xbdaa618d	-0.083193876
236	0x3c38700c	0.011257183
237	0x3d3a8772	0.045539327
238	0x3d542f75	0.05180307
239	0xbd231150	-0.039811432
240	0x3d013d91	0.031552855
241	0x39e4da4b	0.0004365019
242	0x3a44e074	0.0007510253
243	0xbd677fbe	-0.05651831
244	0xbd8a8db3	-0.06765308
245	0x3d952961	0.07283283
246	0x3da1de64	0.07903746
247	0xbd674364	-0.056460753
248	0x3d5cd86f	0.053917345
249	0x3bf069d6	0.0073368354
250	0xbcd27b02	-0.02569342
251	0x3d67ec9a	0.056622125
252	0x3d032c8c	0.032024905
253	0xbd088950	-0.033334076
254	0x3bcde481	0.0062833433
255	0x3dae4795	0.08509747

actor_encoder.2.bias f4 [128]
0	0xbd8f3c72	-0.06993951
1	0xbd0e74fa	-0.034779526
2	0x3a777f7f	0.00094413006
3	0x3c97d98d	0.018536353
4	0x3cb611de	0.022225317
5	0x3d55ea99	0.052225683
6	0xbbcfa208	-0.0063364543
7	0xbdaa8fa2	-0.08328177
8	0xbd4e487b	-0.05036209
9	0xbd8fb29e	-0.070164904
10	0x3d87ce73	0.06631174
11	0x3d75884e	0.059944443
12	0x3cbfeda6	0.02342875
13	0x3d7121a4	0.058869973
14	0x3cba8a01	0.022770884
15	0x3d188775	0.037238557
16	0x3c686dd4	0.014186341
17	0xbd994707	-0.074842505
18	0xbc49b0f1	-0.0123102525
19	0xb9895d1c	-0.00026200048
20	0xbda3793b	-0.07982107
21	0xbd44e950	-0.048074067
22	0x3d0e7749	0.034781728
23	0xbd1517c0	-0.036399603
24	0x3da510c7	0.08059841
25	0x3d78225f	0.060579654
26	0x3d50eb90	0.0510059
27	0xbd2612af	-0.04054516
28	0xbca2b3f4	-0.019861199
29	0x3d2b569a	0.041830637
30	0xbc05b911	-0.008161799
31	0x3d4a9e75	0.049467523
32	0xbd05998a	-0.03261713
33	0x3d829d3f	0.063776486
34	0x3d44f35f	0.04808366
35	0xbd980a78	-0.07423872
36	0xbd92445a	-0.07141943
37	0x3c53cdee	0.012927515
38	0x3d37c5cf	0.04486638
39	0xbc7a7eab	-0.015288989
40	0x3d3f16d2	0.046652623
41	0x3bd2d986	0.006434622
42	0xbd7177b7	-0.05895206
43	0x3d851dde	0.06499837
44	0x3d5cc519	0.053898904
45	0x3c27b48d	0.010235918
46	0x3c6df0f2	0.014522778
47	0xbca69af0	-0.020337552
48	0xbcc7573c	-0.024333589
49	0xbc48f75c	-0.012266006
50	0xbcd31de4	-0.025771089
51	0x3dad6264	0.08466032
52	0x3cfca404	0.030839927
53	0x3d3f3f87	0.046691444
54	0xbc86a837	-0.016437633
55	0x3d4d2d9c	0.050092325
56	0xbd95efd4	-0.07321134
57	0x3cd3d998	0.025860593
58	0xbd346e05	-0.044050235
59	0xbd75c89d	-0.060005773
60	0xbd23b6d9	-0.0399693
61	0xbd578c0b	-0.05262379
62	0x3c3d3a10	0.011549488
63	0x3c91885d	0.017765218
64	0x3d2777bf	0.040885683
65	0xbd4183a6	-0.04724469
66	0x3c9c25a1	0.019060912
67	0x3b34efc2	0.0027608727
68	0x3d945558	0.072428405
69	0x3d9af943	0.07567074
70	0xbd876cba	-0.06612535
71	0x3d804c02	0.06264497
72	0xbd5b6c51	-0.053570095
73	0x3da3f107	0.08004957
74	0xbd1fc35a	-0.03900466
75	0xbd93cf0b	-0.07217225
76	0x3d4e4e51	0.050367657
77	0xbc2ce5f5	-0.010552873
78	0x3cb39d51	0.0219256
79	0x3db3591c	0.08757231
80	0x3dab39c0	0.08360624
81	0xbac46002	-0.0014982226
82	0x3bc3413e	0.005958705
83	0xbce50daa	-0.027960617
84	0x3d4b8ba5	0.049693722
85	0x3d51aae9	0.051188383
86	0xbbafe245	-0.0053675496
87	0x3d848d82	0.06472303
88	0x3bcc27fe	0.0062303534
89	0xbcb327d7	-0.021869583
90	0x3d8abfb1	0.067748435
91	0xbcef406b	-0.029205522
92	0xbd0de779	-0.034644578
93	0x3bf6ea56	0.0075352592
94	0xbc025daa	-0.007956902
95	0xbd30f88f	-0.043205794
96	0x3cc3e459	0.023912596
97	0x3d46e1dd	0.048555244
98	0xbd934eac	-0.0719274
99	0x3d9e6812	0.077346936
100	0xbd7c1caf	-0.061550792
101	0xbd2fc657	-0.04291376
102	0xbc28a9e7	-0.010294414
103	0xbdafea35	-0.08589593
104	0xbcc84998	-0.024449155
105	0xbd099c9a	-0.033596613
106	0xbd46825c	-0.048464164
107	0x3b02c47d	0.0019953542
108	0x3cc7b86f	0.024379937
109	0xbc1d76c6	-0.009610837
110	0xbdb55f35	-0.0885605
111	0x3d5b2833	0.053505134
112	0x3dbaf268	0.091282666
113	0x3c3934ca	0.01130409
114	0xbd63b908	-0.05559638
115	0x3d8b6f25	0.068083085
116	0xbd13e527	-0.03610721
117	0xbd578bf1	-0.052623693
118	0xbbd624a7	-0.006535131
119	0xbd026eee	-0.031844072
120	0xbd09edb2	-0.03367395
121	0xbb7cf62a	-0.0038598874
122	0xbc4c7a3f	-0.012480318
123	0xbd31c722	-0.0434028
124	0xbda4cb1b	-0.08046552
125	0xbda68e44	-0.08132604
126	0xbd6e9720	-0.058249593
127	0xbd20549c	-0.03914319

actor_head.weight f4 [2, 128]
0	0x3b8b1e67	0.0042455676
1	0x3b691347	0.0035564469
2	0x3a9ee983	0.0012124035
3	0x3aeb246a	0.0017939929
4	0x3b1214ae	0.0022290158
5	0x3b8f19d8	0.0043670945
6	0x3b243143	0.0025053776
7	0x39d155f7	0.00039927635
8	0x3b5833d3	0.0032989874
9	0x3b6dc277	0.003627924
10	0x3ad71daa	0.0016412039
11	0x3b5ac082	0.0033378904
12	0x3b873994	0.004126737
13	0xbb9cdb57	-0.0047868895
14	0x39cc6dc4	0.00038991694
15	0x3ba16350	0.004925169
16	0x39257b5f	0.00015781586
17	0x3a0c3001	0.00053477293
18	0x39c7eae1	0.00038131236
19	0xbafec9a9	-0.0019438762
20	0xbb2eec5b	-0.0026691172
21	0x3b371dc5	0.0027941328
22	0x3baecf51	0.0053347726
23	0x3bc23d1b	0.0059276945
24	0x3b0b613b	0.002126767
25	0xbac957bb	-0.0015361229
26	0x3baa744f	0.0052018533
27	0x00000000	0.0
28	0x3a20a31f	0.00061278226
29	0xba42248c	-0.00074059586
30	0x3ae2383a	0.0017259188
31	0x3b06d826	0.0020575612
32	0x3bc95949	0.006144677
33	0x3b4e2950	0.003145773
34	0x3b1d49d2	0.00240003
35	0x3c09338a	0.008374104
36	0x3b38b138	0.0028181802
37	0xbbfd6899	-0.0077334163
38	0x3bc51099	0.0060139415
39	0x3a8a1608	0.001053513
40	0x3aeb698e	0.0017960535
41	0x3ba27d5e	0.0049587926
42	0x3ba7d2d8	0.00512157
43	0x3bb6f333	0.005583191
44	0x3a3eddbc	0.0007280966
45	0x3b72c312	0.003704254
46	0x3a738e8a	0.00092909543
47	0x3b857170	0.0040723607
48	0x3b577781	0.0032877626
49	0x3b7cfbee	0.003860231
50	0xbb85cf34	-0.0040835384
51	0x3acf9358	0.0015836759
52	0x3aa3a4a1	0.0012484976
53	0x3b7c3f8c	0.0038490025
54	0xbbc2e4bb	-0.005947677
55	0x3bbd3f47	0.0057753655
56	0x00000000	0.0
57	0x3b404040	0.002933517
58	0xba63668a	-0.00086746423
59	0x3b9b3fad	0.0047378154
60	0x3bb0966d	0.005389026
61	0x3b083464	0.002078318
62	0xbb6999e6	-0.003564471
63	0x3b588298	0.0033036824
64	0x3b71c4a7	0.0036890896
65	0xba445a28	-0.0007490241
66	0x3a9ea268	0.0012102844
67	0x3bd5dff2	0.0065269405
68	0x3b847518	0.004042279
69	0x3b25da7c	0.0025307229
70	0x3b793ef4	0.0038031908
71	0x3b47b684	0.0030473778
72	0x3b94a3a6	0.00453611
73	0x3ac472b7	0.0014987801
74	0x3b420ae3	0.002960854
75	0x3b5d288e	0.0033746096
76	0xbaaa7128	-0.0013003694
77	0x3b90e78e	0.0044221347
78	0x399c487b	0.0002980864
79	0x3b2ac4a5	0.002605715
80	0x39910330	0.0002765893
81	0x3bb8f8fb	0.005644915
82	0x3b9a2bdc	0.0047049355
83	0xb882fcce	-6.2459716e-05
84	0x3bb88785	0.0056313896
85	0x3bd938bb	0.0066290773
86	0x3b90269a	0.004399133
87	0x3b556ed6	0.0032567284
88	0x3a8378d7	0.001003052
89	0xbb856ee1	-0.0040720557
90	0x3b87df68	0.004146505
91	0x3b90624e	0.00440625
92	0x3b832e61	0.0040033315
93	0x3b95a325	0.0045665675
94	0x3a767dbe	0.00094028923
95	0x3b21b8ac	0.0024676723
96	0x3b981552	0.0046412135
97	0x3a2fe5e5	0.0006709977
98	0x3b521529	0.003205607
99	0xbade2d6c	-0.0016950793
100	0x3ac26837	0.0014832084
101	0xbb92728a	-0.0044692205
102	0x3ba201ff	0.0049440856
103	0x3b7e16af	0.0038770845
104	0x3b9c742b	0.0047745905
105	0x3ba27986	0.0049583344
106	0x3b9698cf	0.004595853
107	0x3bcca7a0	0.0062455684
108	0x3b4f9db4	0.0031679692
109	0x3b25528f	0.002522621
110	0x3be5f364	0.00701754
111	0x3b154d49	0.0022781661
112	0x3a254ec3	0.0006305987
113	0x3b9a3054	0.004705468
114	0xbb7aa69a	-0.0038246275
115	0x3b34c0a3	0.002758064
116	0x3af68980	0.0018809289
117	0x3b5269ad	0.0032106445
118	0x391060fc	0.0001376904
119	0x3ae75e3d	0.0017651987
120	0xb9445f38	-0.00018727488
121	0x3a497feb	0.0007686603
122	0x3a0b6699	0.00053177174
123	0x3aaf4eea	0.0013374959
124	0x39a216fd	0.00030916175
125	0x3b48caa9	0.0030638373
126	0x3b8c2156	0.004276435
127	0x3b714380	0.0036813915
128	0x3b30c645	0.0026973647
129	0xbbe7b981	-0.0070716743
130	0xbba0b0d6	-0.004903893
131	0xbb3a2597	-0.0028403753
132	0xbba62e33	-0.0050714253
133	0x3b8b6095	0.004253457
134	0x3aa44417	0.0012532499
135	0x3bd5d635	0.0065257796
136	0x3ac69815	0.0015151525
137	0xba2c5761	-0.00065743
138	0xbb121ce2	-0.0022295048
139	0xba2f4768	-0.00066863606
140	0x3b13f9e9	0.0022579378
141	0x3a73daa2	0.0009302293
142	0x3b83a5ca	0.0040175663
143	0xb8f37b52	-0.00011610113
144	0xb7a760fe	-1.9953117e-05
145	0x3aeb341b	0.0017944606
146	0x3b0852c7	0.0020801292
147	0xb9fcd810	-0.00048226165
148	0x38f45c98	0.000116520736
149	0x3a07e9ce	0.0005184681
150	0xbbbc6116	-0.0057488782
151	0xba787ae1	-0.00094787596
152	0xbb22eadb	-0.0024859223
153	0x3aa835ea	0.001283345
154	0xbbaffe8a	-0.0053709196
155	0x00000000	0.0
156	0x3b7ffeaf	0.0039061715
157	0x3a6407e0	0.0008698683
158	0x3afb6c86	0.0019182123
159	0x3ad0826a	0.0015908007
160	0xb97c7a3b	-0.00024078127
161	0x3b5d59a0	0.0033775344
162	0x3a98d144	0.0011659046
163	0xba48c0a0	-0.0007658098
164	0xbba1357e	-0.004919707
165	0x3b042704	0.0020164857
166	0xba341302	-0.00068692875
167	0x3b2714a3	0.0025494478
168	0x3b3fad4d	0.0029247582
169	0xbbb70da3	-0.0055863424
170	0xbadba2ca	-0.0016756889
171	0xbc039353	-0.00803073
172	0xbba6c241	-0.005089075
173	0xbbfcb96b	-0.007712533
174	0x3bf1d564	0.0073801745
175	0x3a0fe6d6	0.00054894143
176	0x3a18e0c3	0.0005831832
177	0xbc0d635e	-0.008629648
178	0x3b94b3df	0.004538044
179	0x3ae80388	0.0017701248
180	0x3bdfb1bc	0.0068266075
181	0xbad2e51e	-0.0016090011
182	0x3bc96c25	0.006146925
183	0xbb1b0e0f	-0.0023659503
184	0x00000000	0.0
185	0x394731c9	0.00018996665
186	0xbb054962	-0.002033793
187	0xbb2b0ca2	-0.002610006
188	0xbb82b762	-0.003989146
189	0x3baec682	0.0053337226
190	0x3b23fdbc	0.0025023064
191	0x3a89384e	0.0010469051
192	0x3932c490	0.00017048628
193	0x3b8138d6	0.003943543
194	0x3b6d30a5	0.0036192324
195	0xbb4642b3	-0.0030252158
196	0xbbad3c0e	-0.0052867
197	0x3b30d86c	0.0026984466
198	0x3b10efdb	0.0022115621
199	0x3b30cac0	0.0026976317
200	0xbb3f844f	-0.002922315
201	0x3afdf199	0.001937437
202	0x3b0b900b	0.0021295573
203	0xbbb710ff	-0.005586743
204	0x3b8f0efb	0.0043657995
205	0xbb3b1900	-0.0028548837
206	0x3b02b4e5	0.0019944247
207	0x3a50a874	0.0007959672
208	0x3ba30df8	0.0049760304
209	0xba8fb472	-0.0010963811
210	0x3a23b144	0.0006244371
211	0x3bc181d8	0.005905371
212	0x3b93ed9d	0.0045144097
213	0xbbe32ef8	-0.0069330893
214	0xbb152452	-0.0022757244
215	0xbaab86e6	-0.0013086468
216	0x3ab789e6	0.0014002889
217	0xba8e4810	-0.0010855217
218	0xbb86334e	-0.0040954715
219	0xbba88233	-0.005142474
220	0xb9755973	-0.00023398343
221	0xbb6b5c28	-0.0035913084
222	0x3a61f445	0.0008619468
223	0xb95a4331	-0.00020815131
224	0xbaa83331	-0.0012832639
225	0x3b514bd1	0.003193606
226	0xbb014e3b	-0.0019730467
227	0xbbd5523c	-0.0065100472
228	0x3b6a9f80	0.0035800636
229	0xbb6d1873	-0.0036177903
230	0xba504abb	-0.0007945706
231	0x3b80c900	0.003930211
232	0xbac3e42d	-0.0014945321
233	0xbb7be19c	-0.0038434034
234	0xbb148b80	-0.0022666156
235	0xbb0bc183	-0.0021325059
236	0x394f4a66	0.00019768774
237	0x392cf2b1	0.00016493608
238	0x3b1d42b3	0.0023996055
239	0x3ab459a1	0.0013759622
240	0xbbd90f60	-0.0066241473
241	0xbba92ea2	-0.00516303
242	0x3bc043ff	0.0058674808
243	0xba7a79c7	-0.00095548894
244	0x3b019dc7	0.001977788
245	0xba9782ec	-0.0011559404
246	0x3c0205d7	0.007935963
247	0x3bdeaaa9	0.0067952466
248	0x3b9cea96	0.004788707
249	0x3b23f034	0.0025014998
250	0x3b306e93	0.0026921376
251	0x3a0109e3	0.00049224327
252	0x3ab788cc	0.0014002561
253	0x3a6c5372	0.000901512
254	0xbb1b6f30	-0.0023717396
255	0xba1b8dea	-0.00059339276

actor_head.bias f4 [2]
0	0x3b499fa2	0.0030765315
1	0xb973f1c0	-0.00023264345

critic_encoder.0.weight f4 [128, 11]
0	0x3dfa9c08	0.12236792
1	0x3d9059f3	0.070484065
2	0x3dc9ab17	0.09847086
3	0xbe798329	-0.2436644
4	0x3e22648e	0.15858671
5	0x3e33ceec	0.17559403
6	0xbe83f67d	-0.25773993
7	0x3e3fa7ab	0.18716304
8	0xbda8a339	-0.08234257
9	0xbde9aef2	-0.11410321
10	0xbe22181d	-0.15829511
11	0x3e0d8f34	0.13824159
12	0x3d862e5a	0.065518096
13	0x3d60892b	0.054818314
14	0xbe93a27b	-0.288349
15	0x3c444955	0.011980374
16	0xbdcefa9d	-0.101063944
17	0xbe3f6895	-0.18692239
18	0xbd8b2cfe	-0.06795691
19	0x3e96ffb0	0.2949195
20	0x3e7dad17	0.2477306
21	0xbe92163f	-0.28532597
22	0x3e6e7b0f	0.2328913
23	0x3e37074d	0.17873879
24	0x3e8639db	0.26216015
25	0xbd44c2f3	-0.04803748
26	0x3e0f676a	0.14004293
27	0xbe29466a	-0.16530767
28	0x3d07c1ea	0.033143915
29	0x3e31f10c	0.17377108
30	0x3e94ed68	0.29087377
31	0x3e889fbf	0.26684377
32	0x3e85b1ba	0.26112157
33	0xbe911f59	-0.2834423
34	0x3e4d8786	0.2007123
35	0x3d839df7	0.06426614
36	0x3e977ed2	0.29588944
37	0xbe833c51	-0.25631955
38	0x3e1d2691	0.15346743
39	0x3e67f15f	0.2265067
40	0xbe650dd9	-0.22368564
41	0x3d8627d9	0.06550569
42	0x3e8fd7d2	0.28094345
43	0x3e8bae57	0.27281448
44	0x3ddf7842	0.10911609
45	0xbe28f780	-0.16500664
46	0xbe01eefa	-0.12688819
47	0xbd36beff	-0.04461574
48	0xbe827948	-0.25483155
49	0xbdef7129	-0.116915055
50	0x3e79442a	0.24342409
51	0xbe6343c5	-0.22193821
52	0x3e500e31	0.20317914
53	0xbe07e1d1	-0.13269736
54	0x3dbb3575	0.091410555
55	0xbe281728	-0.16415083
56	0xbd7d4278	-0.061830968
57	0xbe966d8d	-0.29380456
58	0xbca8a307	-0.02058555
59	0x3e18aeaf	0.14910387
60	0x3e8ccfaa	0.27502185
61	0xbe505bce	-0.2034752
62	0xbe625a01	-0.22104646
63	0xbe5612fc	-0.2090568
64	0xbd5cd34e	-0.053912453
65	0xbe6925c4	-0.22768313
66	0x3bb2ac3c	0.005452661
67	0xbe3a7cc6	-0.1821166
68	0xbafefa67	-0.0019453288
69	0x3e7dc8a0	0.24783564
70	0x3e928a9a	0.2862137
71	0xbe936fa3	-0.2879611
72	0xbe14210f	-0.14465736
73	0xbe334bd9	-0.17509402
74	0xbe120243	-0.14258675
75	0x3e9875cb	0.2977737
76	0x3e95ad43	0.2923375
77	0x3e7e0c69	0.24809422
78	0xbd548fff	-0.051895138
79	0x3baee9f5	0.0053379484
80	0xbe578520	-0.21046877
81	0xbe41eb49	-0.1893741
82	0x3de28f9a	0.11062546
83	0xbe40dabe	-0.18833444
84	0xbc6d64a7	-0.014489329
85	0xbddc5d27	-0.10759955
86	0x3da8775c	0.08225891
87	0x3e2a23c8	0.16615212
88	0xbe9bba3f	-0.30415532
89	0x3dc900bd	0.09814594
90	0xbe20154c	-0.15633124
91	0x3d49229f	0.049105283
92	0xbe00f035	-0.12591632
93	0x3e1f65d5	0.1556619
94	0xbd9e2f7f	-0.07723903
95	0x3e936e7a	0.28795224
96	0xbe4003fc	-0.1875152
97	0x3e83c0f4	0.2573315
98	0xbdc4b548	-0.09604889
99	0x3e7baca7	0.2457758
100	0xbd3b8327	-0.045779373
101	0x3d45227b	0.048128586
102	0x3e6485bc	0.2231664
103	0xbe8acddc	-0.27110183
104	0xbde80ed4	-0.11330953
105	0x3caa2f87	0.020774616
106	0xbdc17693	-0.09446444
107	0xbcbdd91c	-0.023174815
108	0xbe9371cc	-0.28797758
109	0x3e648ac3	0.22318558
110	0x3ac3c580	0.0014936179
111	0xbdc50643	-0.09620335
112	0x3e8ab51d	0.27091303
113	0xbdbf80c8	-0.09350735
114	0xbd3205fe	-0.043462746
115	0xbe7e9b46	-0.2486392
116	0xbcf9257f	-0.030413387
117	0x3dda4eab	0.10659536
118	0x3dd6a8d6	0.10481422
119	0x3e294782	0.16531184
120	0xbd4cf410	-0.050037444
121	0x3e5399c4	0.20664126
122	0x3e59914a	0.2124683
123	0xbe50d821	-0.20394947
124	0x3e8da0f6	0.27661866
125	0xbe5ac975	-0.21365912
126	0x3d9ebb00	0.07750511
127	0xbdd6dbce	-0.10491143
128	0x3e818ed7	0.2530429
129	0xbd25a823	-0.04044355
130	0x3de753e7	0.112953
131	0xbe52834e	-0.20557901
132	0x3e63070a	0.22170654
133	0xbce564a9	-0.0280021
134	0x3e59d9a5	0.21274431
135	0x3e8cf743	0.27532396
136	0x3cba516a	0.0227439
137	0xbdae75b1	-0.085185416
138	0x3cfa4b7a	0.030553568
139	0xbe3badc6	-0.18328008
140	0x3e118588	0.14211094
141	0x3e52f0c1	0.20599653
142	0xbe5c259f	-0.21498726
143	0xbe25aae2	-0.16178468
144	0x3e89836c	0.2685808
145	0x3d063f55	0.032775242
146	0xbddb8386	-0.107184455
147	0xbd0c1cf9	-0.034207318
148	0x3d6bccf6	0.057568513
149	0x3e6f380b	0.23361222
150	0x3e5c73b7	0.21528517
151	0xbe66d6e8	-0.22542918
152	0x3d6fc517	0.05853757
153	0x3c5f80aa	0.013641516
154	0x3da27af5	0.079336084
155	0xbd4b41e1	-0.049623374
156	0xbe83389e	-0.25629133
157	0x3de4b109	0.11166579
158	0xbe8374b3	-0.25674972
159	0x3dc1b873	0.09459009
160	0xbdd92ede	-0.10604642
161	0x3e279510	0.16365457
162	0x3e6f62a5	0.23377474
163	0x3de091e6	0.10965328
164	0x3e9cad71	0.30601075
165	0xbe1859c2	-0.1487799
166	0x3d252123	0.040314805
167	0xbe19e9dd	-0.15030618
168	0xbc8d117c	-0.017220251
169	0xbe1396d6	-0.14413008
170	0xbe285ba8	-0.16441214
171	0x3e3988a6	0.18118533
172	0x3e31a88f	0.17349456
173	0x3e6a2b86	0.22868165
174	0xbe8f44b7	-0.27982113
175	0xbe6074e1	-0.21919586
176	0xbe2adf42	-0.16686729
177	0x3e08bd4e	0.13353464
178	0xbdb18f50	-0.08669913
179	0x3dcb766f	0.09934699
180	0xbe70d0e3	-0.23517184
181	0xbe81d939	-0.2536104
182	0x3e0079f6	0.12546524
183	0x3e8ef50a	0.27921325
184	0xbd0a9651	-0.03383476
185	0x3dde5efe	0.10857962
186	0xbe916533	-0.2839752
187	0xbdca2a84	-0.098713905
188	0xbe704dea	-0.23467222
189	0x3e31c107	0.1735879
190	0xbe6737b7	-0.22579847
191	0xbe29c00a	-0.16577163
192	0xbe334ad3	-0.17509012
193	0x3d56c17b	0.05243061
194	0xbe1bed0b	-0.15227143
195	0xbe653961	-0.2238517
196	0xbe430e16	-0.19048342
197	0x3c73c434	0.014878321
198	0xbe22c35e	-0.15894839
199	0x3e339eb3	0.17541008
200	0x3d21f88b	0.03954367
201	0xbd274d3d	-0.040845145
202	0x3e1d884c	0.15384024
203	0xbdf91cf5	-0.12163726
204	0x3e11dae9	0.14243664
205	0x3e54000a	0.2070314
206	0xbe98965e	-0.2980222
207	0xbe37bac8	-0.17942345
208	0x3e88e192	0.26734596
209	0x3d7964c7	0.060887124
210	0xbe732f67	-0.23748551
211	0xbdb448fe	-0.08802985
212	0x3c9f1ecd	0.019423867
213	0xbe65f332	-0.22456053
214	0xbe725abe	-0.23667428
215	0xbcb9e9af	-0.022694437
216	0x3e46c75c	0.19411987
217	0xbe864097	-0.26221153
218	0xbc905e74	-0.017623164
219	0xbc8fc381	-0.017549278
220	0x3e458a43	0.19291024
221	0x3e473506	0.1945382
222	0x3d01c6b9	0.031683657
223	0x3e8535dc	0.26017654
224	0x3dadac6c	0.084801525
225	0xbb63b098	-0.003474271
226	0x3e59bb3d	0.21262832
227	0xba02d46e	-0.0004990761
228	0xbe362375	-0.17786963
229	0x3e6f85cf	0.23390888
230	0xbe78782a	-0.24264589
231	0x3e8e1225	0.27748218
232	0x3d4e4bca	0.050365247
233	0x3e509413	0.20368986
234	0xbe6aeb72	-0.22941378
235	0x3d87d0c8	0.06631619
236	0x3e6b768d	0.22994442
237	0xbe8795e1	-0.26481536
238	0xbdf877b5	-0.12132207
239	0xbe1265d6	-0.1429666
240	0xbd9c93d0	-0.076453805
241	0x3e23d985	0.16000946
242	0x3d91df49	0.071226664
243	0xbe0980d8	-0.13428056
244	0xbd33d18f	-0.043901023
245	0x3e6e21f0	0.23255134
246	0x3cd8a9f6	0.026448231
247	0x3e97a6a2	0.29619318
248	0x3e2f5b4c	0.1712467
249	0xbdd52b1f	-0.10408615
250	0xbe1b6276	-0.15174279
251	0xbe742d2c	-0.23845357
252	0x3e76ddc6	0.24108037
253	0xbe808d7a	-0.25107938
254	0x3e99dd15	0.30051485
255	0xbde46859	-0.11152715

critic_encoder.0.bias f4 [128]
0	0x3d8e89fc	0.06959912
1	0x3e34ec58	0.17668283
2	0xbe6327bb	-0.22183125
3	0x3e184b10	0.14872384
4	0x3e81cf73	0.25353584
5	0xbd7ce2de	-0.061739795
6	0x3defddbf	0.117122166
7	0xbe6acb0a	-0.22929016
8	0xbdb7d8cf	-0.089769
9	0x3d9f586c	0.07780537
10	0xbdd3e164	-0.10345724
11	0xbe521ccb	-0.20518796
12	0xbe83610b	-0.25659975
13	0x3d5c43d3	0.05377562
14	0x3e976a72	0.295734
15	0xbe761b5a	-0.24033871
16	0x3e27a24e	0.16370508
17	0x3e2a17b5	0.16610606
18	0x3c2dab5f	0.01059994
19	0xbe69de25	-0.22838648
20	0x3cb05d66	0.02152891
21	0x3e96f990	0.29487276
22	0xbe8b552d	-0.2721342
23	0x3da6a423	0.08136775
24	0x3e2abbce	0.16673204
25	0xbe3968f7	-0.18106447
26	0xbdebaa33	-0.11507072
27	0x3cb8f895	0.02257947
28	0x3d26fe21	0.0407697
29	0x3e28a3fe	0.16468808
30	0xbe817a1a	-0.2528847
31	0x3df59235	0.119907774
32	0xbb6b48a0	-0.0035901442
33	0xbe8cca7c	-0.27498233
34	0xbe8c1fc9	-0.27368
35	0xb9aa19c4	-0.00032444124
36	0xbe84bfbc	-0.25927532
37	0xbe426dd8	-0.18987215
38	0xbd87e1ab	-0.066348396
39	0x3dc289b0	0.09498918
40	0x3db71e74	0.08941355
41	0x3dbe76be	0.09299992
42	0x3b65e3f9	0.003507851
43	0xbdd67c1c	-0.10472891
44	0x3e8ee15b	0.27906308
45	0x3c7c669a	0.0154053215
46	0xbd731f0b	-0.059355777
47	0xbe6a38ab	-0.2287318
48	0xbd8482a1	-0.06470228
49	0x3bc70075	0.0060730525
50	0xbdb4663a	-0.08808561
51	0xbe8a25df	-0.26982018
52	0x3df7c283	0.12097647
53	0x3da32903	0.07966807
54	0xbe6ed005	-0.2332154
55	0xbe92b6fc	-0.2865523
56	0x3e40a161	0.18811561
57	0xbe3c5e73	-0.18395405
58	0xbe79ad52	-0.24382523
59	0xba1bceda	-0.0005943604
60	0x3e99fc51	0.30075315
61	0xbddc3324	-0.10751942
62	0x3e23db81	0.16001703
63	0xbd97d6c3	-0.074140094
64	0x3db54051	0.08850158
65	0xbd2e85dc	-0.042608127
66	0xbe88bca3	-0.26706418
67	0xbe606bf1	-0.21916176
68	0x3da92097	0.08258169
69	0x3d7035c6	0.058645032
70	0x3e92fde3	0.28709325
71	0xbda65c30	-0.08123052
72	0xbe24527c	-0.1604709
73	0xbe524284	-0.20533186
74	0x3e91cd1b	0.28476796
75	0x3d727f1d	0.059203256
76	0xbd163051	-0.036667172
77	0x3e0c8ffc	0.137268
78	0x3e6136dd	0.21993585
79	0xbe039b9d	-0.1285233
80	0xbe67ea7f	-0.22648047
81	0xbdc03f06	-0.09387021
82	0x3e66ccc0	0.22539043
83	0xbd3d70b2	-0.046250053
84	0x3c231aca	0.0099551175
85	0x3e5ce7a7	0.21572743
86	0x3e37e388	0.1795789
87	0x3de00399	0.10938186
88	0x3e77b3b4	0.24189645
89	0xbdfb3609	-0.12266166
90	0x3c5b3cfa	0.013381237
91	0x3e907301	0.2821274
92	0x3e33f860	0.17575216
93	0xbc7f950b	-0.015599499
94	0xbde17a71	-0.11009682
95	0x3e96de4e	0.2946648
96	0x3e96fc0a	0.29489166
97	0xbe8330af	-0.2562308
98	0x3e771290	0.24128175
99	0xbe0c4e02	-0.13701633
100	0xbe12c856	-0.14334235
101	0x3e2d1bf3	0.16905193
102	0xbe8c1e8d	-0.27367058
103	0x3e9ae46b	0.30252394
104	0x3da1c80e	0.078994855
105	0xbe70e716	-0.23525652
106	0x3d32eeec	0.043684885
107	0x3de945f1	0.113902934
108	0xbd867659	-0.06565542
109	0xbe3b3703	-0.18282704
110	0xbe665a24	-0.22495323
111	0x3e046aee	0.12931415
112	0x3e949e68	0.29027104
113	0x3db0b416	0.08628099
114	0xbe265283	-0.16242413
115	0x3e2cea18	0.16886175
116	0x3e032f0d	0.12810917
117	0xbe222806	-0.1583558
118	0x3e1ee6e3	0.15517764
119	0x3c538087	0.012909061
120	0xbe7a7998	-0.24460447
121	0xbde95ac8	-0.11394268
122	0xbe810ca7	-0.25204965
123	0xbdb2764f	-0.08713972
124	0x3e7e2d49	0.24821962
125	0xbe9526b1	-0.29131082
126	0xbe0bd98a	-0.13657203
127	0x3db2df56	0.08734004

critic_encoder.2.weight f4 [128, 128]
0	0xbd95a3aa	-0.07306607
1	0xbd7d02d0	-0.06177026
2	0xbc62d274	-0.013844121
3	0x3db5ad47	0.08870941
4	0xbce958c8	-0.028484717
5	0xbd357a58	-0.04430613
6	0x3d5d481c	0.054023847
7	0xba79c519	-0.0009527966
8	0xbc12aa1b	-0.008951689
9	0x3db37a9e	0.08763622
10	0x3dbcabce	0.09212457
11	0xbc4f3fee	-0.012649519
12	0x3da22ee6	0.079191014
13	0xbd06642f	-0.032810386
14	0x3d5dd6b4	0.054159835
15	0xbd87a5a5	-0.06623391
16	0x3d295057	0.041336384
17	0xbcf7730c	-0.030206226
18	0xbda794c9	-0.081826754
19	0xbd4c5c8a	-0.04989294
20	0xbd932a0a	-0.07185753
21	0x3d9406c1	0.07227851
22	0x3cafc93f	0.021458266
23	0x3d31c05b	0.043396335
24	0xbda91564	-0.08256033
25	0x3d5b73af	0.05357712
26	0x3d16cc0d	0.03681569
27	0xbbe08a85	-0.0068524503
28	0x3d4d1436	0.050068103
29	0x3da81ee7	0.08209019
30	0x3c98713a	0.018608678
31	0xbd90fb7b	-0.07079216
32	0x3dabec00	0.08394623
33	0x3da2436b	0.07923015
34	0x3d098ef6	0.033583604
35	0xbd884053	-0.06652894
36	0xbd844dc4	-0.06460145
37	0xbd811d84	-0.06304458
38	0xbc817b27	-0.015805794
39	0x3db8585f	0.090012304
40	0xbb670bf4	-0.0035254927
41	0xbcf958fb	-0.030437937
42	0x3c5d1446	0.013493603
43	0xbcc087fc	-0.023502342
44	0x3c322257	0.010872445
45	0x3d46dd79	0.048551057
46	0x3d0762bb	0.03305314
47	0xbd81dca7	-0.06340914
48	0xbc968a22	-0.018376414
49	0x3d97a53b	0.07404562
50	0xbd839b1f	-0.064260714
51	0xbcf4f32a	-0.029901106
52	0xbd3aca09	-0.045602832
53	0x3d53ce2a	0.051710285
54	0x3d9266bb	0.071485005
55	0xbd734a60	-0.0593971
56	0xbd54af7b	-0.051925164
57	0xbc7b433d	-0.015335855
58	0xbc9c0c49	-0.019048827
59	0x3da52d66	0.080653
60	0x3d4d283c	0.0500872
61	0xbd2fba22	-0.04290212
62	0x3db21201	0.0869484
63	0x3d3c85bd	0.04602598
64	0xbc19895a	-0.009371126
65	0xbd9b8b8c	-0.07594976
66	0x3d98da7a	0.07463546
67	0x3dbad107	0.091219
68	0xbda200d0	-0.07910311
69	0xbd5a70ee	-0.053330354
70	0xbc2a4f5f	-0.0103949
71	0x3c99128a	0.018685598
72	0x3c87d1de	0.016579565
73	0xbd8c56cb	-0.06852492
74	0xbd55cb01	-0.052195553
75	0xbc8886b9	-0.016665803
76	0xbd8f00d4	-0.0698258
77	0x3dc4d40d	0.09610758
78	0x3af67d7e	0.001880571
79	0xbd5b9f41	-0.053618673
80	0xbd4952a3	-0.049151074
81	0x3c672052	0.014106827
82	0xbc9289bb	-0.01788794
83	0x3d5da9b4	0.05411692
84	0xbc8d87d4	-0.017276682
85	0x3d0ad11c	0.03389083
86	0xbd81958a	-0.063273504
87	0xbc9e5d5f	-0.019331632
88	0xbd6cb8fd	-0.057793606
89	0xbd756cd9	-0.05991826
90	0x3da8859d	0.0822861
91	0xbc1e48d2	-0.009660916
92	0x3d94e9e2	0.07271172
93	0x3d5e6040	0.05429101
94	0xbce1ebf4	-0.027578332
95	0x3dc412f5	0.09573928
96	0x3da056f6	0.078290865
97	0x3d24f34b	0.040271085
98	0x3c82816e	0.015930858
99	0xbd571faa	-0.05252043
100	0x3d475476	0.048664533
101	0xbcbda9b1	-0.023152204
102	0x3d728938	0.059212893
103	0xbc9a7c86	-0.018858206
104	0x3d68fdb0	0.05688256
105	0xbb102c31	-0.0021998996
106	0x3d54386b	0.051811617
107	0x3d3f5473	0.046711396
108	0x3cb4bea4	0.02206356
109	0x3d9f130f	0.07767307
110	0x3db6fd13	0.08934989
111	0xbd0e7ab9	-0.034785006
112	0x3d940a35	0.07228509
113	0xbd176436	-0.036960803
114	0xbcf34950	-0.029698044
115	0x3d3a8b47	0.04554298
116	0x3c8b96b9	0.017039644
117	0xbc06e2e0	-0.008232802
118	0xbd54d068	-0.051956564
119	0x3d8cfe83	0.06884482
120	0xbc046262	-0.008080097
121	0x3d16b558	0.036794037
122	0x3d7b99ed	0.061426092
123	0xbd87bf36	-0.066282675
124	0x3d934b73	0.07192125
125	0xbd4c7279	-0.049913857
126	0x3d4e1dac	0.050321266
127	0xb8fea9e6	-0.0001214331
128	0x3b3d61ce	0.0028897407
129	0x3cbcbfd1	0.023040684
130	0xbc0d4ce5	-0.00862429
131	0xbd194990	-0.03742367
132	0x3d872b23	0.066000246
133	0x3d80bd95	0.0628616
134	0x3c91728d	0.017754817
135	0xbd958036	-0.07299845
136	0x3d9250ee	0.07144342
137	0x3da96cc8	0.082727015
138	0x3db6345d	0.08896706
139	0xbd36da5d	-0.04464184
140	0xbc785f7b	-0.015159483
141	0x3d68d222	0.056841023
142	0x3d27bec1	0.0409534
143	0xbd5e44e9	-0.054264937
144	0x3c026064	0.007957552
145	0x3c610552	0.013734179
146	0xbb987b53	-0.0046533733
147	0x3d83a618	0.06428164
148	0x3c8c6c17	0.017141385
149	0xbcf2faf5	-0.029660681
150	0x3d7d886c	0.06189768
151	0xbad2a291	-0.0016070177
152	0x3c01529f	0.007893234
153	0x3d3e438a	0.04645113
154	0x3d1d3547	0.038380887
155	0x3b31346b	0.00270393
156	0xbce07da4	-0.02740366
157	0xbd2ddf6e	-0.042449407
158	0xbc340c0d	-0.010989201
159	0x3d0e9416	0.034809195
160	0x3da8d57d	0.08243845
161	0x3daf77ba	0.08567758
162	0xbd021645	-0.03175952
163	0xbb6136a9	-0.0034364855
164	0x3cc2b5b5	0.023768285
165	0xbd98182d	-0.07426486
166	0x3d7a4be0	0.061107516
167	0x3cc18c9d	0.02362662
168	0xbd44ea90	-0.04807526
169	0x3c822216	0.015885394
170	0xbd0d51e2	-0.034501918
171	0xbd7e01ce	-0.06201344
172	0x3d7d0e5b	0.06178127
173	0x3d94cfa7	0.07266169
174	0x3d1f4452	0.038883515
175	0xbd998abd	-0.07497165
176	0x3d092778	0.033484906
177	0x3db57c6e	0.08861624
178	0xbd8d0a67	-0.0688675
179	0xbd910c5c	-0.070824355
180	0x3c342e32	0.010997342
181	0x3d2b83c1	0.041873697
182	0xbd8ec69a	-0.06971474
183	0x3d15112d	0.036393333
184	0x3d4f4089	0.050598655
185	0x3d484555	0.048894245
186	0xbd7238ca	-0.05913619
187	0x3d875a99	0.06609077
188	0x3da88fec	0.08230576
189	0xbc78d7ff	-0.015188216
190	0xbd1bcf48	-0.038039476
191	0x3d164687	0.036688354
192	0x3c8b4ad6	0.017003458
193	0xbd89d6ae	-0.067304
194	0xbcd842de	-0.026399072
195	0x3c9ffeb1	0.019530626
196	0xbd4681eb	-0.048463743
197	0xbd502d26	-0.050824307
198	0x3d9dc76e	0.07704054
199	0x3da2fe78	0.07958692
200	0xbd07234a	-0.03299264
201	0x3ad29d3d	0.0016068589
202	0xbd8098ea	-0.06279166
203	0xbd51d068	-0.051224142
204	0x3d591186	0.052995227
205	0x3d3adbd3	0.045619797
206	0x3c8f63fa	0.017503727
207	0xbd8b410e	-0.067995176
208	0x3d94c1b4	0.072635084
209	0x3cbff89e	0.02343398
210	0xbd3d803e	-0.04626488
211	0xbcd2b783	-0.02572227
212	0x3d34d9af	0.04415291
213	0xbda3a9a4	-0.07991341
214	0x3c2d26d4	0.010568339
215	0xbd803b3e	-0.062612996
216	0x3d926235	0.07147638
217	0xbc83b616	-0.016078036
218	0x3d68b211	0.056810442
219	0xbd11c655	-0.035589535
220	0x3d02c6cb	0.031927865
221	0x3d8fcb79	0.07021231
222	0x3cac8c3f	0.021062968
223	0x3a2db408	0.0006626253
224	0xbd3a5936	-0.045495234
225	0xbc940178	-0.018067107
226	0xbcd41865	-0.025890538
227	0xbc945161	-0.01810521
228	0xbc8f466f	-0.01748964
229	0x3c2028a2	0.009775313
230	0xbd3ba8c8	-0.04581526
231	0xbd465c49	-0.048427854
232	0xbc7c98a2	-0.01541725
233	0x3d986ee1	0.074430235
234	0x3d1fbc73	0.03899808
235	0x3da25145	0.07925657
236	0x3d046c6b	0.032329958
237	0x3dc82121	0.09771944
238	0xbd6642f5	-0.0562162
239	0xbcbb4c03	-0.022863394
240	0x3c6c18b8	0.01441019
241	0x3d851def	0.0649985
242	0xbd1cfb78	-0.038325757
243	0xbd30b020	-0.043136716
244	0x3dba490b	0.09095963
245	0xbd28fa48	-0.04125431
246	0x3ceb5008	0.028724685
247	0x3d58b7f8	0.05290982
248	0x3db1f27a	0.08688827
249	0xbbd73934	-0.0065680984
250	0x3be27ba4	0.006911712
251	0xbc727614	-0.01479866
252	0x3bd410ed	0.0064717443
253	0x3a6fb043	0.00091433915
254	0xbd19f4ee	-0.0375871
255	0x3cc90fe7	0.024543716

critic_encoder.2.bias f4 [128]
0	0xbd5bf4b4	-0.053700164
1	0x3d517e44	0.051145807
2	0xbdb2228e	-0.08697997
3	0x3c82b5e5	0.015955875
4	0x3d71c4da	0.059025623
5	0xbc816333	-0.015794372
6	0xbd9316e4	-0.071821004
7	0x3d8d735f	0.06906771
8	0xbd0c2147	-0.034211423
9	0x3da80201	0.08203507
10	0x3d4fd043	0.050735723
11	0xbd6f14af	-0.058369335
12	0x3cef39d1	0.029202374
13	0xbda1fa87	-0.079091124
14	0x3cf63b0e	0.030057456
15	0xbd3dbd71	-0.046323244
16	0xbd82a8c0	-0.06379843
17	0x3d8c81de	0.06860708
18	0x3d880d29	0.06643135
19	0xbca69d68	-0.020338729
20	0xbd016253	-0.03158791
21	0x3d73a9c5	0.059488077
22	0x3d75c8dc	0.060006008
23	0xbc574097	-0.013137958
24	0x3c8c2494	0.017107286
25	0x3da74c41	0.08168841
26	0x3d5c48d3	0.053780388
27	0x3d8c37de	0.06846593
28	0x3d9f5c08	0.077812254
29	0xbd2d6f30	-0.042342365
30	0x3d97c3cb	0.074103914
31	0x3c039484	0.008031014
32	0x3d89b410	0.06723797
33	0xbd05b443	-0.032642614
34	0xbc8ec6d3	-0.017428791
35	0xbdc09f31	-0.09405363
36	0xbb23cb9a	-0.0024993182
37	0x3da47b40	0.080313206
38	0xbc15e9d8	-0.009149991
39	0x3d529a05	0.051416416
40	0x3b1ac1b9	0.0023614003
41	0x3d8e0787	0.069350295
42	0xbd686080	-0.056732655
43	0x3c34a599	0.01102581
44	0xbd9cc617	-0.0765497
45	0xbd9413d7	-0.07230347
46	0xbd277ec5	-0.04089238
47	0x3d7657a4	0.060142174
48	0xbb719ed5	-0.0036868353
49	0xbda0eb0c	-0.07857332
50	0x3d6ffa98	0.058588594
51	0x3d328051	0.043579403
52	0xbcc5a1d2	-0.024125014
53	0xbd778c0a	-0.060436286
54	0x3d655ba8	0.055995613
55	0xbd72cc11	-0.059276644
56	0xbca3cafb	-0.01999425
57	0x3d0adb61	0.033900622
58	0x3d488960	0.048959136
59	0x3d3fddc7	0.046842363
60	0xbd061d32	-0.032742687
61	0x3d2660d0	0.04061967
62	0x3c67f332	0.014157103
63	0xbd9421d4	-0.07233015
64	0xbcd8e570	-0.026476592
65	0xbb93282c	-0.004490873
66	0x3d736450	0.059421837
67	0x3d1c4c52	0.038158722
68	0x3d45e841	0.048317198
69	0xbd95d00a	-0.07315071
70	0x3d8e73c7	0.069556765
71	0xbdb0642a	-0.08612855
72	0x3cffdc96	0.031233113
73	0xbcf4d86e	-0.029888358
74	0x3d488731	0.048957054
75	0x3cd6e15a	0.026230503
76	0xbd159f97	-0.03652915
77	0xbd49570c	-0.04915528
78	0x3c6583ac	0.014008444
79	0x3c62d30c	0.013844263
80	0x3d8869aa	0.06660779
81	0xbd074712	-0.033026762
82	0x3d243b6b	0.040095728
83	0x3d652562	0.055943854
84	0x3d7b95f4	0.061422303
85	0x3d8c2033	0.06842079
86	0x3bfa9416	0.0076470478
87	0x3d8d8256	0.06909625
88	0xbd80f532	-0.06296767
89	0xbbc05caa	-0.0058704214
90	0xbdaa73a6	-0.083228394
91	0xbba2d616	-0.0049693687
92	0xbb0872d9	-0.0020820408
93	0x3d596672	0.053076215
94	0x3d82f093	0.06393542
95	0xbd2baca7	-0.0419127
96	0x3cf3c616	0.02975754
97	0xbd28b4d3	-0.041188072
98	0xbd6ed608	-0.058309585
99	0xbd955773	-0.0729207
100	0xbbd404df	-0.0064703072
101	0xbce02de7	-0.027365638
102	0x3db38722	0.08766009
103	0xbd0a8042	-0.033813722
104	0x3db3d44e	0.08780728
105	0x3d5e882f	0.054329094
106	0xbd88eb39	-0.0668549
107	0x3c17bf62	0.009261938
108	0x3da68767	0.08131295
109	0x3cbb5b76	0.02287076
110	0xbd7e04a4	-0.062016144
111	0xbceaf554	-0.028681435
112	0xbcb7009a	-0.022339154
113	0xbcd77a32	-0.026303384
114	0x3d138ad8	0.036021084
115	0x3d8cb92c	0.06871256
116	0x3c9a8f56	0.018867176
117	0xbca46f2a	-0.020072538
118	0x3d326fb8	0.043563575
119	0x3d126046	0.035736345
120	0xbbbd82c7	-0.005783412
121	0x3d4cb9fc	0.049982056
122	0x3c7efc5f	0.0155631
123	0xbd5fb730	-0.05461806
124	0xbd142638	-0.03616926
125	0xbd6d86e9	-0.05798999
126	0xbdc82f58	-0.09774655
127	0x3d0621e7	0.032747176
