proly/models/player1/model_latest.pt (torch, 150530 bytes, 11 tensors)

actor_encoder.0.weight f4 [128, 11]
-0.14440788 0.21975768 -0.22162412 0.004414067 0.25987893 0.13316761 0.17401443 -0.15870345
0.2723108 0.07270965 -0.124616444 0.24688354 0.04999068 -0.09948945 0.2285236 -0.1289963
-0.06917403 0.008913259 0.16952583 0.19249007 0.026375232 -0.14512557 -0.110942304 0.25384793
0.0059628226 -0.22257096 -0.033904415 0.13549113 -0.25956666 0.2283952 0.23968574 -0.061418783
0.07157903 -0.2187811 -0.028632572 0.06608551 -0.13612582 -0.1412016 0.07763041 0.16641355
-0.04791556 -0.17221335 -0.25513422 0.07908107 -0.20298049 -0.31973583 -0.18137014 -0.18786499
-0.120618954 -0.2681995 0.22598071 -0.013153391 -0.24400862 0.15163727 0.07536473 0.028859904
0.27955747 -0.17355774 0.26553932 0.32139918 -0.1988973 -0.21639502 -0.18663059 -0.13915253
0.067189604 0.30059838 0.078112304 0.18472855 0.085726455 -0.008282429 0.30083013 0.0046665026
0.283787 0.09514706 0.15165234 0.18011077 0.16427125 0.097524755 0.1434302 0.07917436
-0.11561459 -0.19224732 0.03289248 -0.1394924 -0.1409639 0.13976394 -0.21076453 0.24163865
-0.21075897 -0.0046101897 -0.03144689 0.21185766 -0.18463196 0.1278627 -0.11203535 0.018212922
0.06821675 -0.21691954 -0.11872448 -0.11535807 0.17646956 -0.21449327 -0.06183455 -0.23097368
0.019092167 -0.028614027 0.19496675 -0.051490106 0.07880131 0.23495951 -0.14529283 0.09027834
-0.2887726 0.20793062 -0.15448353 -0.04928435 0.15142854 -0.14970715 -0.23042172 -0.17916249
0.22286034 0.0468614 0.33578235 0.031569947 0.111033745 0.10943668 0.19570188 0.14879265
-0.13816601 -0.049141362 -0.13716991 0.1997223 0.19468224 -0.126855 -0.07497858 -0.27304593
0.03852478 -0.20645352 0.016215134 -0.037530087 0.23330991 0.18053792 -0.10740722 -0.33928025
0.12423105 -0.24261257 0.1332152 0.22770342 -0.120221525 -0.16041808 -0.24181733 0.1495175
0.08511357 -0.15492275 0.24402912 0.35666543 0.039198235 -0.28583145 0.13898759 0.09146606
-0.039907176 0.09803108 0.27047047 -0.260536 0.23669027 0.04403505 0.17996597 -0.1738974
-0.051346794 -0.10556637 0.13502796 -0.00041519167 -0.03364788 -0.27069047 -0.18479386 0.19249342
-0.1272562 0.0052753515 -0.23974201 -0.011927933 -0.079072475 -0.15511753 0.20446385 -0.11321787
0.06603269 -0.18101852 0.26160973 -0.07168902 0.16899906 -0.13427106 -0.0007075918 -0.22218122
0.13547207 0.07381827 -0.22523978 -0.18550141 -0.09516272 -0.20343743 0.0924115 -0.27153492
0.2405473 0.15250851 0.040227983 0.06881837 0.15517402 0.055154856 0.16494867 0.044045907
-0.11374872 0.27215782 -0.032944173 0.26885563 0.23196149 -0.22705013 0.19211145 0.2564925
0.14023295 -0.0064952644 0.11364884 0.13541667 -0.020980285 0.14097099 -0.24070543 -0.28111672
-0.2670653 0.3048648 0.04522694 0.070472024 0.04910617 -0.24197127 -0.11162153 0.121835835
-0.239349 -0.20392981 0.08520116 0.030707639 0.21581136 -0.09751696 0.16503648 0.14542823
0.26610696 0.22771971 0.1517206 0.32174474 0.023926184 0.08376464 0.14248237 0.22375914
-0.2964153 -0.31225368 0.26747113 -0.03674326 -0.014294513 -0.18674405 -0.2522984 -0.0010963744
00000000: a9df 13be 2808 613e 6ff1 62be e1a3 903b
00000010: da0e 853e 175d 083e d730 323e 2883 22be
00000020: 526c 8b3e cce8 943d e836 ffbd 0acf 7c3e
00000030: 07c3 4c3d 20c1 cbbd 1702 6a3e 9b17 04be
00000040: 1dab 8dbd eb08 123c 2e98 2d3e 1e1c 453e
00000050: df10 d83c cc9b 14be b835 e3bd 5bf8 813e
00000060: c863 c33b a4e9 63be 5bdf 0abd 30be 0a3e
00000070: ece5 84be 6ee0 693e 2e70 753e 4392 7bbd
00000080: 0798 923d 2708 60be db8e eabc d757 873d
00000090: 9164 0bbe 2797 10be b1fc 9e3d 5068 2a3e
000000a0: 1b43 44bd b258 30be f4a0 82be 42f5 a13d
000000b0: 1eda 4fbe 6ab4 a3be 18b9 39be ae5f 40be
000000c0: 1207 f7bd 7251 89be 7d67 673e 5281 57bc
000000d0: 65dd 79be cd46 1b3e d358 9a3d 9b6b ec3c
000000e0: 2822 8f3e 1fb9 31be c5f4 873e 6f8e a43e
000000f0: bcab 4bbe a896 5dbe 171c 3fbe 007e 0ebe
00000100: b49a 893d 08e8 993e 58f9 9f3d 7b29 3d3e
00000110: 5a91 af3d 06b3 07bc 6806 9a3e 76e9 983b
00000120: 884c 913e 76dc c23d c04a 1b3e f56e 383e
00000130: b936 283e 0fbb c73d 5edf 123e 2b26 a23d
00000140: 58c7 ecbd 7bdc 44be 44ba 063d 19d7 0ebe
00000150: d758 10be 471e 0f3e a8d2 57be 1f70 773e
00000160: 33d1 57be 1311 97bb 74ce 00bd 37f1 583e
00000170: 2910 3dbe 71ee 023e ca72 e5bd 4433 953c
00000180: 39b5 8b3d 2820 5ebe d225 f3bd da40 ecbd
00000190: 70b4 343e 20a4 5bbe 3a46 7dbd 5d84 6cbe
000001a0: 2d67 9c3c f767 eabc 5da5 473e 4ae7 52bd
000001b0: 9562 a13d 3a99 703e a5c7 14be dae3 b83d
000001c0: 01da 93be c4eb 543e ee30 1ebe 63de 49bd
000001d0: 1510 1b3e d54c 19be acf3 6bbe 5f76 37be
000001e0: 8035 643e bdf1 3f3d aaeb ab3e 7d4f 013d
000001f0: a965 e33d 5720 e03d 1366 483e 1a5d 183e
00000200: 647b 0dbe 7448 49bd 4576 0cbe 0184 4c3e
00000210: c85a 473e 47e6 01be 5f8e 99bd adcc 8bbe
00000220: 29cc 1d3d 8d68 53be 9ad5 843c 26b9 19bd
00000230: cbe8 6e3e efde 383e 51f8 dbbd 24b6 adbe
00000240: d96c fe3d 6e6f 78be 9169 083e 162b 693e
00000250: b436 f6bd a344 24be f69e 77be 1e1b 193e
00000260: 0650 ae3d 12a4 1ebe c5e2 793e da9c b63e
00000270: 548e 203d 8058 92be c352 0e3e 8f52 bb3d
00000280: b575 23bd 85c4 c83d 1b7b 8a3e f964 85be
00000290: ef5e 723e 195e 343d 0049 383e 2912 32be
000002a0: 0451 52bd 2e33 d8bd c544 0a3e 15ae d9b9
000002b0: 5cd2 09bd f197 8abe 9a3a 3dbe ff1c 453e
000002c0: 734f 02be dbdc ac3b ee7e 75be 616d 43bc
000002d0: c0f0 a1bd 21d7 1ebe f95e 513e c5de e7bd
000002e0: 263c 873d eb5c 39be b6f1 853e b1d1 92bd
000002f0: 170e 2d3e 5a7e 09be af7d 39ba 7983 63be
00000300: 31b9 0a3e 082e 973d 42a5 66be 15f4 3dbe
00000310: ace4 c2bd e751 50be 3e42 bd3d a006 8bbe
00000320: 0852 763e 312b 1c3e 19c6 243d a5f0 8c3d
00000330: f0e5 1e3e 0fea 613d 4ee8 283e 7b69 343d
00000340: 17f5 e8bd 4558 8b3e 78f0 06bd 72a7 893e
00000350: 5087 6d3e d47f 68be ddb8 443e fc52 833e
00000360: 3a99 0f3e 3ad6 d4bb b9c0 e83d abaa 0a3e
00000370: d9de abbc b35a 103e 7c7b 76be 88ee 8fbe
00000380: c8bc 88be 3d17 9c3e e23f 393d a353 903d
00000390: 8d23 493d 51c7 77be d499 e4bd 1185 f93d
000003a0: e717 75be fad2 50be f27d ae3d 968e fb3c
000003b0: a7fd 5c3e f9b6 c7bd 53ff 283e 23eb 143e
000003c0: 2c3f 883e 5b2f 693e a55c 1b3e babb a43e
000003d0: d800 c43c cc8c ab3d e6e6 113e 1e21 653e
000003e0: bfc3 97be b7df 9fbe faf1 883e 1a80 16bd
000003f0: 8833 6abc d539 3fbe 422d 81be 38b4 8fba

actor_encoder.0.bias f4 [128]
-0.2285405 -0.095822714 0.11717562 -0.22301887 -0.2617774 -0.17300557 -0.29569423 0.18169916
0.27456623 -0.121011056 -0.13898699 0.27641657 0.13264437 -0.0971549 0.12041743 -0.2597224
-0.007211409 0.21851139 -0.0048120674 0.10034318 -0.09854614 0.2343593 -0.18148953 0.060999747
0.21661623 0.18453029 0.112173945 -0.10845307 -0.29049742 0.13326974 -0.12634785 -0.043597333
0.21797125 0.26973763 0.29251343 0.0090668155 0.27498522 -0.26422715 0.021030605 -0.13798085
0.19110113 -0.12389165 0.13211042 -0.11588735 -0.06279223 -0.2726023 -0.31854656 -0.26643074
0.28011933 0.27456185 -0.060635813 -0.1878679 0.15976961 0.04523965 -0.102087416 0.27781206
-0.08034328 0.05379925 0.174121 0.11710433 0.060649704 0.30538252 -0.24441911 0.23980385
-0.09052228 -0.105106905 -0.1799579 0.04642851 -0.13242501 0.12911174 -0.20554912 -0.17453852
0.2320696 -0.14686963 0.090625584 0.07268585 0.16009116 -0.201571 0.06060726 -0.07842292
0.15503861 0.27763468 0.11577713 0.06445755 0.028944442 0.050837904 -0.05729515 0.17234239
0.18386173 0.2222393 -0.24524848 -0.13967796 -0.19755237 0.21655641 -0.2506788 -0.19626486
-0.29919267 0.13652463 -0.013128288 0.13144565 0.065015666 -0.051759817 0.13146871 -0.113018915
0.11409236 0.20626675 -0.30352178 -0.27779743 -0.2646754 -0.20104875 0.28349915 -0.2969203
-0.227203 -0.30032796 0.13758601 0.09334936 0.08664682 0.08484184 0.2838072 0.20969097
-0.24667326 -0.11138629 -0.19238475 -0.13207991 0.17032373 0.10854837 0.03621545 0.28492403
00000000: 8506 6abe b33e c4bd c5f9 ef3d 0f5f 64be
00000010: b007 86be 5f28 31be 3c65 97be 580f 3a3e
00000020: f293 8c3e a5d4 f7bd 9b52 0ebe 7986 8d3e
00000030: edd3 073e 26f9 c6bd 6a9d f63d 56fa 84be
00000040: af4d ecbb 73c1 5f3e 8cae 9dbb ba80 cd3d
00000050: 8fd2 c9bd e2fb 6f3e 64d8 39be dfda 793d
00000060: a5d0 5d3e 82f5 3c3e 74bb e53d a51c debd
00000070: 14bc 94be dd77 083e 5561 01be 1e93 32bd
00000080: db33 5f3e 0d1b 8a3e 52c4 953e fb8c 143c
00000090: ddca 8c3e c848 87be 6048 ac3c da4a 0dbe
000000a0: 04b0 433e e8ba fdbd f447 073e 5956 edbd
000000b0: 3699 80bd 8792 8bbe 8918 a3be 9c69 88be
000000c0: cd6b 8f3e 5f93 8c3e 425d 78bd 7160 40be
000000d0: a59a 233e 364d 393d 3513 d1bd 623d 8e3e
000000e0: 058b a4bd 9a5c 5c3d c74c 323e 65d4 ef3d
000000f0: d36b 783d 195b 9c3e 0149 7abe 248f 753e
00000100: bf63 b9bd 4a42 d7bd e246 38be d22b 3e3d
00000110: 6c9a 07be de35 043e 787b 52be 3aba 32be
00000120: a7a3 6d3e fe64 16be e899 b93d 52dc 943d
00000130: f0ee 233e a168 4ebe 513f 783d 329c a0bd
00000140: 71c2 1e3e 2226 8e3e 8f1c ed3d 5202 843d
00000150: e51c ed3c 683b 503d 52ae 6abd 867a 303e
00000160: 4046 3c3e b392 633e 6b22 7bbe bd07 0fbe
00000170: 2b4b 4abe f7c0 5d3e f958 80be a8f9 48be
00000180: c82f 99be 1dcd 0b3e 0818 57bc b099 063e
00000190: ef26 853d 1a02 54bd bc9f 063e 7676 e7bd
000001a0: 41a9 e93d 9737 533e 3567 9bbe 773b 8ebe
000001b0: 8983 87be b9df 4dbe cd26 913e f005 98be
000001c0: e7a7 68be 96c4 99be 59e3 0c3e f32d bf3d
000001d0: e373 b13d 8fc1 ad3d 2d4f 913e 3bb9 563e
000001e0: ea97 7cbe 7f1e e4bd 8200 45be f53f 07be
000001f0: 5869 2e3e 9c4e de3d a756 143d 90e1 913e

actor_encoder.2.weight f4 [128, 128]
0.042305935 -0.06346171 -0.04968165 -0.04338761 -0.044809714 0.07205994 -0.03808865 -0.027425494
0.012404256 0.02070302 0.03149738 0.04549868 0.014430272 -0.077479616 0.08111603 0.06793868
-0.021549195 -0.015104967 -0.04354295 0.08619303 -0.025747938 0.07502488 -0.057378173 0.02001652
0.07042698 -0.08827027 -0.03191896 0.02854842 0.03959395 -0.063050814 0.10393375 -0.047523934
0.08638392 0.039875846 -0.0808292 -0.10307863 -0.05764055 -0.059399497 0.040606756 -0.07069685
0.025492674 -0.00036432288 0.067414455 0.04724681 0.015489376 0.01777346 -0.054166887 -0.05456468
-0.069131 -0.019721065 -0.0090051135 -0.071617685 -0.005652529 -0.045700714 0.012136571 -0.0037853592
0.029925033 0.027887458 0.068261325 0.09210492 -0.013938278 -0.053443655 -0.008859502 0.072105885
0.006899716 0.07244971 0.07967905 0.06357854 0.082979776 0.06750646 0.0995162 0.009358204
-0.014005783 0.06530119 -0.035431236 0.034124583 0.07043518 -0.020589901 -0.018078431 -0.0173102
0.06421273 0.07797684 0.01345769 0.029615274 -0.030410722 -0.05804865 0.04170682 -0.035882566
-0.06276079 0.045966208 0.07769577 0.0018095045 0.05382824 -0.020064674 0.0279268 -0.06642034
0.027555306 -0.055404104 0.07805724 -0.058600016 0.05688695 -0.06453565 0.08426026 -0.09973365
0.02357807 0.035393905 0.05442774 0.019202763 0.008906149 -0.082160786 0.036672555 -0.029734004
0.028016767 -0.09840134 -0.069278926 0.039980326 -0.032138906 -0.042782646 -0.0013311038 0.060744535
0.050662547 -0.051508494 0.035308704 -0.05066708 0.021017231 0.04116482 0.042763714 -0.0906105
-0.055420578 0.021183446 -0.07784487 -0.013031444 0.099143095 -0.0019114114 0.041494954 0.010419124
-0.021485588 0.04747454 0.063590005 -0.038063515 0.09079005 -0.051092137 0.031251665 -0.059007984
-0.024667429 0.07298086 0.11996548 0.092219114 -0.0182433 0.07188637 -0.036332604 0.080611825
-0.0058683385 -0.090883434 0.019218206 0.067404084 0.07535143 0.046202842 -0.0012911971 0.06949871
-0.040366143 0.09436954 -0.0057802154 -0.03837351 0.032391828 -0.04792876 0.052261982 0.08813875
-0.017913602 -0.040379055 0.1305834 -0.05151701 0.09383744 0.030574875 0.039210316 0.021613356
-0.03747702 -0.014675566 -0.035264052 0.04779259 -0.0405738 0.047408324 0.022717196 0.0678784
0.0053844037 0.074431956 0.07368275 -0.0007135825 0.0267885 0.09244842 -0.074081615 0.01582611
-0.0530072 -0.011338555 -0.096493445 -0.016107574 0.08642988 -0.10354055 0.068696536 0.07620502
-0.01598758 -0.04138596 0.061221745 -0.07408512 -0.0024283929 -0.051193338 -0.017075341 0.07974701
-0.0873482 0.069806844 -0.014744351 0.033466097 0.04403131 0.10841258 -0.08508905 0.025883382
-0.040689297 -0.0830749 0.10487044 0.016929483 -0.04902113 -0.0052633327 -0.05575649 -0.022403652
-0.05033463 0.012276024 0.06622154 0.07406321 -0.054359563 -0.06707824 0.067726515 -0.013321798
-0.052330766 -0.03226951 -0.088584736 -0.09531626 0.065163836 0.056882888 0.07947969 -0.026129844
0.0019613432 -0.008430008 0.023735391 -0.05784604 -0.04429402 0.10061123 0.10232018 -0.049127847
0.02228594 -0.03836521 0.004300943 0.04356791 0.03688424 -0.0754677 0.014852865 0.11298341
00000000: fd48 2d3d 37f8 81bd fc7e 4bbd 35b7 31bd
00000010: 648a 37bd 2994 933d d802 1cbd 6eab e0bc
00000020: 383b 4b3c 6199 a93c 6603 013d d35c 3a3d
00000030: f36c 6c3c a2ad 9ebd 2920 a63d 6f23 8b3d
00000040: f087 b0bc d37a 77bc 185a 32bd f985 b03d
00000050: 57ed d2bc a5a6 993d 6005 6bbd aff9 a33c
00000060: 053c 903d 0bc7 b4bd 75bd 02bd 60de e93c
00000070: 442d 223d c920 81bd 38db d43d 75a8 42bd
00000080: 0dea b03d db54 233d c889 a5bd e41a d3bd
00000090: 7f18 6cbd e34c 73bd 4553 263d 83c9 90bd
000000a0: 03d6 d03c 9702 bfb9 9710 8a3d df85 413d
000000b0: 27c7 7d3c a699 913c 19de 5dbd 377f 5fbd
000000c0: 8e94 8dbd 128e a1bc 2f8a 13bc 4bac 92bd
000000d0: da38 b9bb ac30 3bbd 78d8 463c ca13 78bb
000000e0: 5825 f53c 3d74 e43c 98cc 8b3d 81a1 bc3d
000000f0: 605d 64bc bce7 5abd 7227 11bc 40ac 933d
00000100: 0317 e23b 8360 943d c52e a33d 7735 823d
00000110: 4df1 a93d d440 8a3d 26cf cb3d 2753 193c
00000120: 8378 65bc a1bc 853d 5820 11bd 38c6 0b3d
00000130: 5240 903d 27ac a8bc 3819 94bc 1fce 8dbc
00000140: f781 833d 52b2 9f3d a57d 5c3c bb9b f23c
00000150: e81f f9bc 6cc4 6dbd c5d4 2a3d 99f9 12bd
00000160: bb88 80bd 1047 3c3d f61e 9f3d e52c ed3a
00000170: 007b 5c3d ac5e a4bc bfc6 e43c 6307 88bd
00000180: aabb e13c 6aef 62bd 79dc 9f3d 9206 70bd
00000190: 4a02 693d 442b 84bd a590 ac3d 2841 ccbd
000001a0: cc26 c13c 33f9 103d 9fef 5e3d 1d4f 9d3c
000001b0: 19eb 113c ea43 a8bd f635 163d ba94 f3bc
000001c0: 6b83 e53c a486 c9bd 1ce2 8dbd 69c2 233d
000001d0: 16a4 03bd db3c 2fbd 6f78 aeba 43cf 783d
000001e0: 8883 4f3d 92fa 52bd dc9f 103d 4988 4fbd
000001f0: 542c ac3c 719c 283d 0129 2f3d ff91 b9bd
00000200: b000 63bd e888 ad3c 226d 9fbd d681 55bc
00000210: 890b cb3d 5388 faba 9df6 293d f9b4 2a3c
00000220: 8b02 b0bc aa74 423d 7a3b 823d 7de8 1bbd
00000230: 22f0 b93d fd45 51bd bf01 003d 5bb2 71bd
00000240: 5913 cabc fd76 953d 76b0 f53d 60dd bc3d
00000250: f972 95bc 2939 933d 7fd1 14bd d017 a53d
00000260: 314b c0bb 1821 babd 806f 9d3c 270b 8a3d
00000270: da51 9a3d 313f 3d3d 633d a9ba 5755 8e3d
00000280: f856 25bd d144 c13d f667 bdbb 8b2d 1dbd
00000290: 4bad 043d f350 44bd a910 563d 1782 b43d
000002a0: 8cbf 92bc 8264 25bd a8b7 053e 8003 53bd
000002b0: d82d c03d 2978 fa3c ff9a 203d 7e0e b13c
000002c0: 8181 19bd c971 70bc 0a71 10bd 2ac2 433d
000002d0: b730 26bd 3b2f 423d 6a19 ba3c d503 8b3d
000002e0: a76f b03b c86f 983d fbe6 963d b60f 3bba
000002f0: 8e73 db3c 9955 bd3d 1ab8 97bd c2a5 813c
00000300: 141e 59bd 59c5 39bc 5b9e c5bd 08f4 83bc
00000310: 2602 b13d 110d d4bd c5b0 8c3d 6111 9c3d
00000320: 63f8 82bc 5384 29bd a7c3 7a3d f0b9 97bd
00000330: ac25 1fbb 1bb0 51bd 96e1 8bbc 6652 a33d
00000340: 9de3 b2bd e4f6 8e3d 4a92 71bc bf13 093d
00000350: 2d5a 343d 6a07 de3d 2b43 aebd 6309 d43c
00000360: d2a9 26bd 2c23 aabd 50c6 d63d b3af 8a3c
00000370: 61ca 48bd 0978 acbb eb60 64bd dd87 b7bc
00000380: af2b 4ebd 6021 493c 299f 873d 74ae 973d
00000390: 22a8 5ebd 5160 89bd 33b4 8a3d ac43 5abc
000003a0: c958 56bd 092d 04bd ea6b b5bd 2c35 c3bd
000003b0: 9e74 853d 08fe 683d 3fc6 a23d 410e d6bc
000003c0: e189 003b 041e 0abc b970 c23c f8ef 6cbd
000003d0: a56d 35bd 430d ce3d 3e8d d13d 483a 49bd
000003e0: 0191 b63c d724 1dbd edee 8c3b 4474 323d
000003f0: ee13 173d cf8e 9abd 6e59 733c d963 e73d

actor_encoder.2.bias f4 [128]
-0.0680172 -0.017096449 -0.0011291056 0.036132872 0.004659243 0.0676253 -0.02349111 -0.07069011
-0.034780584 -0.06413017 0.09175639 0.08364903 0.026075194 0.05427559 0.029180864 0.026603758
0.03126462 -0.05249304 0.005216709 0.017463673 -0.05691837 -0.042717792 0.03143358 -0.018306863
0.07936173 0.073792145 0.061202068 -0.04054516 -0.0135260755 0.054751236 0.0009954729 0.04055377
-0.028534226 0.06257573 0.050071485 -0.07273809 -0.055695534 0.032812968 0.05216478 -0.012868316
0.037558883 0.012280661 -0.040981684 0.07079437 0.06901803 0.0209596 0.008801859 -0.030283747
-0.043643158 -0.0073296297 -0.010321276 0.099155076 0.057908844 0.03589962 -0.0006473141 0.040097326
-0.07708822 0.026374064 -0.021889057 -0.05221503 -0.033573963 -0.04592975 0.026837962 0.010886133
0.046382662 -0.035029527 0.011499577 0.01880334 0.09725482 0.08627328 -0.05256937 0.05652823
-0.040140685 0.08131171 -0.03836718 -0.06552248 0.0406638 0.010522516 0.020481776 0.077929445
0.092337824 0.002554551 -0.013910654 -0.028392132 0.033647697 0.06910435 -0.010707536 0.06469142
0.023361506 0.009092156 0.07341301 -0.025018455 -0.03829362 0.015362079 0.013507078 -0.05762061
0.021165801 0.048803017 -0.06389701 0.0927937 -0.06071054 -0.029407673 -0.033758238 -0.07935942
-0.007336542 -0.03124601 -0.04624784 0.029491577 0.03678073 0.00055323535 -0.10532468 0.04031294
0.078963794 0.020356897 -0.038620126 0.063305445 -0.02393721 -0.05539421 -0.004577304 -0.049520604
-0.022988075 -0.001987511 0.001552811 -0.052656665 -0.064571545 -0.10153011 -0.05442484 -0.02774414
00000000: 9a4c 8bbd da0d 8cbc 7ffe 93ba 1000 143d
00000010: 90ac 983b 227f 8a3d 6e70 c0bc fac5 90bd
00000020: 1676 0ebd ae56 83bd c6ea bb3d 2f50 ab3d
00000030: a59b d53c 1550 5e3d b50c ef3c 20f0 d93c
00000040: 550f 003d f102 57bd edf0 aa3b fa0f 8f3c
00000050: 3d23 69bd daf8 2ebd 7fc0 003d 46f8 95bc
00000060: 6788 a23d 5620 973d 05af 7a3d af12 26bd
00000070: 799c 5dbc d542 603d 877a 823a b61b 263d
00000080: 9cc0 e9bc b427 803d c217 4d3d b5f7 94bd
00000090: 0021 64bd e466 063d bdaa 553d a1d5 52bc
000000a0: 58d7 193d d334 493c 69dc 27bd a3fc 903d
000000b0: 5359 8d3d 78b3 ab3c ac35 103c 9f15 f8bc
000000c0: 2bc3 32bd 642d f0bb 921a 29bc d111 cb3d
000000d0: d331 6d3d 7b0b 133d 84b0 29ba 183d 243d
000000e0: 6ee0 9dbd 6c0e d83c ae50 b3bc 6ddf 55bd
000000f0: da84 09bd d520 3cbd 49db db3c c05b 323c
00000100: bffb 3d3d 1f7b 0fbd b968 3c3c 7609 9a3c
00000110: 892d c73d 0cb0 b03d fb52 57bd 258a 673d
00000120: 8f6a 24bd c186 a63d e726 1dbd a630 86bd
00000130: 168f 263d a266 2c3c 66c9 a73c 7999 9f3d
00000140: 9d1b bd3d 416a 273b 83e9 63bc 9e96 e8bc
00000150: 2bd2 093d 9586 8d3d a96e 2fbc ef7c 843d
00000160: a160 bf3c 44f7 143c 8f59 963d 81f3 ccbc
00000170: c5d9 1cbd 3bb1 7b3c cb4c 5d3c 9703 6cbd
00000180: e763 ad3c ace5 473d 70dc 82bd a00a be3d
00000190: 9dab 78bd 5ce8 f0bc 1446 0abd 3187 a2bd
000001a0: 6067 f0bb a2f7 ffbc 606e 3dbd 5298 f13c
000001b0: 64a7 163d ff06 113a 77b4 d7bd 2e1f 253d
000001c0: c5b7 a13d 82c3 a63c 2330 1ebd 49a6 813d
000001d0: f817 c4bc 0ae5 62bd 35fd 95bb 1ed6 4abd
000001e0: 7d51 bcbc e740 02bb b187 cb3a 84ae 57bd
000001f0: 163e 84bd 05ef cfbd 95ec 5ebd ae47 e3bc

actor_head.weight f4 [2, 128]
0.011585504 0.026887396 0.015405869 -0.02462079 0.007649816 0.03393164 0.0060163266 -0.04138665
0.021068186 0.0015858639 -0.019451272 -0.019264348 0.0042456375 -0.0014673966 -0.022031162 0.015900379
0.025696637 0.014808585 -0.042533968 -0.04231371 -0.061207186 0.006132374 0.0047633434 0.030192168
0.0028262783 -0.04540767 0.012772693 0.0 -7.82692e-05 -0.0091691045 0.013247051 0.015828192
0.015081721 0.018282404 0.022141125 -0.014350599 0.010339585 -0.0436496 0.027836805 -0.00059865526
0.0012131516 0.008062951 0.03471144 -0.0014682378 0.0061102114 0.0120051075 0.0040089735 0.015673852
0.0018542077 0.004041754 -0.04561999 -0.03445788 0.027467528 0.0026175817 -0.03756096 0.004319871
-0.0015720854 0.015632503 -0.025774676 -0.0122785065 0.015745426 -0.024820888 -0.027834116 0.0009817379
0.02070751 0.0017227418 0.0036938672 -0.01948148 -0.021589667 -0.025804121 0.013916041 -0.000677432
-0.02298227 0.013571624 0.01565363 0.002714 0.0003027226 -0.004254886 -0.015339742 0.012955157
-0.010233203 0.02125075 -0.0049279197 0.00994586 0.0052145724 0.02110038 0.01211281 0.00215022
0.017555749 -0.05278856 -0.00183193 0.017417647 0.017968098 0.02939187 -0.03139499 0.005856859
0.010212861 -0.015534364 0.034499098 -0.03442729 -0.005839716 0.028488403 0.0016835836 0.017906642
0.030352902 0.016325122 0.023444487 0.025633743 0.031995535 -0.01571245 0.0009876413 0.007019655
0.008531341 0.013852036 -0.035095148 -0.002817564 0.011481925 0.01272973 0.0015313814 0.014490435
0.002356411 -0.03584119 0.023677997 0.0031161273 -0.025729142 -0.0019765466 0.0124821905 0.024523476
-0.00047610851 -0.028819751 -0.019748522 -0.029745916 -0.014077642 0.029487228 0.0005573624 0.009704683
0.022121044 -0.025945276 -0.024636663 -0.033302013 -0.015248364 0.001877997 0.021203212 0.008650104
0.011514607 0.027786005 -0.007505735 -0.0241836 -0.013201888 0.017999819 -0.04157127 -0.003471191
-0.019761588 -0.012459154 -0.019130506 0.0 0.024680741 0.008749216 0.023052415 0.010181569
-0.0029977686 0.011530416 0.012643059 -0.0067380974 -0.016345179 0.015363736 0.0018895906 0.020108849
0.0005034151 -0.035223745 0.013150103 -0.045363825 -0.010959292 -0.028055158 0.0012008708 0.0041593676
0.0032704652 -0.020960478 0.013349444 -0.008233039 0.036108296 -0.01370092 0.026814101 -0.0019022494
6.486312e-05 0.014678246 -0.02796477 -0.027104989 -0.005442363 0.0034549383 0.02013988 0.004334746
0.004159404 0.033703033 0.012607005 -0.035219017 -0.040742178 0.003933722 0.037701547 -0.00016216325
-0.015314213 0.021939065 0.009692845 -0.035414945 0.0119455885 -0.038579486 0.009670398 0.011226157
0.028174564 0.0106801 0.00445719 0.02381876 0.009638961 -0.03079919 -0.017862387 -0.0202449
0.032612823 -0.013148746 -0.035685565 -0.020856356 0.008381913 0.0038809206 -0.008832529 -0.0018685239
-0.0045829 0.014178522 0.012370986 -0.03280098 0.011032255 -0.029390693 -0.0055664177 0.015750457
-0.009630866 -0.02233016 -0.0051770746 -0.04045605 0.009331717 -0.018840155 0.0038315416 0.017725794
-0.015361408 -0.029043693 0.015967587 -0.024829227 0.034889158 0.0025587792 0.032247625 0.0069359164
0.023700498 -0.020906053 0.03425457 0.0055019115 0.011187775 0.0060366546 -0.00083402003 0.015388233
00000000: 20d1 3d3c f542 dc3c e668 7c3c 8ab1 c9bc
00000010: 4fab fa3b e7fb 0a3d 9b24 c53b 0c85 29bd
00000020: 3097 ac3c c3dc cf3a 4658 9fbc 44d0 9dbc
00000030: fd1e 8b3b a955 c0ba b27a b4bc 8341 823c
00000040: c181 d23c b59f 723c 1938 2ebd 2451 2dbd
00000050: 63b4 7abd 15f2 c83b d215 9c3b 9155 f73c
00000060: 1539 393b 65fd 39bd 8f44 513c 0000 0000
00000070: 7524 a4b8 033a 16bc 290a 593c 20aa 813c
00000080: 5319 773c fbc4 953c 4e61 b53c c61e 6bbc
00000090: 5d67 293c ecc9 32bd 030a e43c 13ef 1cba
000000a0: 9d02 9f3a 781a 043c 952d 0e3d e371 c0ba
000000b0: 2b38 c83b 12b1 443c b55d 833b 7366 803c
000000c0: e308 f33a b170 843b 07dc 3abd b523 0dbd
000000d0: 9503 e13c bc8b 2b3b 85d9 19bd b48d 8d3b
000000e0: 6f0e ceba bc0f 803c 6a25 d3bc ca2b 49bc
000000f0: 8dfc 803c 2d55 cbbc 5f04 e4bc a8ad 803a
00000100: cca2 a93c 9fcd e13a cf14 723b a097 9fbc
00000110: d0dc b0bc 2a63 d3bc 1b00 643c b195 31ba
00000120: 5045 bcbc 845b 5e3c 0b3c 803c 5ddd 313b
00000130: bdb6 9e39 926c 8bbb 8b53 7bbc de41 543c
00000140: 2aa9 27bc 0e16 ae3c 637a a1bb f6f3 223c
00000150: 01df aa3b b4da ac3c cf74 463c b5ea 0c3b
00000160: 13d1 8f3c d138 58bd 5f1d f0ba 74af 8e3c
00000170: d531 933c 38c7 f03c 0898 00bd e5ea bf3b
00000180: d853 273c d883 7ebc ed4e 0d3d a103 0dbd
00000190: 175b bfbb 8360 e93c b1ab dc3a f3b0 923c
000001a0: a6a6 f83c 43bc 853c a70e c03c dbfd d13c
000001b0: c00d 033d 65b7 80bc be73 813a 2205 e63b
000001c0: 0ac7 0b3c a6f3 623c eebf 0fbd e1a6 38bb
000001d0: af1e 3c3c 5c90 503c a2b8 c83a 4a69 6d3c
000001e0: 046e 1a3b 36ce 12bd 5cf8 c13c f137 4c3b
000001f0: ecc5 d2bc f388 01bb 1a82 4c3c 75e5 c83c
00000200: 349e f9b9 6617 ecbc a7c7 a1bc b5ad f3bc
00000210: e9a5 66bc 338f f13c f51b 123a 6400 1f3c
00000220: 3137 b53c 308b d4bc d4d2 c9bc b167 08bd
00000230: 46d4 79bc 1f27 f63a 5cb2 ad3c 2ab9 0d3c
00000240: c3a7 3c3c 7a9f e33c abf2 f5bb af1c c6bc
00000250: bb4c 58bc 5b74 933c a346 2abd ec7c 63bb
00000260: 0ee3 a1bc 7b21 4cbc 94b7 9cbc 0000 0000
00000270: 442f ca3c df58 0f3c 6bd8 bc3c 98d0 263c
00000280: 3676 44bb 12ea 3c3c d524 4f3c 42cb dcbb
00000290: 53e6 85bc 2eb8 7b3c 24ac f73a 50bb a43c
000002a0: 9ef7 033a c646 10bd 8873 573c 6bcf 39bd
000002b0: 9a8e 33bc eed3 e5bc 8a66 9d3a 4e4b 883b
000002c0: 4d55 563b 4fb5 abbc a0b7 5a3c dee3 06bc
000002d0: 4be6 133d d379 60bc 3fa9 db3c e654 f9ba
000002e0: 1f07 8838 077d 703c 6016 e5bc 480b debc
000002f0: da55 b2bb 3f6c 623b 64fc a43c 7c0a 8e3b
00000300: 9c4b 883b 310c 0a3d 9d8d 4e3c d141 10bd
00000310: 45e1 26bd 74e6 803b f06c 1a3d 5e0a 2ab9
00000320: 77e8 7abc 8eb9 b33c bdce 1e3c 430f 11bd
00000330: 6eb7 433c 8605 1ebd 9770 1e3c eaed 373c
00000340: 58ce e63c 96fb 2e3c 9f0d 923b 8f1f c33c
00000350: bcec 1d3c 954e fcbc 2454 92bc a2d8 a5bc
00000360: 0695 053d d76d 57bc 072b 12bd f3da aabc
00000370: 4b54 093c 0b57 7e3b 50b6 10bc 42e9 f4ba
00000380: 272c 96bb 084d 683c adaf 4a3c 525a 06bd
00000390: a2c0 343c c0c4 f0bc 7f66 b6bb 1a07 813c
000003a0: c8ca 1dbc bded b6bc 73a4 a9bb 3eb5 25bd
000003b0: 0fe4 183c ab56 9abc 9a1a 7b3b af35 913c
000003c0: 6aae 7bbc 0aed edbc 75ce 823c aa66 cbbc
000003d0: efe7 0e3d 31b1 273b 1616 043d af46 e33b
000003e0: 8c27 c23c 2c43 abbc 854e 0c3d 6149 b43b
000003f0: ee4c 373c 21cf c53b 23a2 5aba ed1e 7c3c

actor_head.bias f4 [2]
-0.0029717966 -0.0043999455
00000000: 79c2 42bb 6b2d 90bb

critic_encoder.0.weight f4 [128, 11]
0.1394647 0.109947465 0.3803685 -0.29064068 0.22856225 0.18283212 -0.33338633 0.28938812
0.060647383 -0.18725926 -0.2408849 0.13923058 0.083405174 0.3297176 -0.32156116 0.08349866
-0.15195583 -0.1820062 -0.007062853 0.42708603 0.20677996 -0.32227758 0.2614349 0.23948893
0.5811017 -0.06318531 0.18906821 -0.21972656 0.049212854 0.30555767 0.4612776 0.2954576
0.26275766 -0.3141951 0.22757255 0.3298355 0.28271952 -0.21018009 0.1186203 0.29720873
-0.18280536 0.17759351 0.31568658 0.30472964 0.10885617 -0.13800192 0.13728227 -0.091146074
-0.18459584 -0.18881603 0.25900728 -0.16742015 0.31882712 -0.18558462 0.05833886 -0.20543359
-0.02733779 -0.08802733 -0.042876378 0.19079706 0.32302994 -0.2418588 -0.3662188 -0.17103893
-0.07404288 -0.2173069 -0.07104608 -0.23895216 0.28685656 0.2185384 0.35889244 -0.43521267
-0.19587716 -0.09376706 0.015918532 0.35162276 0.32227242 0.42024162 0.0025209098 0.30791792
-0.23024039 -0.16101071 0.24496372 -0.21642208 0.110497855 0.044726755 0.1302011 0.19882976
-0.34991354 0.09366822 0.077322856 0.03885553 -0.07544115 0.13698272 -0.07515255 0.38191453
-0.083523266 0.30749583 -0.13644756 0.2984927 -0.019969609 0.36534613 0.17147426 -0.21709462
-0.15561275 0.04799716 0.040856596 0.1523319 -0.38474202 0.24890044 -0.0155386785 -0.112272166
0.57266617 -0.13454679 0.009044513 -0.3509898 -0.048025116 0.20726079 0.26627013 0.16402408
-0.10164284 0.38978463 0.32805946 0.08850724 0.2384698 -0.18603611 0.20001958 -0.07188978
0.38137123 0.098764606 0.123110816 -0.2731957 0.37525347 0.030208033 0.5129131 0.2839218
0.06845831 -0.046975743 0.07924828 -0.13063987 0.30066746 0.23452133 -0.30578265 -0.18824343
0.30849838 0.30263716 -0.13750792 0.00052876625 0.050062846 0.30998755 0.37269488 -0.07723965
0.038270358 0.01457068 0.069203585 -0.034008104 0.031606793 0.07053106 -0.21279226 0.043078706
-0.10937782 0.2467831 0.3875986 0.073425114 0.2701669 -0.18085143 0.018689802 0.09347111
-0.056812704 -0.08378048 -0.25457886 0.2110354 0.24102539 0.32274425 -0.4039247 -0.26583934
-0.16519633 0.158657 0.18808809 0.06413752 -0.18679643 -0.31844547 0.16158716 0.3618996
0.10341444 0.07168873 -0.3453387 -0.17466822 -0.28040868 0.43840292 -0.26718882 -0.11122731
-0.29054326 0.11825965 -0.14978941 -0.11104614 -0.2657523 0.00054256775 -0.27788392 0.18015987
0.28577355 -0.08606488 0.22573861 -0.23417945 0.16771907 0.30809912 -0.17199166 -0.30013362
0.31791624 0.07723134 -0.24514629 -0.20388483 0.029353699 -0.2444615 -0.2325233 -0.04869808
0.20461856 -0.25935015 -0.05114815 0.002570762 0.339823 0.27477142 0.32922512 0.2324057
0.10814773 0.06647251 0.2769942 0.09492282 -0.015812341 0.27262244 -0.32311463 0.36015135
0.08082894 0.52475214 -0.27128655 0.113571174 0.2855382 -0.31578484 -0.040174726 0.036680944
-0.12297083 0.1500151 0.16917992 -0.11459911 0.22044754 0.15264007 0.057653718 0.41321197
0.35323843 -0.047899343 -0.012070444 -0.33100933 0.2674879 -0.29903147 0.30592144 0.12962933
00000000: d6cf 0e3e 232c e13d a9bf c23e dbce 94be
00000010: 390c 6a3e 5838 3b3e 9db1 aabe ae2a 943e
00000020: 6469 783d e4c0 3fbe 88aa 76be 7692 0e3e
00000030: 55d0 aa3d bfd0 a83e aaa3 a4be 5801 ab3d
00000040: 4f9a 1bbe d55f 3abe 816f e7bb 05ab da3e
00000050: 20be 533e 9101 a5be ccda 853e 963c 753e
00000060: 15c3 143f 4d67 81bd 199b 413e 0000 61be
00000070: 6b93 493d 0e72 9c3e 942c ec3e 3846 973e
00000080: 2c88 863e 2ede a0be c708 693e 33e0 a83e
00000090: 9dc0 903e 7339 57be 33ef f23d be2b 983e
000000a0: 5431 3bbe 13db 353e aca1 a13e 8605 9c3e
000000b0: fcef de3d 6050 0dbe b993 0c3e cbaa babd
000000c0: b106 3dbe fd58 41be 9a9c 843e 3070 2bbe
000000d0: 4f3d a33e e509 3ebe baf4 6e3d 2f5d 52be
000000e0: 80f3 dfbc ac47 b4bd 249f 2fbd 4e60 433e
000000f0: 2e64 a53e d5a9 77be 0881 bbbe d424 2fbe
00000100: cba3 97bd b385 5ebe 9b80 91bd e0af 74be
00000110: ddde 923e 88c8 5f3e c0c0 b73e 32d4 debe
00000120: 0694 48be f208 c0bd 9567 823c e607 b43e
00000130: e400 a53e e929 d73e d935 253b 6ba7 9d3e
00000140: 23c4 6bbe fedf 24be c5d7 7a3e c09d 5dbe
00000150: b34c e23d 6733 373d 7053 053e 079a 4b3e
00000160: de27 b3be 20d5 bf3d 725b 9e3d fa26 1f3d
00000170: e480 9abd 3345 0c3e 95e9 99bd 4d8a c33e
00000180: 3f0e abbd 1870 9d3e e9b8 0bbe 09d4 983e
00000190: 4e97 a3bc a60e bb3e f396 2f3e 0d4e 5ebe
000001a0: f358 1fbe ac98 443d 3f59 273d e5fc 1b3e
000001b0: e8fc c4be c2df 7e3e f195 7ebc f3ee e5bd
000001c0: 409a 123f a2c6 09be 702f 143c efb4 b3be
000001d0: fcb5 44bd 2c3c 543e 8f54 883e eef5 273e
000001e0: 1f2a d0bd da91 c73e 69f7 a73e 4943 b53d
000001f0: 6d31 743e 4080 3ebe efd1 4c3e f33a 93bd
00000200: 1743 c33e 1945 ca3d 8621 fc3d 4fe0 8bbe
00000210: 3921 c03e d676 f73c 464e 033f 335e 913e
00000220: df33 8c3d a369 40bd ec4c a23d 75c6 05be
00000230: 16f1 993e 5c26 703e 8b8f 9cbe e3c2 40be
00000240: 80f3 9d3e 42f3 9a3e e0ce 0cbe e79c 0a3a
00000250: b30e 4d3d b0b6 9e3e ddd1 be3e d22f 9ebd
00000260: 61c1 1c3d ddb9 6e3c 9cba 8d3d 154c 0bbd
00000270: 2076 013d 9772 903d 37e6 59be 4c73 303d
00000280: 7a01 e0bd b5b4 7c3e 5373 c63e e85f 963d
00000290: 5153 8a3e 1e31 39be 5b1b 993c c86d bf3d
000002a0: 70b4 68bd 1a95 abbd 2958 82be aa19 583e
000002b0: 5ccf 763e bc3e a53e 38cf cebe 181c 88be
000002c0: 3a29 29be fb76 223e 2a9a 403e 885a 833d
000002d0: 9047 3fbe 490b a3be 1b77 253e e84a b93e
000002e0: f3ca d33d 8ad1 923d 3cd0 b0be 3adc 32be
000002f0: ba91 8fbe 5976 e03e f9cc 88be 25cb e3bd
00000300: 16c2 94be 1e32 f23d 6562 19be 296c e3bd
00000310: af10 88be 1b3b 0e3a cd46 8ebe d47b 383e
00000320: e950 923e c942 b0bd 0628 673e bdcc 6fbe
00000330: 8cbe 2b3e 2bbf 9d3e 951e 30be 1dab 99be
00000340: ebc5 a23e 772b 9e3d a107 7bbe 2fc7 50be
00000350: 2b77 f03c 1e54 7abe 971a 6ebe a377 47bd
00000360: 8787 513e 8bc9 84be b980 51bd 3b7a 283b
00000370: 48fd ad3e d7ae 8c3e 3290 a83e c3fb 6d3e
00000380: 8f7c dd3d bd22 883d 2fd2 8d3e e566 c23d
00000390: e288 81bc 2b95 8b3e 486f a5be c265 b83e
000003a0: a589 a53d 2856 063f 12e6 8abe 0198 e83d
000003b0: 1032 923e 8dae a1be 418e 24bd c23e 163d
000003c0: 21d8 fbbd 8f9d 193e 803d 2d3e f0b2 eabd
000003d0: 00bd 613e ae4d 1c3e 4e26 6c3d 8590 d33e
000003e0: abdb b43e 1a32 44bd 1dc3 45bc 0e7a a9be
000003f0: 2df4 883e a71a 99be bca1 9c3e 8dbd 043e

critic_encoder.0.bias f4 [128]
0.20848194 0.30623007 -0.054532915 0.25548378 0.36516407 -0.025941176 0.27125773 -0.07554996
0.010754415 0.24658981 0.055336025 -0.06657177 -0.098689385 0.19528046 0.44545546 -0.14987078
0.29756692 0.2743592 0.12927447 -0.21475145 0.1800873 0.47012323 -0.1357573 0.18149236
0.33739552 -0.10034828 0.027146865 0.15891588 0.16380836 0.32516357 -0.11488157 0.24753731
0.09678453 -0.19975066 -0.14442989 0.12303151 -0.1207311 -0.120537095 -0.007704728 0.22151789
0.23595302 0.2047718 0.17504561 -0.006956627 0.42313635 0.16243881 0.091413215 -0.12656568
0.08276704 0.15706062 0.060663715 -0.16975014 0.25434053 0.23471318 -0.071533404 -0.1932768
0.35333925 -0.046201304 -0.14108291 0.1413269 0.4120814 0.05476191 0.31831414 0.0026177177
0.21481106 0.0749019 -0.11558038 -0.13329813 0.20070414 0.15024632 0.43744648 0.0704104
-0.05670717 -0.03538204 0.4375539 0.22672081 0.10756494 0.2405906 0.33930695 -0.000341983
-0.07813763 0.039017737 0.37518367 0.08449143 0.13043167 0.36107525 0.2898136 0.19787261
0.38074094 0.007208494 0.1255782 0.42897975 0.33504665 0.10158944 0.07298473 0.39974484
0.41933814 -0.11307762 0.38786644 0.021006944 0.013247998 0.30135068 -0.10738639 0.42770013
0.20770584 -0.12529235 0.17205907 0.221473 0.03977368 -0.14441274 -0.10479615 0.22756085
0.4508826 0.23016472 0.012151315 0.2938891 0.24493079 -0.0013261887 0.27855965 0.11517929
-0.12958254 0.026807372 -0.13940305 0.031103026 0.3942207 -0.29146183 0.0007151982 0.23421171
00000000: 4a7c 553e 30ca 9c3e e85d 5fbd c5ce 823e
00000010: c9f6 ba3e 9782 d4bc 4be2 8a3e f0b9 9abd
00000020: 4933 303c 0a82 7c3e 07a8 623d c856 88bd
00000030: a91d cabd 9af7 473e bd12 e43e ba77 19be
00000040: b15a 983e cf78 8c3e 8760 043e cee7 5bbe
00000050: ce68 383e feb3 f03e f603 0bbe 22d9 393e
00000060: 1bbf ac3e 6683 cdbd 1a63 de3c d8ba 223e
00000070: 61bd 273e d77b a63e 0747 ebbd 6c7a 7d3e
00000080: f836 c63d 708b 4cbe 6ee5 13be f2f7 fb3d
00000090: de41 f7bd 27dc f6bd f177 fcbb 96d5 623e
000000a0: ab9d 713e b3af 513e 283f 333e 6bf4 e3bb
000000b0: 54a5 d83e 5c56 263e da36 bb3d 6f9a 01be
000000c0: c481 a93d 80d4 203e 847a 783d fbd2 2dbe
000000d0: ec38 823e a758 703e 1b80 92bd 5aea 45be
000000e0: e2e8 b43e 943d 3dbd 0a78 10be 00b8 103e
000000f0: 55fc d23e 064e 603d 12fa a23e 048e 2b3b
00000100: 6ef7 5b3e 2b66 993d 68b5 ecbd 4e7f 08be
00000110: 6385 4d3e 2cda 193e fcf8 df3e 5433 903d
00000120: c745 68bd c2ec 10bd 1107 e03e 8029 683e
00000130: 024b dc3d 625d 763e a4b9 ad3e 2e4c b3b9
00000140: 9f06 a0bd 10d1 1f3d 1318 c03e d809 ad3d
00000150: e18f 053e dbde b83e 7362 943e 1e9f 4a3e
00000160: 7af0 c23e 3b35 ec3b 9297 003e 3ca3 db3e
00000170: 3c8b ab3e 200e d03d 0579 953d 5bab cc3e
00000180: 7db3 d63e 3d95 e7bd 6e96 c63e c116 ac3c
00000190: 220e 593c a34a 9a3e 65ed dbbd 83fb da3e
000001a0: d7b0 543e a34c 00be 4130 303e d1c9 623e
000001b0: bae9 223d efe0 13be 5d9f d6bd b605 693e
000001c0: 16da e63e 4db0 6b3e 4f16 473c a278 963e
000001d0: 23cf 7a3e 82d3 adba 5f9f 8e3e 1fe3 eb3d
000001e0: 49b1 04be 229b db3c acbf 0ebe c6cb fe3c
000001f0: 4cd7 c93e 7c3a 95be 247c 3b3a 32d5 6f3e

critic_encoder.2.weight f4 [128, 128]
-0.08804069 -0.06861045 -0.03513266 0.082991675 -0.03858756 -0.04043816 0.03486957 -0.021267688
-0.015003965 0.067078374 0.074922964 -0.025341744 0.076614864 -0.03995832 0.034303892 -0.074937515
0.034127437 -0.036206905 -0.098352455 -0.046398602 -0.07751463 0.055386376 0.0108428355 0.03753226
-0.106672294 0.056680884 0.025315415 -0.019459993 0.04362681 0.07037405 -0.005232962 -0.07819821
0.07411404 0.078114964 0.023300959 -0.06839507 -0.071174964 -0.06761577 -0.011641236 0.08069992
-0.01621137 -0.036953185 -0.017185114 -0.027043648 -0.0073125307 0.038075507 0.014482332 -0.077104285
-0.03877108 0.054081067 -0.074716724 -0.04204363 -0.055314977 0.02882789 0.0751679 -0.057146747
-0.06006894 -0.022653146 -0.028287308 0.06984687 0.040629335 -0.051459715 0.079931125 0.032131903
-0.02149021 -0.076760635 0.06648908 0.08933771 -0.08693789 -0.05840696 -0.023028249 0.009923196
0.011561741 -0.097171634 -0.07016805 -0.037722785 -0.072195716 0.09307414 -0.0050988626 -0.05769352
-0.057471763 0.010085586 -0.03313633 0.028555935 -0.028716529 0.022502381 -0.07043699 -0.023685781
-0.07067417 -0.069324665 0.0778766 -0.023743339 0.055848822 0.047997884 -0.046137836 0.08863997
0.068174146 0.016897134 0.0064804857 -0.07131325 0.030374726 -0.030429903 0.038470093 -0.029001765
0.05815075 -0.008748649 0.042089872 0.035435267 0.0005959858 0.07589139 0.087023504 -0.041441254
0.05535927 -0.046892595 -0.056545362 0.034701984 0.0076791137 -0.03266997 -0.057454407 0.05915462
-0.027237281 0.032502238 0.053183764 -0.06574025 0.06368656 -0.04843858 0.040675502 -0.013048778
0.07720365 0.096140064 0.07181182 0.01859966 0.15478268 0.104996264 0.07548524 -0.0026029535
0.093304396 0.18139273 0.17398016 0.02939142 0.1205924 0.12719591 0.08530172 0.019057116
0.061164353 0.1303166 0.08095558 0.020658758 0.09986911 0.054312415 0.13546765 0.055092417
0.052602354 0.09661917 0.16024946 0.039749965 0.05894932 0.06836961 0.034106966 0.09221525
0.13646562 0.12421071 0.07695127 0.07078303 0.094973646 -0.023827855 0.086442955 0.101295084
0.055637028 0.10615954 0.035825126 -0.014156721 0.1244304 0.14626953 0.071807 -0.0010620245
0.085777536 0.13790439 0.03903451 -0.028211549 0.06640443 0.09302548 0.056187302 0.0446056
0.16463134 0.1144253 0.06086567 0.16996288 0.12433455 0.053007703 0.04651148 0.10419102
0.07689726 0.007490457 0.061204262 0.13701019 0.013023946 0.011809461 0.15315111 0.15019943
0.052927658 0.050826937 0.002559741 0.002702315 0.12508951 0.08588321 0.086379535 -0.008868083
0.18291323 0.102389574 0.014497869 0.03079753 0.12439385 0.0033150192 0.057233404 -0.031418137
0.11731354 0.07663813 0.1545584 0.03313234 0.1432165 0.13455029 0.14039299 0.06356869
0.008380474 0.029639145 0.05531063 0.091185644 0.028460503 0.07059943 0.045175374 0.02401695
0.0420686 0.15866531 0.13258804 0.11749622 0.06071573 0.11750695 0.025738085 0.074035004
0.08051621 0.11745495 -0.0022690552 0.05216182 0.16237311 0.018391542 0.10904946 0.11767349
0.14200644 0.11203995 0.034939434 0.06353526 0.13029882 0.0023660825 0.04016983 0.10194104
00000000: ad4e b4bd a383 8cbd 44e7 0fbd 8af7 a93d
00000010: fd0d 1ebd 7ca2 25bd 65d3 0e3d 9339 aebc
00000020: 31d3 75bc 6360 893d 3671 993d 7d99 cfbc
00000030: 41e8 9c3d 56ab 23bd 3d82 0c3d d778 99bd
00000040: 36c9 0b3d b14d 14bd 036d c9bd 760c 3ebd
00000050: febf 9ebd d3dc 623d 26a6 313c 6dbb 193d
00000060: 0177 dabd 372a 683d 4662 cf3c 906a 9fbc
00000070: 07b2 323d 4520 903d 4479 abbb 6226 a0bd
00000080: 1ac9 973d bdfa 9f3d a7e1 be3c b712 8cbd
00000090: 2ec4 91bd 237a 8abd e2ba 3ebc 0046 a53d
000000a0: b5cd 84bc 395c 17bd ccc7 8cbc a48a ddbc
000000b0: f49d efbb 10f5 1b3d 4e47 6d3c dae8 9dbd
000000c0: 6dce 1ebd 1c84 5d3d 1505 99bd f135 2cbd
000000d0: f591 62bd 7828 ec3c a1f1 993d b512 6abd
000000e0: d90a 76bd 1793 b9bc c9ba e7bc e00b 8f3d
000000f0: f26a 263d 6cc7 52bd eeb2 a33d be9c 033d
00000100: 3d0c b0bc ae34 9dbd 6d2b 883d b0f6 b63d
00000110: 7e0c b2bd 233c 6fbd bda5 bcbc e794 223c
00000120: 756d 3d3c ec01 c7bd 44b4 8fbd 3583 1abd
00000130: 59db 93bd a89d be3d 5c14 a7bb 0a50 6cbd
00000140: 8367 6bbd 043e 253c f6b9 07bd 23ee e93c
00000150: ed3e ebbc ea56 b83c 4541 90bd af08 c2bc
00000160: 9fbd 90bd 17fa 8dbd c47d 9f3d 6481 c2bc
00000170: bcc1 643d 6e99 443d 07fb 3cbd df88 b53d
00000180: e39e 8b3d dc6b 8a3c 415a d43b ae0c 92bd
00000190: 6bd4 f83c 2248 f9bc d192 1d3d 1c95 edbc
000001a0: 7b2f 6e3d 7e56 0fbc 6e66 2c3d 9224 113d
000001b0: ee3b 1c3a f26c 9b3d 6139 b23d 4ebe 29bd
000001c0: 67c0 623d 7312 40bd 1c9c 67bd ab23 0e3d
000001d0: 13a1 fb3b f2d0 05bd 5055 6bbd 1d4c 723d
000001e0: b820 dfbc 1121 053d 38d7 593d d3a2 86bd
000001f0: 196e 823d 8867 46bd 5b9b 263d 8bca 55bc
00000200: f21c 9e3d 15e5 c43d 1312 933d 505e 983c
00000210: 5a7f 1e3e 4808 d73d 0198 9a3d 5096 2abb
00000220: 6016 bf3d 04bf 393e db27 323e 46c6 f03c
00000230: 26f9 f63d a53f 023e abb2 ae3d ab1d 9c3c
00000240: 7987 7a3d b771 053e 0acc a53d 8e3c a93c
00000250: 2d88 cc3d b276 5e3d 08b8 0a3e 96a8 613d
00000260: 9175 573d 45e0 c53d 6f18 243e dcd0 223d
00000270: d874 713d 5e05 8c3d bfb3 0b3d 59db bc3d
00000280: a5bd 0b3e 2f62 fe3d a198 9d3d b1f6 903d
00000290: 8b81 c23d a232 c3bc 0109 b13d cc73 cf3d
000002a0: a7e3 633d 2c6a d93d 5ebd 123d 97f1 67bc
000002b0: 5ed5 fe3d aec7 153e 8c0f 933d a133 8bba
000002c0: 22ac af3d cf36 0d3e a6e2 1f3d e81b e7bc
000002d0: 0cff 873d 2584 be3d a824 663d 5db4 363d
000002e0: 1e95 283e d057 ea3d 484e 793d c00a 2e3e
000002f0: 1da3 fe3d 9b1e 593d d282 3e3d 1a62 d53d
00000300: 507c 9d3d 8272 f53b 52b1 7a3d 664c 0c3e
00000310: 6462 553c 787c 413c a5d3 1c3e e1cd 193e
00000320: acca 583d e82f 503d 54c1 273b 5319 313b
00000330: 7717 003e 89e3 af3d c1e7 b03d 704b 11bc
00000340: 9b4d 3b3e a0b1 d13d 7888 6d3c 1a4b fc3c
00000350: 34c2 fe3d cb40 593b 936d 6a3d 4eb0 00bd
00000360: 1542 f03d 74f4 9c3d 8f44 1e3e c7b5 073d
00000370: 59a7 123e 8dc7 093e 2ec3 0f3e 4d30 823d
00000380: 414e 093c cbcd f23c 668d 623d 8abf ba3d
00000390: 0026 e93c 6f96 903d d009 393d 32bf c43c
000003a0: 2050 2c3d 2979 223e 29c5 073e dca1 f03d
000003b0: 0fb1 783d 7ca7 f03d add8 d23c aa9f 973d
000003c0: afe5 a43d 398c f03d 6eb4 14bb a2a7 553d
000003d0: 2345 263e dca9 963c 5355 df3d ccfe f03d
000003e0: 236a 113e 3475 e53d a71c 0f3d c61e 823d
000003f0: 0e6d 053e 4710 1b3b 1f89 243d 77c6 d03d

critic_encoder.2.bias f4 [128]
-0.06498312 0.10353244 0.033233076 0.13514192 0.17603113 -0.04019403 -0.09143681 0.18464097
0.11444022 0.061364714 0.17461011 0.040287174 0.0052903546 -0.09329649 0.16265635 -0.055996023
0.07741055 0.041867103 0.061274614 -0.019240068 -0.036506224 0.18651782 0.043503102 0.07755525
0.003449318 0.06404283 0.17401674 0.20293956 0.20772515 0.06552445 0.06278367 0.1502579
0.048486017 -0.035960738 0.10740215 -0.09509879 0.027461184 0.22659549 0.09851528 0.15141718
0.13207912 0.051263325 -0.071674354 -0.00063307065 0.04776308 0.055948645 0.0966794 0.17289391
-0.0075959624 -0.088968866 0.18112354 0.1903029 -0.026403727 -0.07786574 0.16318353 0.07103452
-0.03464106 0.0053088386 0.17575687 0.15954581 -0.044823248 0.16311467 0.00016509657 -0.07736337
-0.04117719 -0.021178303 0.16821614 0.17830262 0.029022012 -0.07485763 0.18120617 -0.08761417
0.15664057 -0.043148074 0.17567398 0.00977321 -0.057858504 0.033167955 0.009072838 0.00029494907
0.17690042 -0.0575934 0.106714934 0.13514023 0.18026334 0.090313874 0.14577393 0.18598752
-0.07221601 -0.01444772 0.034663767 -0.0067202616 0.08224258 0.038798194 0.04913936 0.09475635
0.15059525 -0.042821024 -0.07610251 -0.08619522 -0.023977775 -0.041499685 0.076668814 -0.04661003
0.068618216 0.16886505 -0.08273521 0.1376487 0.06282603 0.13300152 -0.070792094 0.08627514
-0.03942038 -0.026303384 0.019241748 0.20114242 0.14910433 -0.033051766 0.03953386 0.16133524
-0.018500775 0.04433469 0.12223797 -0.07011918 -0.036246978 -0.06783596 0.0053585027 0.16613662
00000000: df15 85bd d108 d43d 681f 083d a562 0a3e
00000010: 8141 343e 7fa2 24bd 3943 bbbd 8612 3d3e
00000020: a25f ea3d 9159 7b3d fecc 323e 2a04 253d
00000030: b65a ad3b 3b12 bfbd 638f 263e 165c 65bd
00000040: 6c89 9e3d d77c 2b3d 17fb 7a3d 599d 9dbc
00000050: 8d87 15bd 87fe 3e3e 4f30 323d 49d5 9e3d
00000060: f40d 623b e328 833d 7231 323e 63cf 4f3e
00000070: e7b5 543e af31 863d ba94 803d 35dd 193e
00000080: 4699 463d 914b 13bd a9f5 db3d 28c3 c2bd
00000090: 47f6 e03c a608 683e 61c2 c93d 1b0d 1b3e
000000a0: c03f 073e 7ef9 513d 01ca 92bd a7f4 25ba
000000b0: 38a3 433d 682a 653d d9ff c53d 1a0b 313e
000000c0: 8de7 f8bb 4f35 b6bd 7378 393e c3de 423e
000000d0: a14c d8bc 1378 9fbd 9519 273e 8c7a 913d
000000e0: c9e3 0dbd c4f5 ad3b 9cf9 333e fa5f 233e
000000f0: 9598 37bd 8807 273e c61d 2d39 b070 9ebd
00000100: 6aa9 28bd 1f7e adbc da40 2c3e f694 363e
00000110: 92bf ed3c f54e 99bd 1c8e 393e 0f6f b3bd
00000120: 6366 203e 09bc 30bd e1e3 333e d01f 203c
00000130: 0afd 6cbd 1fdb 073d 3ea6 143c 65a3 9a39
00000140: 6225 353e 0fe7 6bbd 5c8d da3d 3362 0a3e
00000150: f496 383e 7bf6 b83d c345 153e 8373 3e3e
00000160: fde5 93bd 21b6 6cbc 98fb 0d3d a435 dcbb
00000170: cc6e a83d dbea 1e3d 5b46 493d 9e0f c23d
00000180: a435 1a3e 1965 2fbd a2db 9bbd 1f87 b0bd
00000190: 0a6d c4bc 93fb 29bd 8a04 9d3d 29ea 3ebd
000001a0: b587 8c3d f6ea 2c3e 1471 a9bd c8f3 0c3e
000001b0: efaa 803d 8d31 083e 72fb 90bd 05b1 b03d
000001c0: 4477 21bd 327a d7bc dfa0 9d3c 47f8 4d3e
000001d0: ceae 183e 4a61 07bd 42ee 213d 1135 253e
000001e0: f08e 97bc 4b98 353d e757 fa3d a59a 8fbd
000001f0: b677 14bd 94ed 8abd 6196 af3b b81f 2a3e

critic_head.weight f4 [1, 128]
-0.005280306 0.0872014 0.24817283 0.21239056 0.24067292 -0.05557499 -0.0664522 0.21501161
0.17552814 -0.07865796 0.23123614 0.11460556 -0.07429649 -0.061872043 0.19334756 -0.05253787
0.20906354 -0.039499927 -0.011077182 -0.0646645 0.064646564 0.17622384 -0.072784126 0.16757488
-0.05873681 -0.028521638 0.2523422 0.14767617 0.18940057 0.24038762 -0.05795007 0.15917066
-0.035676062 0.07134768 0.24638915 0.019277954 -0.042769644 0.17915341 0.20194885 0.13399614
0.20478441 -0.012875592 -0.08570222 -0.021452768 0.21858482 0.14728501 0.17538978 0.19424573
-0.06938443 -0.017393975 0.20555262 0.19231082 0.021776907 -0.07152866 0.20883213 0.19129507
-0.0151234185 -0.060071014 0.25890738 0.22590461 -0.030394373 0.24076271 -0.0033109854 0.071367644
-0.07000765 -0.049109723 0.22881944 0.18038347 -0.039032266 0.02331956 0.2112877 -0.0074525564
0.21732387 -0.079845004 0.1802734 -0.031872805 -0.044920333 0.1046878 -0.015131326 -0.037788577
0.20312428 -0.08215438 0.15400639 0.108388424 0.2504515 0.05703278 0.19888617 0.23482077
-0.035132565 -0.051802617 0.25618666 0.04134435 0.115635805 -0.06109551 -0.08578099 0.19517864
0.22535934 0.07508812 -0.034819767 -0.013105805 -0.07372473 -0.011515764 -0.048296545 -0.018784251
-0.050415263 0.18838887 -0.018276377 0.21685106 -0.006902461 0.13411716 -0.011854148 0.23253706
-0.00914336 -0.06676384 -0.068144254 0.21249945 0.2624334 -0.056503255 -0.060910508 0.24980752
-0.023114279 -0.053618208 0.23701884 -0.07059026 0.03844457 -0.07548746 0.20490237 0.15488958
00000000: 6b06 adbb a696 b23d 0521 7e3e e97c 593e
00000010: f672 763e 9aa2 63bd 1718 88bd 012c 5c3e
00000020: a6bd 333e 6d17 a1bd 2bc9 6c3e 52b6 ea3d
00000030: c228 98bd 8a6d 7dbd e7fc 453e f331 57bd
00000040: c114 563e adca 21bd 127d 35bc d26e 84bd
00000050: 6b65 843d 0674 343e d80f 95bd c098 2b3e
00000060: 0296 70bd 36a6 e9bc ff32 813e 6c38 173e
00000070: 39f2 413e 2c28 763e 0d5d 6dbd a2fd 223e
00000080: 1021 12bd bc1e 923d 704d 7c3e cdec 9d3c
00000090: 392f 2fbd fe73 373e aecb 4e3e 4936 093e
000000a0: 01b3 513e 26f4 52bc a584 afbd b7bd afbc
000000b0: b3d4 5f3e e2d1 163e 6199 333e 5ae8 463e
000000c0: 6d19 8ebd cf7d 8ebc 637c 523e 21ed 443e
000000d0: 7c65 b23c 9e7d 92bd 17d8 553e dbe2 433e
000000e0: 37c8 77bc 060d 76bd 828f 843e 8a53 673e
000000f0: 9ffd f8bc 808a 763e 1efd 58bb 3329 923d
00000100: 2c60 8fbd 4727 49bd a54f 6a3e 72b6 383e
00000110: 4ce0 1fbd a908 bf3c ce5b 583e 9334 f4bb
00000120: 268a 5e3e c785 a3bd 9799 383e 0f8d 02bd
00000130: 62fe 37bd 8f66 d63d 62e9 77bc 32c8 1abd
00000140: d0ff 4f3e 8e40 a8bd dab3 1d3e c0fa dd3d
00000150: 2e3b 803e 349b 693d d1a8 4b3e db74 703e
00000160: 2ae7 0fbd fb2e 54bd e62a 833e b158 293d
00000170: 77d2 ec3d 493f 7abd f2ad afbd e9dc 473e
00000180: 99c4 663e cdc7 993d 2c9f 0ebd bbb9 56bc
00000190: fefc 96bd 9dac 3cbc 99d2 45bd 6ee1 99bc
000001a0: 3c80 4ebd 03e9 403e 57b8 95bc 340e 5e3e
000001b0: 0a2e e2bb 0256 093e e637 42bc 321e 6e3e
000001c0: 08ce 15bc 7bbb 88bd 378f 8bbd 7599 593e
000001d0: ac5d 863e f56f 67bd 4c7d 79bd 8bcd 7f3e
000001e0: 285a bdbc c49e 5bbd 11b5 723e a091 90bd
000001f0: 0e78 1d3d 2b99 9abd edd1 513e 609b 1e3e
